ckpts/env_ckpts/env_net_2.pth (torch, 241443 bytes, 8 tensors)

env_net0.weight f4 [160, 38]
00000000: 98c0 3fbe 6d8e b0be b79a 12bf 7714 f1be
00000010: 0c09 c0be 62c8 803c e27a c2bc 681b 11bd
00000020: 39bf 5ebd c1ce edbb 8e0e 193e 6603 11bd
00000030: 2263 d73e 782b 2abd c661 2b3f 650a 7c3c
00000040: b1b0 a33e a665 b83d 7326 f9be 55e9 693e
00000050: fbfe 9d3e 051b 3d3d e3e9 18be 7877 22bd
00000060: ddc3 4f3d ad64 95be 7bb2 d6bd 76b8 8b3e
00000070: d7dd b73e d16f 9a3d a348 793e 4354 b0be
00000080: ef3e a13e 320b c9be 85df 12be 8b1e fb3c
00000090: b5ac ddbe cf05 30bf c34d 603d 71aa 16bf
000000a0: 2103 fcbe e026 2dbe 65da b73e 365b a8be
000000b0: 4064 913d b0c2 093f 1b1a c33e f0dd 8c3e
000000c0: baec e8be 4621 993d d48b 9fbd 7f61 993e
000000d0: c043 273d 17ca ddbd e6f6 dfbd e6f8 44bd
000000e0: c532 29bf 783c 64be 7929 0f3e 241a 24bb
000000f0: b72c 373e 0bcf 5bbe bfd0 6abd c7b5 13bd
00000100: 5106 c6be d6be e83e 15d9 013f 02cc e1bb
00000110: bc41 e13e b8bd a3be 267a c13e b43d 0e3e
00000120: 5411 fa3d 19b3 99bc 55ec d13d 0f2b 0a3f
00000130: 10ae 02be b6c3 2fbd 1d58 913f 51e6 9a3f
00000140: 2a42 f53e 2dd1 86bc 6065 163e 1418 df3b
00000150: edd6 053d a4e5 643e 63cc 10bf 382f 63be
00000160: 637e ac3e 9797 9e3c c611 03bf 28d8 b5bd
00000170: 6175 813e be5c 093e 4a78 bd3c 8ce3 c6bd
00000180: 2df9 a0bd 1a1a 02be 6c83 073e 511f 513e
00000190: c718 783d 3d4c 11bf b568 143e b8bd c83e
000001a0: 5277 3e3e 71c2 9c3d 9062 b43e 632a 02bf
000001b0: c85a 523f 63af c8be 1eb1 0cbf fafd 11bf
000001c0: da9d 373f a97b ec3e 8fdd 273f 9514 003e
000001d0: b9cc 183f 68a0 bf3e 48a1 a8bd 1cec 00be
000001e0: 7ead 86be 0513 84be 8965 21be 3509 bf3e
000001f0: 07f3 493e 7eb7 c4bc 3871 cb3e f0df 073f
00000200: d375 f4bd 02f0 9e3e 636c d2bd cce6 753e
00000210: 92bd 443d 1c67 15bd f196 00be 579f 86bc
00000220: e428 97bc f6c9 063d f164 f43c 51aa 003f
00000230: 7347 b23e 74dc 3a3e c7ad 723e 93ac 46bd
00000240: 6b76 2ebd e09a 3dbe cafb 4a3d c4fd 29be
00000250: cc59 0c3f 86b5 323f d5ff 8e3e e32b 4fbe
00000260: fa89 393e d7f4 5c3b 7dc4 073e 54ee 7abe
00000270: aee5 fcbe 714c 3f3d 92f4 67be 6278 41be
00000280: d658 103f c4a4 ccbe 8fd1 043f c73c bbbe
00000290: e3d3 d0be 975e ee3c 932b b63e b73c 71bf
000002a0: 3697 e53d 6c40 973e 7866 d4be c351 12be
000002b0: f2ca 003e da0c 6abe 48a5 783e 0b3b dfbe
000002c0: 79ec a6bd 99cd 973c ab00 d5be 7ed4 ad3e
000002d0: 9a3c bd3e b393 28be 84e8 7abe b44b 9b3e
000002e0: 1f3a 1c3e 11b6 df3e ed9d 23bf 2bbd 043f
000002f0: 59aa 1abf 588f 633d bc2d 9d3e ff21 853e
00000300: 15b3 29be 7bd4 053e ed2e 60be 168b 8b3e
00000310: eff0 debd 841e e6bd c40a 16be db66 c13e
00000320: 87f0 2e3e d843 78be d91c f5bd 11d9 393e
00000330: 0eb9 4cbe 2eab 343d bda8 ae3e 7af9 253e
00000340: 779b 7fbe 56ce 77be 624f 71be 673f 0d3e
00000350: 1666 02bf 1b1a ffbd 7c89 96bb 6b29 263e
00000360: 1a6c a43e bba9 f33e 287b 89be 3658 9dbb
00000370: 1659 f93e f6ee d53d 7b65 cabe 2e80 90be
00000380: c0d0 9abe e4e8 f3bd 1d04 e2be 507e aabe
00000390: eb4f b03e b76d 9e3e a1c5 7dbe b306 6a3e
000003a0: 0bb2 1bbe 0e4e 99bd ae07 a23b 18a5 ac3d
000003b0: b9b5 01be 1013 b9be 45d2 863e e324 56be
000003c0: a428 1dbd 1d9e 40be 5321 d53c ab3e a03e
000003d0: 740f 1c3e 47f1 eb3e 5870 bf3e 6fda 2fbe
000003e0: 68b3 f2be b2ad 16be 3b28 edbe c1b7 0fbf
000003f0: 7dfb 1b3e cda1 213e 74e6 c13d c231 18be
-0.18725812 -0.34483662 -0.57267326 -0.47085926 -0.37506902 0.01572055 -0.023740236 -0.035426527
-0.054381583 -0.007257313 0.14946958 -0.03540363 0.4206782 -0.04154536 0.66946065 0.015383338
0.31970742 0.09003763 -0.48662147 0.22842915 0.30858597 0.046168346 -0.1493297 -0.039664716
0.0507239 -0.29178372 -0.10483261 0.2728917 0.35911438 0.075408585 0.24344115 -0.34439287
0.31493327 -0.39266354 -0.14343078 0.030654212 -0.43295828 -0.68758863 0.05476166 -0.5885382
-0.49221137 -0.16909361 0.3590881 -0.32882088 0.07099199 0.53812695 0.38105854 0.27513075
-0.45493108 0.074770495 -0.07790342 0.29957196 0.040836096 -0.10829561 -0.10935764 -0.04808893
-0.66093093 -0.22288692 0.13980664 -0.0025039995 0.17888151 -0.214657 -0.057327982 -0.03606203
-0.38676694 0.45458096 0.50721866 -0.0068907747 0.43995464 -0.3198068 0.37788504 0.13890725
0.12210336 -0.018762158 0.10250155 0.5397195 -0.12761712 -0.042911254 1.1355015 1.2101537
0.47902042 -0.016457165 0.14687109 0.0068082903 0.032675672 0.22353226 -0.5656187 -0.22185981
0.33690175 0.019359393 -0.51198995 -0.08879119 0.25284865 0.13414285 0.023128647 -0.0971137
-0.078600265 -0.1270527 0.13233727 0.20422103 0.060570505 -0.56756955 0.14493068 0.39207244
0.18600205 0.07654274 0.35231447 -0.50845927 0.8216977 -0.3919631 -0.5495776 -0.5702816
0.7172524 0.46188095 0.65572447 0.12507851 0.5968738 0.37427068 -0.08233887 -0.12590069
-0.2630424 -0.2579576 -0.15761389 0.37311712 0.19721614 -0.024013277 0.39734817 0.53076077
-0.11936536 0.31042486 -0.102745794 0.24013823 0.04803235 -0.036475286 -0.1255758 -0.016433401
-0.018452115 0.03290745 0.029833289 0.5025988 0.34820136 0.18248159 0.23699103 -0.048504423
-0.0425934 -0.18516111 0.04955653 -0.1660071 0.5482452 0.6980823 0.2792956 -0.20231585
0.1811904 0.0033715272 0.13258548 -0.24504977 -0.49393982 0.04670376 -0.2265189 -0.18893579
0.5638555 -0.39969456 0.5188226 -0.36569807 -0.40786657 0.029097838 0.3558012 -0.9423327
0.11210482 0.29541337 -0.41484427 -0.14289002 0.12577417 -0.22856465 0.242818 -0.43599734
-0.08150572 0.018530654 -0.41602072 0.3395118 0.36960298 -0.16462593 -0.2450276 0.30331194
0.15256546 0.43693593 -0.6391285 0.5185115 -0.6041618 0.055556625 0.30698955 0.260025
-0.1657222 0.13069336 -0.21892901 0.27254552 -0.10885798 -0.11236289 -0.14652544 0.37773785
0.17083941 -0.2424463 -0.11968393 0.1814921 -0.19992468 0.044108562 0.34113112 0.16208449
-0.24961649 -0.24199805 -0.23565438 0.13793717 -0.5093702 -0.12456151 -0.004594026 0.16226737
0.32113725 0.47590432 -0.26851773 -0.0048017753 0.4870078 0.10445969 -0.39530548 -0.28222793
-0.3023739 -0.11909655 -0.44143763 -0.33299494 0.34435973 0.3094308 -0.2478242 0.22854118
-0.15204637 -0.07485591 0.004944763 0.08429927 -0.12666978 -0.36147356 0.26332298 -0.20912509
-0.038368836 -0.18810315 0.026016867 0.31297812 0.1524027 0.46082518 0.373904 -0.1717317
-0.474025 -0.14714697 -0.46319756 -0.5613976 0.15232654 0.15784378 0.094677836 -0.14862731

env_net0.bias f4 [160]
00000000: 0912 7ebc 4d19 81bc 17c4 7e3d aa40 3b3d
00000010: 6f54 20be 80b1 19bd 7473 5f3d a308 76bd
00000020: 53c5 31be b494 4a3c 9ab3 b7bd 3e90 ce3c
00000030: f84e 0bbe 4b28 b4bd 5583 123d 1970 533b
00000040: 4c76 d2bc 830c 62bd 5470 67bd d156 683d
00000050: 6d63 b53d dc66 bebd 441b eb3c 5812 6c3d
00000060: 451e 2fbd 1210 98bd 6a4e 073d f330 5abd
00000070: f143 b23c 7d99 0dbc c4f2 47bd bb3c 16bd
00000080: 96cd 36bd ad8b 6c3c 900b 30bd 543e 323d
00000090: babe bfbd 7d4d 2dbe 0be8 ca3c eccd a6bd
000000a0: 9e79 9bbd d384 94bc d576 5abd 19b5 8fba
000000b0: 2e84 b0bb fa11 b53c 74be 18bd 891c 873d
000000c0: f1ec 11be 1b2c bf3c c9a8 77bd 5b6a 33bc
000000d0: b147 3bbd 63f0 f0bc 6338 cc3c 16c1 28bd
000000e0: 80e3 3b3d 07b6 80bd e9f6 63bd 3109 14bb
000000f0: b76d 99bd 0170 90bc f224 00bd d06a 1dbe
00000100: 013c 01bc 9873 bb3c 46ed f4bd 6a7b 86bd
00000110: b07d b8bd 0480 74bd d383 7b3d c154 bdbd
00000120: 9ff9 213c ac03 a43c 1089 dbbc 4766 223c
00000130: 7c5f a83c 0ae1 a8bd bb51 93bd 700e e0bd
00000140: 30b4 55bc 7a01 213c 17b9 dbbc ae52 a73d
00000150: b1e7 eb3c 6d2e 1a3d 4e6a f9bd 7b4d 13be
00000160: e316 24bd 31b0 7fbd 6c9c 353d 7cdf 1dbe
00000170: 70b5 7c3d 6885 edbd 4be8 0a3d c6cc 7cbd
00000180: 6510 10be f803 8e3c 469a 4a3d 8431 ca3c
00000190: 089d 6e3d 387b 0fbe 314c 1f3d ddae 5f3d
000001a0: ff90 69bd 3a20 51bd ccf4 52bd d116 c93d
000001b0: 6de8 24bd 2da8 5c3d 3d30 b43b ea26 34be
000001c0: 6dae 483d ac33 543d 3c29 e4bd 6390 233d
000001d0: 7d5d 84bd 660a 3bbd 779d 0fbe 0f32 a8bd
000001e0: 7dbf 8cbd d092 cc3d eec0 1dbd fc22 aabd
000001f0: 811e c8bc 6c85 023c b106 be3d db6f 21bd
00000200: 98ad a33a 6da7 b2bd 1efb 2abd 4cd2 61bc
00000210: 9060 8bbd 08ce d33d 9671 173d 5af6 31bd
00000220: 51ed 0fbd 505b 2fbd 866a 96bd ceed 583c
00000230: 0367 86bd e19f 8bbd 8c90 b33d 5bc8 77bd
00000240: 44a9 c8bd 5c0f 4abb 0a07 66bd 4be0 1fbe
00000250: 8d5d 28bc 1571 33bc 5eda 08bb 1fd4 15bd
00000260: 6c74 063d 2fec f7bd 76c0 99bc a03a 953d
00000270: a741 cbbc 270e efbd e76e e8bd 6f41 87bd
-0.01550723 -0.015759135 0.062198725 0.045715965 -0.15657209 -0.037522793 0.054553464 -0.06006683
-0.1736043 0.012364555 -0.08969803 0.025215264 -0.13604343 -0.08796748 0.03576978 0.003226286
-0.025691174 -0.055187713 -0.05650361 0.05672342 0.088568546 -0.092969626 0.028699525 0.05763468
-0.042753477 -0.0742494 0.033033766 -0.053269338 0.021760913 -0.0086425515 -0.048815504 -0.03667901
-0.044629656 0.014437598 -0.042979777 0.043516472 -0.0936255 -0.1692409 0.02476885 -0.08144745
-0.07591556 -0.018129742 -0.053335983 -0.0010964005 -0.005386851 0.022103298 -0.037291005 0.065972395
-0.14250542 0.02333646 -0.0604637 -0.01095065 -0.045722667 -0.0294115 0.024929231 -0.041199766
0.045871258 -0.06284719 -0.055655394 -0.0022588486 -0.074916296 -0.017631533 -0.031285234 -0.15372777
-0.007887841 0.022882268 -0.11959319 -0.06566508 -0.09008348 -0.059692398 0.061405014 -0.09244681
0.009886174 0.020021282 -0.026798755 0.00991208 0.020553343 -0.08246048 -0.07193323 -0.10940254
-0.013043448 0.009827012 -0.026821656 0.08170067 0.028797003 0.03764193 -0.12178479 -0.14385025
-0.04006089 -0.06242389 0.04433863 -0.15417284 0.06169647 -0.11597711 0.033912938 -0.061718725
-0.14068754 0.017335877 0.049463533 0.024681814 0.058255225 -0.14011848 0.03889102 0.054610122
-0.057023045 -0.051056124 -0.051502988 0.09818805 -0.04026072 0.053871322 0.0054989145 -0.1759297
0.04899447 0.05180709 -0.11140677 0.03993262 -0.06463144 -0.045664214 -0.14024912 -0.08212673
-0.06872461 0.0998894 -0.03851407 -0.08307454 -0.024428608 0.007966381 0.0927862 -0.039413314
0.0012487648 -0.0872334 -0.04174339 -0.013783049 -0.06805527 0.10342032 0.03697356 -0.04344783
-0.035138432 -0.04281169 -0.073445365 0.013240291 -0.06562617 -0.06817604 0.087678045 -0.06049381
-0.0979791 -0.0030831909 -0.056159057 -0.15612905 -0.0102762105 -0.010952254 -0.002088211 -0.036579248
0.032825872 -0.12105595 -0.01876853 0.072865725 -0.024811579 -0.11672621 -0.11349278 -0.06604277

env_net1.weight f4 [160, 160]
00000000: 8f08 803d 6ffe 28bc 0897 cabe a980 1e3e
00000010: 8902 d2be 23d6 0c3c e7e2 633d 9728 06bf
00000020: 9915 ab3d 95dd 35bf 2e64 46be f850 14bc
00000030: 5a89 1c3d 1f35 86bd facc c83c ff2a d9be
00000040: e749 45be f103 7b3e 028e e23d 2b2f 5abe
00000050: f1e0 ecbd ccfc 8e3e 9cc0 6a3e 1163 3e3e
00000060: ebde 173e 9da3 093e eb75 593d 79d1 e7bd
00000070: c684 b63d ea1f fabe e9c7 debd 2e3e 80be
00000080: d308 bbbd 0dd6 353e 3e4c 59be bb7b 3ebc
00000090: 942f 2d3e e148 123e cb5f 683e c16b b83c
000000a0: bba5 5a3e c5c4 0abe e2e7 0e3d e946 debe
000000b0: 3272 c53b 88ef 8cbe 9313 54be 1037 17be
000000c0: 591b 0bbf ef93 f23c dae6 7c3d abfc 843c
000000d0: 698b 0a3e 8c0a 953e 9216 053d 870d 56be
000000e0: a80d 1bbc 940f 2e3d 1693 533e f837 633e
000000f0: 4279 82be 7845 68be aec2 9abe f5b7 ddbe
00000100: 5388 dfbe 6254 40be 0cc6 9dbc 2dfe b6be
00000110: 6e83 09be 7e97 a1be fbac 9cbe d348 2cbe
00000120: a69d cebe f873 3a3e 5c93 bebe 435f 8bbd
00000130: 355f 373e 6d21 373e fa31 763e cf34 033d
00000140: afb8 633e 89cd 8cbe 27d7 26be d96d 89be
00000150: 99a5 d0be 536b 743d c164 8f3d 9caa 20be
00000160: 161f 143e e1e9 9bbe bbe3 a9bc fba3 053e
00000170: e506 0e3e aad8 37be a800 56bd 255e b0be
00000180: c371 bb3e 2b67 713e a2fd dc3b 354a 143e
00000190: 6f05 6a3e e08e 26bf 8c9c b1be 41d1 25be
000001a0: 86bc 873c eecf 29bd d4e0 4abe 07f3 d5be
000001b0: e0fb 983d a880 0cbf d5e2 29bf 9269 89be
000001c0: 824d 08be 610d 1bbe b9f4 01bf db58 efbd
000001d0: 37cd dcbc 5154 173e a82d 46bd d8a5 783e
000001e0: 8792 6dbe 32f0 183e b096 593c 2c91 2d3d
000001f0: ee34 ed3d 8da6 71be 8778 413e 8062 85bd
00000200: f082 c2be b7d5 8abd fc47 2dbf 2792 bc3b
00000210: 2090 523d e304 e4bd f0c4 77be 8343 c3be
00000220: 75ca 123e 4015 713d 4174 6ebe 0398 7dba
00000230: c281 3f3e decc 8d3e af60 ad3e a0d0 7ebe
00000240: 175e 95be 63be d73b 1fb3 aebe e33f 2e3e
00000250: 7287 95be 7847 913e 9e6a 733d ad57 75be
00000260: 06d1 023e 2b33 003e 7103 063e 101a 923e
00000270: 4f2b 4fbd fbfa 1b3e 7cf2 e03d f4c3 4fbf
00000280: 40a0 fcbe dbb8 8e3e 596e 0b3f e84d 5d3e
00000290: aeb5 58be 3e06 58bd 4244 6abe fd51 fe3e
000002a0: 7652 3c3d 62d2 68bd cbd4 01bf 046d 90be
000002b0: 309b e8bd d803 63be 8098 6fbe 92f3 783d
000002c0: 3105 44bb 9a9f abbd 8ab5 bf3c fc21 673d
000002d0: 5c89 923d 8055 963e 87a8 c3be d3cd bf3d
000002e0: a41a 0fbf fc8e 8ebd 2c7a 05bd 9e33 c6bd
000002f0: 118d 9e3d 35ab 103f 670e f73d 42b6 9d3e
00000300: ac3b 6b3b 6965 aebc 122b 85be 1617 cb3e
00000310: 878f f93d dcd7 78bf 5057 c2be 49b1 89be
00000320: 348f 173d a293 04be 4415 c5be e4c3 373d
00000330: 9e2d 3bbe 0674 c6be 6043 573e 9814 913e
00000340: b1e0 1c3e e579 1e3e d61d 24be e84e 4f3e
00000350: 02c1 50bf 20d0 1dbf 63a9 76bf c328 0ebf
00000360: 00ec d2bd 2625 803e 1112 30bc 5e17 1e3e
00000370: ceb7 64be d8d0 1abf fb4f c13d 88c3 cb3e
00000380: 3f2e 31be cd4e aabb 09ff d93d 2c1a b13e
00000390: 4184 bebe 9940 87be 59af 883e a5f4 7e3e
000003a0: 68cb 93be 737d 933c 170a 95be 130a 4dbe
000003b0: 8fdc 2fbe 9023 243e 61fb 943e 130c a6bd
000003c0: ec12 a3be 5406 073e d7df 123d 1af9 543e
000003d0: 3012 df3e d643 293e d38f 7f3e bcc1 63be
000003e0: 4bb7 d7be 62a1 c73e 016b 96be fe9a 823e
000003f0: 8808 a73e d998 8fbe d880 743e c593 0e3f
0.062516324 -0.010314568 -0.39568353 0.15478767 -0.4101756 0.008595976 0.055636313 -0.52405685
0.08353729 -0.7104123 -0.19374153 -0.009052508 0.038216926 -0.06553101 0.024511803 -0.42415616
-0.19266473 0.24513222 0.11062242 -0.21307056 -0.11566342 0.27927244 0.22925037 0.18592478
0.1483113 0.1344132 0.05309097 -0.113192506 0.08912043 -0.48852473 -0.108779736 -0.2504744
-0.091325425 0.17757435 -0.2122049 -0.011626179 0.16912681 0.14285614 0.22692792 0.022512319
0.21352284 -0.13551624 0.03488911 -0.43413475 0.006025576 -0.27526498 -0.20710592 -0.14767098
-0.54338604 0.029611556 0.061743595 0.016233763 0.13529743 0.2910961 0.032492228 -0.20903598
-0.009463705 0.042495325 0.20661578 0.22189319 -0.25483137 -0.2268275 -0.30226654 -0.4330441
-0.43658695 -0.1878219 -0.019259475 -0.35740796 -0.13429043 -0.31560892 -0.30600724 -0.16824655
-0.4035465 0.18208301 -0.372218 -0.06805279 0.17907412 0.17883845 0.24042502 0.032032784
0.2223842 -0.2750056 -0.16293012 -0.2684162 -0.4075134 0.059672665 0.07001639 -0.15690082
0.14464983 -0.30451873 -0.020738473 0.13050835 0.13869818 -0.17953745 -0.05224672 -0.34446827
0.3661023 0.23574512 0.0067441026 0.14481433 0.22853635 -0.6506176 -0.34689748 -0.16193105
0.016569387 -0.041458063 -0.19812328 -0.41786978 0.07469916 -0.54883814 -0.66361743 -0.26838356
-0.13310817 -0.15141822 -0.5076404 -0.1168687 -0.026953323 0.14778258 -0.048383385 0.24282014
-0.23200427 0.14935377 0.013280556 0.042374775 0.11582361 -0.2359869 0.18893634 -0.06512928
-0.37990522 -0.06779044 -0.67687964 0.0057547274 0.05140698 -0.111337446 -0.2419622 -0.38137445
0.14335044 0.058858156 -0.23286535 -0.00096738356 0.18701842 0.27695364 0.33862826 -0.24884272
-0.29173347 0.006583975 -0.34121034 0.17016558 -0.292049 0.2837484 0.05942785 -0.23959227
0.12775049 0.12519519 0.1308725 0.2853551 -0.05057841 0.1523246 0.1098375 -0.81158376
-0.4934101 0.2787541 0.5446525 0.2161175 -0.21163055 -0.052740328 -0.22877601 0.49671927
0.04597708 -0.05684126 -0.5071532 -0.28208172 -0.11357725 -0.22169435 -0.23398018 0.06077916
-0.002991032 -0.08380051 0.023401994 0.056428894 0.071551055 0.29362106 -0.38214514 0.0936543
-0.55900025 -0.06960866 -0.032587215 -0.09677814 0.0774175 0.5651124 0.12063294 0.30803114
0.0035893722 -0.02128859 -0.26009423 0.3966605 0.12185579 -0.97204375 -0.3795724 -0.2689307
0.037001804 -0.12946942 -0.38492787 0.04486455 -0.1827912 -0.38760394 0.21021795 0.28336024
0.15320088 0.15476187 -0.16027007 0.20244944 -0.81544507 -0.616457 -0.96352214 -0.5553095
-0.1029892 0.25028342 -0.010746495 0.15438601 -0.22335741 -0.6047492 0.09439083 0.39797616
-0.17302798 -0.005197382 0.10644347 0.3459028 -0.37210277 -0.26416472 0.2669628 0.24898012
-0.28866124 0.018004155 -0.2910926 -0.20023374 -0.1717398 0.16029191 0.29098037 -0.08107772
-0.31850374 0.13186008 0.035858 0.2079815 0.43568563 0.16529784 0.24957208 -0.22241873
-0.4213203 0.38990313 -0.29378513 0.25508875 0.32623696 -0.280463 0.23877275 0.5569423

env_net1.bias f4 [160]
00000000: 469e 1d3c 5ab4 40be 82aa 68bd ea17 e8bc
00000010: 998d 023e aaee 49be 8060 39be 4502 4abe
00000020: 2433 f53d 87fd d9bc 621d 7bbd fdbe a3bd
00000030: b20c d83c d71b 66bc 05d0 00be 4e43 753c
00000040: 093d 32bd 4696 37be 6815 71be 32b9 2ebd
00000050: 2507 9abd 469f 6ebe c716 6fbe bfcc fe3c
00000060: f745 b93c a54a cfbd 48cb a4bd 8f0a 1c3d
00000070: 66c8 7fbe 0912 90bd af3a 89bd e937 5f3d
00000080: 9363 4cbc 9fa7 8fbd c1af 63bd d553 7abd
00000090: 9aa0 8bbc 0d61 babd da0b c53d a849 91bd
000000a0: 640f 4dbd 3e90 ef3d 135c 2d3e 7ac3 d7bd
000000b0: c069 c0be d687 383d 3252 c03d f888 54be
000000c0: 3ede aa3d da95 4abd c8cc 38bd de5c 01be
000000d0: fa27 cabd 75b4 15bd 1c5e cb3d 7279 09be
000000e0: bf32 b8bd e465 b3bd 92ca 4ebd c3d8 5ebd
000000f0: 5be2 76bd 271a 3bbd 603f 4cbc 9247 fcbc
00000100: 0b5b bd3c 8995 35bd 1d67 083e 13e5 7ebd
00000110: f987 ba3d 285c 38bd 6ea3 0bbd f309 03be
00000120: cdd7 c0bd 4daa 1bbd 3cb1 87bd 9972 2fbe
00000130: 7e40 97bd b5f2 69bd e4b4 72bd 287f eb3d
00000140: 0ebf 6bbb ab13 313e 3cde c63d 4d88 d0bc
00000150: 4970 cabd 2604 083c 348c 5c3c 7033 0fbd
00000160: e28f 50bd dbf7 8fbc 64b8 5cbe 9050 973d
00000170: 7894 08bd deab 78bd e0b0 a7bd 3596 92bd
00000180: a7e0 f13d b6fc e6bc 6844 213c 7173 39be
00000190: 5d4c 34be 921a 08be 94ec 863b 3c71 e8bd
000001a0: 44ad dcbd 1964 e2bc 2cf8 e7bd 6eed 2cbd
000001b0: 58f0 cdbd c90f 193d f790 2b3d 157b 26bd
000001c0: f284 423c 7d62 263d 806f 0bbe b394 24bd
000001d0: 9f05 37be 0287 0a3e ce52 053d dcb0 fdbd
000001e0: 9dd7 933d 1407 0fbe f054 10bb 9b7b 393d
000001f0: e73f 933d 6c04 1dbe 279c 163e 3bf7 273e
00000200: 1220 e2bc f46a 2abe ed5d afbd 5fcd 72bd
00000210: fcde 8cbd 9fbf fdbd 4aa2 3cbe 93c4 32be
00000220: f6c2 a7bd dc0b 1abd 0ab2 12bd b541 f4bc
00000230: cb13 88bd 5fef c7bd 155c cfbd 4267 88be
00000240: 1a3d edbc 025d 073e 8e03 08be 5f2f b1bc
00000250: f1ae 07be c0e2 03bd 7af0 a9bd 96a9 32be
00000260: 2a96 ed3c 0181 0b3d 7269 6cbd ac12 78be
00000270: 236c 873d 0f88 613d 5188 ca3d a7a4 87bd
0.009620255 -0.18818799 -0.056803234 -0.028331716 0.12749328 -0.1971995 -0.18103218 -0.19727428
0.11972645 -0.02661015 -0.06130732 -0.079954125 0.026373241 -0.0140447235 -0.12579353 0.01496966
-0.04351524 -0.17928419 -0.23543322 -0.042657085 -0.07520894 -0.23302945 -0.23348533 0.03110349
0.02261637 -0.10121659 -0.08046585 0.038096007 -0.2497879 -0.0703469 -0.06700646 0.05449668
-0.012474912 -0.07014393 -0.055587534 -0.061115105 -0.017044354 -0.09100542 0.09621401 -0.07094127
-0.050063506 0.11697434 0.16929655 -0.10535331 -0.3758068 0.04505142 0.093906775 -0.20755374
0.083431706 -0.049459316 -0.04511717 -0.12633082 -0.09870906 -0.03654905 0.09930059 -0.13425234
-0.08994054 -0.087596685 -0.050486155 -0.05440594 -0.060274463 -0.045679238 -0.012466282 -0.030795846
0.023114702 -0.04433206 0.13320585 -0.06223018 0.09107966 -0.045009762 -0.034091406 -0.12796764
-0.09416161 -0.03800421 -0.06625602 -0.1713356 -0.07385348 -0.05711623 -0.059254542 0.114988625
-0.0035972032 0.17292659 0.097103566 -0.025455618 -0.09884698 0.00830177 0.013461161 -0.034961164
-0.050918467 -0.017574241 -0.21554714 0.07388413 -0.033344716 -0.06071078 -0.08188033 -0.07157556
0.11810427 -0.028196674 0.0098429695 -0.18110444 -0.17607255 -0.13291386 0.004117558 -0.11349723
-0.10775235 -0.02763562 -0.11326632 -0.042218618 -0.100556076 0.03736857 0.041886296 -0.040644724
0.011872517 0.04062127 -0.13616753 -0.040180873 -0.17873238 0.13528064 0.03254967 -0.12387249
0.07218859 -0.13967544 -0.0022023283 0.045283895 0.07189923 -0.15333718 0.14708005 0.16402905
-0.027603183 -0.16642362 -0.08562837 -0.05927789 -0.068784684 -0.123900644 -0.18421283 -0.174578
-0.08191483 -0.037608966 -0.035814323 -0.029816488 -0.066444 -0.09762453 -0.10124985 -0.2664128
-0.0289598 0.13219073 -0.13282606 -0.021629034 -0.13250329 -0.032198668 -0.082978204 -0.17447504
0.029002268 0.034058575 -0.057717748 -0.24225873 0.06612422 0.055061396 0.098892815 -0.06623202

env_net2.weight f4 [160, 160]
00000000: 5e66 01bd ab4f febe 84c5 2a3c 2b7c 143d
00000010: 28df b1bd 32ff 06be f1b3 36bd f394 6fbf
00000020: 3fb0 793e 076e 773e c35e 1c3e 61b8 023d
00000030: d225 8d3e e1e7 353e 4f04 16bf aa35 8fbf
00000040: 026a 5c3d e5e3 de3e dceb 0fbe 6fb8 23be
00000050: cad7 6ebe 53b0 8dbe 93e8 643d 118c 443e
00000060: a8e4 763e 20c2 9a3e 58f8 c7bc e498 563e
00000070: 08bb b63b 6ab3 acbb 602e 46be e428 6f3e
00000080: aa00 5cbf 5ca8 183e bbf8 073e c681 b73c
00000090: cdd6 ef3d b531 1c3f e64b 01bf 6dff 4f3f
000000a0: 68c4 65bf 99e9 9bbe ae6d d7bc 0039 5abe
000000b0: 8d2d 8dbe ef22 b43c 8830 2b3e 32c0 18be
000000c0: 6393 0cbe d470 17be 9119 c03d 3861 e9bd
000000d0: b44c cebe 208b 8c3e b3f8 e3bc 42af 3b3e
000000e0: 2486 58be d1c6 3e3d 7a67 dbbd fc82 97bc
000000f0: 9444 073d 5a07 283d f5e0 b6bd 5766 673d
00000100: cac3 0abf c5cc 1d3d 7c1d 433e f2df f4be
00000110: 2cc9 ff3c 299c 54bc 484a 343e 1157 52be
00000120: 6cef 3cbe 4f13 19bf 86b9 e23e b8a8 efbd
00000130: 55e2 5e3e be99 4dbe 9bc6 e63d b5a9 223d
00000140: 7fb5 613d fd8a 1cbd b498 7fbf 8e18 e13c
00000150: 540e 74be c0ec 5fbd 5bd7 da3d ba01 b93e
00000160: 2586 2ebc 4af1 a2bd c8e4 dfbe c6ca b43e
00000170: 7d7f 85be c0db c73d 53e8 963d ffbf 34be
00000180: e3e6 52bc f1b7 b83d a1e2 36bf 2c1c a3be
00000190: c84c 15be 7d60 43be 8aa9 6d3e bf19 793c
000001a0: 31cb c73d c886 543f dbe5 263f 8972 05be
000001b0: a620 893e 34e2 15be 6b08 9a3d b473 c5bd
000001c0: 7b22 b13e 13bc 9ebe 97de e6be 8859 183e
000001d0: 8e1d 88be 5c52 83be 2389 71be a998 25be
000001e0: 5985 85be a087 9abd 1118 6e3d 9216 f53d
000001f0: 68e3 9dbc 9489 90be 572c bcbc d781 493e
00000200: ee60 883d 0f9f 2dbf 13b9 bb3e 7409 16be
00000210: fcb0 9d3e 1062 1f3d 7d72 4dbf de24 ab3d
00000220: 997a 27bc 0352 0fbd cf4e 2e3e e311 393e
00000230: 7224 023d ceb4 823d aa7f 893d daa1 9bbd
00000240: cfc4 75be 978f e73b d680 7e3c da97 f4be
00000250: c942 27bf c280 a3bf 1be5 19be a0c9 5dbd
00000260: b678 a2be 067b 40be fef9 aebd a968 1f3d
00000270: a767 003f 1d9f 10be 2b7e 8cbe e58f 913e
00000280: c280 823e 8a20 81be fa74 cfbe 7a8e 38bf
00000290: d7b0 603d 56e6 babd c165 25bc 5b5a b7be
000002a0: 8b5a 89be ef43 c0bd 1ea9 3bbe a85a 05be
000002b0: 0210 02be b8d5 dc3d 9eb8 b53d 41f4 67be
000002c0: e200 e1bd aec2 d8bc 9362 87bd cc22 993c
000002d0: ff85 89be 5afb bebe 7337 1bbe 4ac7 1dbe
000002e0: b770 afbc 8f45 683e 36d9 96bd aad7 84bd
000002f0: f62d cfbe a34e b33e 782a 0cbe 43e3 f4be
00000300: a46f 45bf e052 963c 9c8e 803d 1bdd 403e
00000310: 7b4a d23d 5417 9bbf cc75 f5be 1b33 06bf
00000320: d278 aabb 61ab 4bbe 4d9d 57bd 58bc fa3c
00000330: 3e2f dd3e 9593 f3bd 1ea9 83bd 259a bdbe
00000340: 8b25 c9bd ec0f 3c3e 0e66 8b3f 94cc f3be
00000350: 48c7 21be 9fc4 273e 7bf1 39be 34a3 923d
00000360: 85ed 233e 4991 3abd bf80 8bbc 93d5 0ebe
00000370: 2d4c 4b3d 60be 5fbe b3b1 e5bd d065 3fbc
00000380: 6aeb a7bf 04a1 9e3e 6ad3 87bd a1cb 2d3c
00000390: fb18 7ebe 7150 433e a2e0 883d 2448 a7ba
000003a0: f59e 89bd 0caa debe dabf 1abf 97e5 833e
000003b0: e31c 3cbc 821c fabe ee5a a6bd 0987 333d
000003c0: f27e 8b3e d4d0 04be 700f 10bf ae5c df3c
000003d0: 9a63 b93d 5af9 e43d 0297 5bbe 3c3a 6c3e
000003e0: f5e2 2abe ec80 8ebe 197c c23e a9e1 1abe
000003f0: 238c c73d e76b 08be c2ec bebe eb40 90bf
-0.031591766 -0.49670157 0.010423068 0.03625123 -0.08685142 -0.13183287 -0.0446052 -0.93586653
0.24383639 0.24163066 0.15270524 0.03191412 0.27567917 0.17764236 -0.58600324 -1.1188252
0.053812034 0.43533245 -0.14054817 -0.15988325 -0.23324504 -0.27673587 0.055885863 0.19194056
0.24110663 0.3022623 -0.024410412 0.2095676 0.005576495 -0.0052704113 -0.19353628 0.23355442
-0.85938513 0.14907974 0.13278477 0.022400748 0.11710892 0.61013347 -0.50506437 0.81249124
-0.8975282 -0.30451658 -0.026297417 -0.21310806 -0.27573815 0.021989314 0.16717732 -0.14917067
-0.13728099 -0.14789134 0.093798764 -0.11395496 -0.40292895 0.27449894 -0.02782855 0.18328574
-0.2114492 0.046576325 -0.10713096 -0.018495075 0.033024386 0.041022636 -0.08929626 0.056494083
-0.54205 0.03852536 0.19054216 -0.47827107 0.031223856 -0.012976685 0.17606461 -0.20541026
-0.18450707 -0.5979509 0.44282168 -0.117021024 0.21766026 -0.20078179 0.1126835 0.039712626
0.05510473 -0.038218487 -0.9984238 0.027477529 -0.23833591 -0.05466914 0.10685607 0.3613413
-0.0106521 -0.079561785 -0.43729234 0.35310954 -0.26073828 0.09758711 0.07368531 -0.17651366
-0.0128724305 0.09019459 -0.7143956 -0.3185743 -0.14580071 -0.19079776 0.23209205 0.015203892
0.097555526 0.8301816 0.6519448 -0.13031973 0.2678272 -0.14637071 0.07521137 -0.09641209
0.3459662 -0.31002864 -0.45091698 0.14877903 -0.26585048 -0.25648773 -0.2358747 -0.16171516
-0.260783 -0.075454 0.05812842 0.119671956 -0.019273475 -0.28229964 -0.022970362 0.19678436
0.06659113 -0.6782083 0.36664638 -0.14652044 0.3079909 0.03891188 -0.8025282 0.08356641
-0.010222101 -0.03499032 0.1702225 0.1807323 0.03177304 0.06382142 0.06713803 -0.0759923
-0.24000858 0.007066678 0.015533647 -0.47772104 -0.6533628 -1.2773669 -0.15028803 -0.054147363
-0.3173272 -0.1879693 -0.08543776 0.03891817 0.5015816 -0.14123197 -0.2744001 0.28430095
0.2548886 -0.25220138 -0.40518934 -0.720924 0.054856148 -0.09125964 -0.010095061 -0.35811123
-0.2682689 -0.09387957 -0.18326232 -0.13022864 -0.12701419 0.10782951 0.088731036 -0.22651769
-0.109864965 -0.026460018 -0.066105984 0.01869335 -0.26860043 -0.3730114 -0.15157871 -0.15408054
-0.021416051 0.22682784 -0.073656484 -0.06486447 -0.40464753 0.35020933 -0.13688076 -0.47829637
-0.77123475 0.018350065 0.062772006 0.18834345 0.10268112 -1.2116494 -0.47941434 -0.5242173
-0.005202391 -0.19889595 -0.052640248 0.030607387 0.43200105 -0.118933834 -0.06428741 -0.37031665
-0.09821614 0.18365449 1.089052 -0.47617018 -0.15798676 0.16383599 -0.18158524 0.07160035
0.16008575 -0.04554871 -0.017029164 -0.1394866 0.049633194 -0.21849966 -0.11215534 -0.011681989
-1.3118718 0.3098222 -0.06632121 0.010607631 -0.24814217 0.19073655 0.0668347 -0.0012762588
-0.06719772 -0.4348911 -0.6044899 0.257611 -0.0114814965 -0.48849875 -0.08122812 0.04382995
0.2724529 -0.12970287 -0.56273556 0.027265873 0.090522006 0.111803725 -0.21444324 0.2306909
-0.1668814 -0.27832735 0.37985304 -0.15125145 0.09743526 -0.13322411 -0.37290007 -1.1269811

env_net2.bias f4 [160]
00000000: 3f55 bfbd 7a13 38be 03dd 81bd e643 513d
00000010: 3752 293c 6e1a 0b3e c9f5 7ebe 939a 22bb
00000020: 8522 ddbd 19d2 0d3d 8f5d 6ebe 8ebb 04be
00000030: c83b e1be 9e41 5bbe 1153 ecbd 5450 d23d
00000040: eae3 87be 01cd a2bd 9b00 953d 2132 69be
00000050: 5c5e 46bd 9c13 df3d cfd9 9a3d 46da 4fbe
00000060: da7b 5ebe d327 c4bd 0294 3e3d 2878 00be
00000070: 34ef 6d3d a2d5 39bd fe11 62be 3e43 bb3d
00000080: 74d7 87be b199 ba3c cd64 83bd b277 39be
00000090: 12c2 4b3e 2eb5 79bd 4b89 6cbe 20f9 57bd
000000a0: b925 8bbe 11f6 77be ff33 19be f372 03be
000000b0: 2887 a5be 03a7 48bc 5094 cc3c b2ec e4be
000000c0: dcd4 b5bc c9fe 94be 86f4 60be 3438 aebd
000000d0: 5e42 96bd 1bf9 6fbd eed9 6cbd dacd a3bc
000000e0: 1a4a 90be 0ff5 54bd 6037 6f3e b7a7 efbd
000000f0: f020 82be 97e1 55bd b079 abbd b8fb f8bc
00000100: 8660 4dbd aab2 7fbe 0ff9 debd ab76 8dbd
00000110: f442 ffbd 1cc7 4ebe 240d a3be 4544 8bbe
00000120: daf4 a1bd 15d8 eabc 0e17 60be a265 81be
00000130: b8d8 a1bd 40ea 583e bb02 5fbe 3402 573d
00000140: 283b 49be d66a c6bd 87f7 3c3e 52f7 b0bd
00000150: a060 dc3d 6110 1cbe 0a67 86be 9829 483e
00000160: f9b4 0ebd 425a 10bd 530b a4bb 8a7b 8abd
00000170: 981b b13c db0c 073e 9b90 a03d 5e77 943d
00000180: f350 8dbd f279 b73b c29c e5bd 73cb 79be
00000190: 68e2 3ebe 0380 96be 23ed 0ebe d301 68be
000001a0: cb84 3e3e 0ec3 11be bc11 053d d0f5 4d3e
000001b0: 91d2 82be 52c9 e0bd c92a 80bc 8a30 0a3d
000001c0: 1574 6fbd 5976 1e3e 2ac1 8b3e 986f e2bd
000001d0: 216f a5be 2719 b33c 5149 fbbd c162 543d
000001e0: 7014 bcbd abfe 1a3e 3bb1 243e 316a 0f3d
000001f0: c36e 8abe 4cff 07be 00fa 9dbc 605d 01be
00000200: cda6 c03d e653 bbbd 203d 083e 12fb 31bd
00000210: 823d 24be 8845 423c 4676 24be 350e b2bd
00000220: 28aa f73b 1e95 13be 865d 20be d7a9 88bd
00000230: bcfb 7dbd 04c7 3ebe 4d6d 0ebe 0a00 09be
00000240: db74 5c3e ac08 28be d5e1 0dbd 9dfa 38be
00000250: 6d0e 7a3b bfaa 433d 6008 1bbe 29ad 5abe
00000260: 9474 19be 6372 eabd 9cf3 29be 4c29 42be
00000270: 56d5 133e aada 7bbd 029f 673d b823 b23d
-0.09342431 -0.1797618 -0.06340983 0.051090144 0.010334543 0.13584301 -0.24898447 -0.0024811372
-0.107976 0.034624193 -0.23277877 -0.12962171 -0.43990922 -0.2141175 -0.11539281 0.102692276
-0.26541072 -0.07949258 0.07275506 -0.22773029 -0.04842983 0.10892412 0.07561075 -0.20298108
-0.21726933 -0.09577908 0.04652787 -0.12545836 0.05808945 -0.04536975 -0.22077176 0.09143685
-0.26531565 0.022778364 -0.064157106 -0.18112066 0.1989825 -0.060963802 -0.23099248 -0.05272782
-0.27177218 -0.2421496 -0.14961241 -0.12836818 -0.3232968 -0.01224685 0.024973065 -0.44711834
-0.022196226 -0.29100636 -0.21968278 -0.08506814 -0.07336877 -0.058587175 -0.05782502 -0.019995619
-0.28181535 -0.05199152 0.23360968 -0.11701911 -0.25415754 -0.052217092 -0.083728194 -0.030393466
-0.05014088 -0.24970499 -0.10887348 -0.069074 -0.12463942 -0.20193142 -0.31845963 -0.27200523
-0.0790803 -0.028667489 -0.21883795 -0.25272852 -0.07902664 0.2118311 -0.21778385 0.052492335
-0.19651473 -0.09688346 0.18453799 -0.086409226 0.10760617 -0.15240623 -0.26250488 0.19547117
-0.034840558 -0.035242327 -0.0050062328 -0.067618445 0.021619603 0.13188498 0.07840081 0.0724933
-0.069002055 0.005599254 -0.1121154 -0.24394016 -0.18641055 -0.2939454 -0.13957648 -0.22656946
0.18605344 -0.14234564 0.032487616 0.20113301 -0.25551274 -0.10975899 -0.015645402 0.033737697
-0.058460314 0.15474834 0.2729581 -0.11056441 -0.32311347 0.02186258 -0.12269843 0.05185199
-0.09183586 0.1513621 0.16083233 0.03501338 -0.2703763 -0.13280982 -0.019284248 -0.12633276
0.09406815 -0.09146862 0.13304567 -0.04345233 -0.16039088 0.011857398 -0.16060743 -0.08694116
0.007558126 -0.14412352 -0.15660676 -0.066730194 -0.06200765 -0.18630606 -0.13908882 -0.13378921
0.21528952 -0.16409558 -0.0346392 -0.18064351 0.003815557 0.047770258 -0.15139914 -0.21355118
-0.14985877 -0.11447599 -0.16596836 -0.18961066 0.1443685 -0.06148783 0.056548126 0.08698219

env_net3.weight f4 [12, 160]
00000000: f259 793e 02cc 123e 0363 94bc 8116 ae3e
00000010: f615 593e 95e8 093f c9b5 273e 32fb 383f
00000020: 7c13 a2be aae6 5c3c 5327 50bf 1fcc 26bf
00000030: b9f7 563e 7987 76be 024d fc3e 660f 8dbd
00000040: a87e a2bf 3fe6 a9bc 8974 0dbe 0a11 c43d
00000050: 356f 9a3e 11ec 0b3f ce37 cf3e 4e13 cf3d
00000060: 0473 aa3e 9a29 8abe 317f 183f 1b95 2e3e
00000070: 8fa2 0e3f 435e 8ebc 8ec8 a93b 0922 f03e
00000080: dc21 bb3d 9baf c73d e1ff 4fbd 89c3 cdbe
00000090: 803a 1e3f 3f9a 923c 1ad1 b0bf 7eb7 6e3b
000000a0: aba4 9cbd 9b99 a33e 4ed8 c7bd de28 e03e
000000b0: e7d4 c03e 2749 183f e981 c03d d6a6 2e3e
000000c0: b687 983e 8068 29bf 9c39 8fbc 293f adbe
000000d0: 27d5 dc3e 82ac 2a3e cf8b 30bc 61f6 8b3e
000000e0: f01a b23e 1c7d ad3e d7f1 0a3f 8d8c 2c3e
000000f0: 9dee 153e 4ab7 e13b b2c6 1ebe 7763 643e
00000100: 56b1 af3e fe6d b33d df30 f43e ea01 31bd
00000110: 2d66 0a3f 2974 9ebc 3a20 d5be e19d d6bc
00000120: 330e 993e 9832 b9be d63d 253e 7ad7 00bf
00000130: ae40 013f 0114 143f 3283 633e ebf3 bfbd
00000140: 8c52 1dbc af44 b23e 980e 343f 6ba0 3fbe
00000150: 4473 393e 1b10 e93c 2bb2 50bd 6dda 303f
00000160: 033b 96bd cf72 623e 6696 043f 05f6 813d
00000170: 174e 1f3e 3874 ea3e e4e8 053f 1670 123f
00000180: 1a7b 233e 3460 c73e 6a3e 613e d6a6 ae3e
00000190: 3de2 83bc d3b9 aebf 1f93 663e 8f38 b03e
000001a0: 97ed f13e 4fda 983e a673 ad3d e49c 003f
000001b0: 0272 433e 1258 573e b1af 453e 7251 033f
000001c0: ce2a 003f 1271 0e3f cb8d 243f c92f 253e
000001d0: fcfb 523e caa1 5e3d 34aa a2bc e5a1 f43e
000001e0: 6b7b 583e 1c0c 273f a7df f33e c5c2 d23e
000001f0: 4c50 853d 7940 8dbd 39f6 1abe 3ab7 dd3e
00000200: 53fc e93e 10e8 91be bc1c fa3e 8672 ca3d
00000210: 6101 cebd ed8a 683e 1f7d 153d f540 eb3e
00000220: c67d 9c3e fa41 ad3e 0c56 593e d7db d5be
00000230: d3f5 15be 0171 b03e 241a d0be 7bde 133e
00000240: 380d cc3e b756 243e 609b f53e 6d77 303e
00000250: a3b6 86bc f25b cb3e 6ae5 3cbe 2b75 a23d
00000260: bbb0 c6be 2de9 383e bf12 8fbe 5a56 a83e
00000270: c6a3 e03e f4b9 1dbe e3a8 c63d 3e53 6a3e
00000280: 0d7d 3d3e f9f5 96bd 6746 213e 71ef 35bd
00000290: 1523 633d 0e8a b3be 3225 ddbd 660a 383e
000002a0: ca59 573e 4289 1fbf 6425 713e aa9c db3d
000002b0: 924a c43c 5919 8b3d 0526 033c f57e 5fbe
000002c0: 0730 683f 339e 4fbe f3a7 22be fa1c ee3c
000002d0: c4db ee3d 9e72 8abe 1c76 bfb9 28f8 113f
000002e0: 8147 d53e 74b2 1c3e 94a6 96be 531f 8d3d
000002f0: 2c28 99be d48a 013e 72ec 6e3e df91 42be
00000300: 1dbf 903e 61aa 66be 2e97 133f 96d1 953e
00000310: f17a a6bd 3dc0 39be c2ec 053f 8f28 20be
00000320: 20f8 8ebe 858a 813e c7bd e5be 6c4f a8be
00000330: a991 c23d aa31 4fbe e8e9 e4bd ae6d 40bd
00000340: 13e2 f83d f155 6c3e 9554 423d 74dc e93d
00000350: 88f4 09bd 0ccd b33d 95f5 3d3e 36e6 a8bd
00000360: a7d9 513d bec4 a9be 7122 54be 8309 debe
00000370: 2579 acbd f904 e03d cc08 81bc da5e 64be
00000380: b52f 293e e0c0 413e 7ccd ea3e bcb1 bfbe
00000390: 3d10 3c3c 35b6 42bc 59a5 27be 9ef3 9f3d
000003a0: c5c5 8ebe 5b74 123f b782 4a3e 728e 8ebc
000003b0: 36e6 2dbe 0401 98be c917 443d 13b6 b23e
000003c0: d31e 993e a586 193e 712f 74be f91f ce3e
000003d0: daf0 0e3e 85bd 1dbe afb3 bbbe cac3 bfbe
000003e0: 0f4c e93d d049 023d d442 5fbd d5da 02bf
000003f0: efe2 233e 9b0f b93d 63eb 17be 962d 6ebc
0.24350718 0.14335635 -0.018113619 0.34001544 0.21199784 0.53870517 0.1637794 0.72258294
-0.3165549 0.013482729 -0.81310004 -0.65155214 0.20992936 -0.24075116 0.49277502 -0.06887703
-1.2694902 -0.020739673 -0.13813986 0.095735624 0.3016297 0.54657084 0.40472263 0.10111104
0.33290875 -0.26984864 0.5956908 0.17049067 0.55716795 -0.017378932 0.0051813787 0.46900967
0.091373175 0.09750291 -0.050781135 -0.40188244 0.61808014 0.017895816 -1.3813813 0.0036425288
-0.076485954 0.3195313 -0.09758054 0.4378118 0.37662432 0.5948662 0.093997784 0.1705583
0.2979104 -0.6617508 -0.017483525 -0.3383725 0.43131372 0.16667369 -0.0107755205 0.2733641
0.34786177 0.33884513 0.5427527 0.16850491 0.14641805 0.006888305 -0.15505484 0.22303568
0.34314984 0.08761214 0.47693536 -0.043214716 0.5406216 -0.019342499 -0.4162615 -0.02619833
0.29893646 -0.36171412 0.1613687 -0.5032879 0.5048932 0.57843024 0.22218016 -0.093726955
-0.0096022 0.34818026 0.7033477 -0.18713538 0.18110377 0.028450062 -0.050951164 0.6908329
-0.07335474 0.22114109 0.5179199 0.063457526 0.15557133 0.45791793 0.5230849 0.5720228
0.15964928 0.38940585 0.21996465 0.3411166 -0.01609909 -1.3650459 0.2251706 0.3441815
0.4725158 0.29854056 0.08469324 0.50239396 0.1908646 0.2102969 0.19305302 0.5129615
0.50065315 0.5564128 0.6427886 0.1613151 0.20603937 0.054353513 -0.01985655 0.47779766
0.2114083 0.6525285 0.4763157 0.41164222 0.06509456 -0.06897063 -0.15132989 0.43303853
0.4570032 -0.28497362 0.48850048 0.09885125 -0.10058857 0.22709246 0.036496278 0.45947996
0.30564708 0.338394 0.2122423 -0.41769287 -0.14644556 0.34461215 -0.40644944 0.14440338
0.39853835 0.16048704 0.47970104 0.17233057 -0.01644451 0.39718586 -0.1844689 0.07932504
-0.3880671 0.180577 -0.2794399 0.3287838 0.4387495 -0.15402967 0.09700181 0.22883317
0.18504734 -0.07371134 0.15749513 -0.044417802 0.05545338 -0.35066265 -0.1079811 0.17972717
0.21030346 -0.62318814 0.2354942 0.10723241 0.02396134 0.06791944 0.00800467 -0.21825774
0.90698284 -0.20275192 -0.1588438 0.029066551 0.11663011 -0.2704057 -0.00036518357 0.5701928
0.41656116 0.1530245 -0.29423964 0.0689074 -0.2991346 0.12650615 0.23332384 -0.19000958
0.28270808 -0.22525932 0.57652557 0.29261464 -0.08128918 -0.1813974 0.5231439 -0.15640472
-0.2792368 0.25300995 -0.4487135 -0.32873094 0.09500439 -0.20233789 -0.111774266 -0.0469796
0.12152495 0.23079659 0.047443945 0.11419001 -0.03368047 0.08779344 0.18550713 -0.08247034
0.05123296 -0.33157915 -0.20716263 -0.43366632 -0.08421544 0.109384485 -0.015751265 -0.22301808
0.16522105 0.18921232 0.45859897 -0.37440288 0.011478481 -0.011884262 -0.16371669 0.07810138
-0.2788526 0.57208794 0.19776426 -0.017401908 -0.1698235 -0.29688275 0.047874246 0.34904537
0.2990633 0.14992769 -0.23846222 0.40258768 0.13959065 -0.15404327 -0.36660525 -0.37454063
0.1139146 0.031808674 -0.05450709 -0.5111516 0.16004537 0.0903618 -0.14835887 -0.014537236

env_net3.bias f4 [12]
00000000: c8b2 ce3e f8aa 6ebe a650 2a3d 5049 933e
00000010: bbdd fb3c aac9 6a3e 2164 653e 9922 093d
00000020: dd23 31bd 1151 90bd 1392 3c3e c640 c93d
0.40370774 -0.23307407 0.04158082 0.2876687 0.030745378 0.22928491 0.22401477 0.03348026
-0.043247093 -0.07046712 0.18415098 0.09826808
