ckpts/env_ckpts/env_net_8.pth (torch, 241443 bytes, 8 tensors)

env_net0.weight f4 [160, 38]
00000000: fb66 3dbe 69a4 e0be 8757 84be 4a36 cf3e
00000010: b321 993d 55a4 11be e1fe 32be e163 84bd
00000020: 9b1e 35be b400 df3c 8cbe 2cbd b7de 903e
00000030: 05b7 ffbe 7bdd a83e f8d0 10be e4e2 8fbe
00000040: 26f2 093f fefb 003f f6c3 8dbf 9003 303e
00000050: 60ba 4d3e 35d6 8a3d c1ae 493d ff5b 85be
00000060: 7c4f 74be 0c5e 42bd 1313 21bf 9320 4d3e
00000070: 41ee 8c3e ed03 1b3e 580d a2be 68d1 bdbe
00000080: 788b 60be a4e3 f63e f4e7 c2bd 691f 8cbe
00000090: afea e93e 948b 4139 187d 82be f4cd ce3e
000000a0: 4f0b 903c 1619 4bbf 06fe eb3e b60e c2bd
000000b0: 3396 143e 6430 753e f28d e0be b461 f83d
000000c0: 60dc ef3c 5e42 dcbd dbcd fd3e 5c62 91be
000000d0: d579 c43e 021f 023e a32b 87be 68d5 59bd
000000e0: e592 673d 969b 453e 321b 2cbe 018c 3dbe
000000f0: 2804 6a3e ebc7 01bf d9f6 5b3e 430c 6bbe
00000100: a8b0 93be 0373 543e 6c1e 0ebe 70b5 60be
00000110: f821 933e e0a7 aabe acdb fd3c 7855 eb3d
00000120: 33fd c1bd 6486 febd 5584 3f3d 5224 543d
00000130: 4b78 aa3e fbeb dc3d 7021 f63e 0e92 fc3d
00000140: 63a8 3ebf 8c78 7bbe ea5f 913e 43b0 ebbe
00000150: f327 73be a1de 953d cd13 413d 9837 85be
00000160: a853 4a3d 362d f1bd 1b80 0e3e d276 b8be
00000170: cf4d 183d 445a 1d3e a88e 083f 5066 ef3d
00000180: b6d8 a73e fa91 043e d9f9 da3e 4ca8 223e
00000190: c8fa e6bd 27d3 0abf de46 b43e f1fd 34bd
000001a0: 7100 0cbf 06a3 5d3e 3dd2 b83e 372e 893d
000001b0: 3bd2 3a3f 34ed 983e dfa7 813e d8a8 02bf
000001c0: e32b 9fbe d24a 5f3e 7bf7 353e 3a9c 1fbf
000001d0: 2e82 34be bc1d e03e 2596 c8be f7bb b93d
000001e0: b131 a4be 7979 78bb 26ba 28bd 0014 bbbd
000001f0: 12f7 493d 2e70 02bf cb11 db3e 2786 cebe
00000200: d4ce 133f 1e01 1ebf 0d4d 3f3e e48b 4b3e
00000210: ee9d 5d3f bda8 50be 106f 833e 5a56 bd3d
00000220: 7af0 03be f697 603e 58da 6f3d e3ca ad3d
00000230: 398e 9fbe 9799 133f c7f7 0bbf 3596 9cbd
00000240: 5e9b 2b3f 6a8f e2be 472e 8b3e 11c4 2cbd
00000250: 5bb3 19bf 8aa7 c73d ef69 aebe c52e fcbe
00000260: a14b 723e 7777 abbe 0e81 ff3e 1a25 a2bf
00000270: 7755 993e 54d3 3b3f 0b8e 80be e9b0 1fbf
00000280: 222a ea3d 38bd a13e d17e c63d fe64 e0be
00000290: aff7 0dbf 10ce 9ebe 3773 ee3e 60db a53e
000002a0: cbf9 03bf 943a adbe 1018 64bc 919f 2b3d
000002b0: d821 203e f2ca 7abe f3a8 963e e917 acbe
000002c0: 1b18 2abd 8025 b73e 278b b53d 5278 c83c
000002d0: 54c7 97be 2073 3b3e 939a 133f fa9a d4bd
000002e0: 33e4 eabe 91cd 14bf ab5a 193e 3526 df3e
000002f0: 73b2 2abe 9c25 b6be 6653 d03e 2ec5 85be
00000300: d2cc 233e 3c48 bd3d c377 23bf 00e6 f0bc
00000310: bbdf cbbd 6e15 06be 7d0b a63e 5a1b a2be
00000320: 61ef 4f3e 398c 86be 2ee9 203e a73a 15bf
00000330: 4d6a b1be 1f73 193f e883 83be 397a 64bd
00000340: c5fa a23e 82a8 3d3e 60cb 3f3e b880 18be
00000350: a789 23be 130f 563e 5205 053d 7236 a0bd
00000360: a363 883d 17ce 8c3e fda2 6ebe 1256 393e
00000370: 3cf9 343f fcb5 02bf ab8e 513f 63c8 ebbe
00000380: 0be1 a13e 135a eabe e8e7 1a3f 11f7 3f3f
00000390: 1278 acbd a38c 983d fafc da3c 0ac0 b1bf
000003a0: 7784 793f 41a8 98be 8b83 263e 40e0 693e
000003b0: 91ff 65be 7ff6 8f3e 5531 ae3d ddfe 983e
000003c0: f8f5 d7bd 32b4 74be b2a8 cc3d f076 f43c
000003d0: 2b15 553c 0ee4 4abe 1d8f 873e d4e0 413d
000003e0: a120 993d 62b5 723e 8397 223f 4ce6 23bf
000003f0: 9c2a 163d 5442 503d b1dc aebe 7de8 ea3d
-0.18496315 -0.43875435 -0.25848028 0.40471107 0.07477131 -0.14222844 -0.17480041 -0.06464363
-0.17687456 0.027222015 -0.042173907 0.28294918 -0.4994432 0.32981476 -0.14142215 -0.2810279
0.53885114 0.5038451 -1.1075428 0.17188859 0.20090628 0.06779138 0.049238924 -0.2604675
-0.23858446 -0.04745297 -0.6291973 0.20031957 0.27525523 0.15138216 -0.31650805 -0.37073827
-0.21928203 0.4822055 -0.09516898 -0.27367714 0.45686862 0.00018457911 -0.25486064 0.40391505
0.017583517 -0.79335153 0.46092242 -0.09475462 0.14510421 0.23944241 -0.43858296 0.121280104
0.029279888 -0.10754846 0.49571118 -0.28395355 0.383742 0.12707141 -0.2640048 -0.053182036
0.056536574 0.19297633 -0.16807249 -0.18510439 0.22853148 -0.50695676 0.21480884 -0.22953896
-0.28845716 0.20746998 -0.13878793 -0.21944213 0.28736854 -0.33331203 0.030988537 0.11490911
-0.09472122 -0.12427977 0.04675706 0.05179245 0.332949 0.10787197 0.48072386 0.12332545
-0.7447569 -0.24557704 0.2839349 -0.46032915 -0.23745708 0.07317854 0.047138024 -0.26018977
0.049396187 -0.117762014 0.13916056 -0.36028153 0.03718358 0.15366465 0.53342676 0.116894364
0.32782525 0.1294631 0.42768744 0.15884513 -0.112783015 -0.5422844 0.35210317 -0.04418749
-0.54688174 0.2164422 0.360979 0.06698268 0.72977036 0.29868472 0.25323388 -0.51038885
-0.3108817 0.21805885 0.17770188 -0.6234776 -0.17627785 0.43772686 -0.3917705 0.090690546
-0.32069162 -0.00379142 -0.04119315 -0.09134674 0.04930789 -0.5095242 0.42787012 -0.40336725
0.5773747 -0.61720455 0.18681736 0.19877583 0.86569107 -0.20376869 0.2567067 0.09244986
-0.12884703 0.21932968 0.05855784 0.08485963 -0.31163195 0.57656235 -0.54674953 -0.07645837
0.67033947 -0.4425004 0.27183744 -0.04217917 -0.600393 0.097487524 -0.34065196 -0.49254432
0.23661663 -0.33489582 0.49903148 -1.2667572 0.29948017 0.73369336 -0.2510837 -0.6237932
0.114338174 0.31589675 0.09692157 -0.4382705 -0.5545606 -0.31016588 0.46572277 0.32393932
-0.5155303 -0.33833754 -0.013921753 0.04190022 0.1563791 -0.2449148 0.29425773 -0.33611992
-0.041526895 0.35770798 0.08864432 0.024471436 -0.29644263 0.18305635 0.57657737 -0.10381122
-0.45877227 -0.5812617 0.14975993 0.43583837 -0.16669635 -0.3557557 0.40688628 -0.26127
0.15996101 0.09242293 -0.63854617 -0.029406548 -0.099547826 -0.13094112 0.3243064 -0.31661493
0.2030616 -0.26278856 0.15713951 -0.5829262 -0.34651414 0.59941286 -0.25686574 -0.055780623
0.31831947 0.18521312 0.18729925 -0.14892852 -0.15970479 0.20904188 0.032475777 -0.078228846
0.06659629 0.27500984 -0.23304363 0.1809924 0.706928 -0.51058936 0.8185832 -0.4605132
0.31617007 -0.45771846 0.6051011 0.7498637 -0.08421339 0.07448699 0.026731957 -1.3886731
0.9746775 -0.29815868 0.16261117 0.22839451 -0.22460772 0.2811775 0.08505503 0.29881945
-0.10544962 -0.23896864 0.099931136 0.02984187 0.013005535 -0.19813558 0.26476374 0.047333553
0.074769266 0.23702005 0.6351244 -0.6402328 0.03666173 0.050844505 -0.3415275 0.11470125

env_net0.bias f4 [160]
00000000: a254 4bbc c385 3abd fe08 70bd 0409 8a3d
00000010: 2a67 a53c 7f65 8c3c f6bf fd3c d3d0 373d
00000020: bc50 d5bd 34d2 903b 11d9 67bd 1008 a1bd
00000030: a3e3 a53c de74 babd 9088 053c 7029 08bc
00000040: 2da3 9a3d 455d 06bd d3c1 adbd 5b1a 98bd
00000050: e13a 04bd b289 ecbd ba85 9a3d eb0f 01bd
00000060: 1c8c c7bd a7b1 dabc 46c2 b1bd d2bc ccbc
00000070: 5f79 65bd 6885 0cbd bc18 75bd a806 57bd
00000080: 424c 96bd 7144 dfbc d1b8 e0bd a012 aa3d
00000090: 0b38 29bd f682 0fbd 5777 bd3d a8e1 43bd
000000a0: 8dce 75bd 2cb9 71bd dcd0 95bd 9975 42bd
000000b0: 31e1 3c3d 96ef 7cbd e16c d5bc e68d 78bd
000000c0: 7007 9cbd 1745 63bd 4fa9 aabd dd75 f43b
000000d0: 4aec 16bd 2b82 413d 0436 743a 35aa ddbd
000000e0: eb39 d63c 2c30 ebbd 91e9 0ebe bcc7 83bc
000000f0: 4855 5cbd 8491 12be b859 84bd 7a53 79bc
00000100: 4e1c 69bb fd5a fabc 9dca 2fbd 7c01 a5bd
00000110: 753b 88bc a971 bdbd d0fe 913c 323f 72bd
00000120: 3cfe 48bd f5f6 843c a764 3f3d 1b0d a2bd
00000130: 2fc8 2f3d d1f3 cbbd 0cee c8bd 4841 43bd
00000140: ab29 8ebd cda1 33bc 18bb 133d dc86 993c
00000150: 8b7e 2fbe be1f e8bc dc8e 19bd 18fe 1a3d
00000160: 5ce6 8ebc c7bd d0bd 8c96 6dbc 40e2 db3d
00000170: e591 c4bc e12b f23c 1cdb a6bc bdb8 903d
00000180: 584d c6bd fccb d5bd 7ae3 85bd 9227 21bd
00000190: c664 4ebd 708b dbbd bc4f 07bd 483c 063d
000001a0: 3139 33bd 2f55 97bd 97da d9bd 71d6 413d
000001b0: 65ef 853c 09de a5bd 98d3 e9bd e747 d1bd
000001c0: 88f1 0b3d d9e3 76bd 49e7 ebbd 81d9 2db9
000001d0: b498 81bd d2f8 f1bc 94c7 b93c 65e0 89bc
000001e0: 1462 ae3d 2d9a d7bd 3f80 6fbd 61ef b3bd
000001f0: 24f1 b93d 0beb 72bd 47c7 8ebd 2c94 5dbd
00000200: 37ce 093d 66e6 de3d 6fe7 303d 7bf9 6fbd
00000210: de26 2a3d 8b01 5fbc 5565 b93d 2ee3 5cbd
00000220: e9c1 943c 6456 0dbd ccdd 20bc 367b 31bc
00000230: bf25 22bd 3bfa b33c 51f3 863d ccd5 3c3c
00000240: e2d8 393c 68d7 9cbd 4fe0 40bd fc7a 003c
00000250: 385f 91bd 9418 cdbb 4588 9ebd 205d 9b3d
00000260: ba79 503c 62e5 63bd 48b2 4fbd e668 5cbd
00000270: 4b00 69bd f92c 35bd 0dad 43bd 1ad8 c6bd
-0.012410315 -0.04553772 -0.058602326 0.06740001 0.020190794 0.01713824 0.030975323 0.044876885
-0.104157895 0.0044195894 -0.056603495 -0.07862866 0.020250147 -0.09104322 0.008150235 -0.008310661
0.075506546 -0.032803793 -0.08484235 -0.07426902 -0.032282714 -0.11549701 0.075450376 -0.03150932
-0.097435206 -0.02669604 -0.08679633 -0.02499238 -0.05602395 -0.034306914 -0.05983804 -0.052496582
-0.07338764 -0.027254315 -0.10972751 0.08304334 -0.041313212 -0.035037003 0.09251278 -0.047822624
-0.060011435 -0.059014484 -0.073152274 -0.04747543 0.046113197 -0.061751924 -0.026052894 -0.0606822
-0.07618606 -0.05548581 -0.08333074 0.0074603395 -0.036846437 0.04724328 0.000931591 -0.1082348
0.026150664 -0.114837974 -0.13956286 -0.016086452 -0.053792268 -0.14313322 -0.06462425 -0.015217656
-0.003556985 -0.030560965 -0.042917836 -0.08056924 -0.016629914 -0.092501946 0.0178217 -0.0591423
-0.04907058 0.01623104 0.04672685 -0.07912656 0.04291552 -0.09958614 -0.09811029 -0.04766968
-0.06941541 -0.010963869 0.0360671 0.018741064 -0.17138116 -0.028335448 -0.037489757 0.03783998
-0.017443828 -0.10192447 -0.014501225 0.10736513 -0.02399535 0.029561939 -0.020368151 0.07066486
-0.09682721 -0.104392976 -0.06537528 -0.039344378 -0.050389074 -0.10719955 -0.033035025 0.032772332
-0.043755714 -0.07389294 -0.10637396 0.047323648 0.016349504 -0.080989905 -0.114173114 -0.102187924
0.03416589 -0.060275886 -0.115187235 -0.00016579592 -0.06327954 -0.029537592 0.022678174 -0.016830632
0.08514801 -0.105274536 -0.058471914 -0.08785892 0.09079197 -0.059306186 -0.06971603 -0.054096386
0.033643927 0.10883789 0.043189462 -0.058587532 0.041540973 -0.013611208 0.09052531 -0.053927593
0.01815887 -0.034506217 -0.0098185055 -0.010832598 -0.03958678 0.021969905 0.06589378 0.0115255825
0.011343213 -0.07658273 -0.047088917 0.007841822 -0.0709824 -0.0062590335 -0.07740835 0.075861216
0.012724334 -0.05563868 -0.05070713 -0.053810976 -0.056885045 -0.044232342 -0.047772456 -0.09709187

env_net1.weight f4 [160, 160]
00000000: 8a31 833d 3339 c1be e1b4 de3d f21e 1cbe
00000010: 3a4d 513e 804f 4d3e 7615 703d d904 5a3d
00000020: 6d84 823e 19ed 3abf 035b 7ebe 71ee 83bd
00000030: 53b1 43bb 440d 13bf a750 473e ece3 1cbd
00000040: 95ad d1be 27ef 08bf 0c08 bebe 5cf9 cabd
00000050: cc49 d9be fc84 f33d 42e7 18be 3a70 1f3f
00000060: 49cc 39bd 6108 a4be 099c e8be 4c6e 2abe
00000070: 341e 343e 5fd9 d9be b552 213e 0038 d9bc
00000080: d1a2 2dbe bc88 e13d 8b1b 103f 18d6 17be
00000090: d11c 06bf c5b7 bdbe 6008 b13d 117e 42be
000000a0: d1c4 d93e 8b78 8ebe 3fc1 80bd eec2 2f3e
000000b0: bebe 523e 622e 103e 5a0c 7bbe 146b 913e
000000c0: bd76 c13e 1911 7bbe 2427 80bc 269d 79bc
000000d0: a3bb 553e e422 14be 31f3 4ebe c57d 15bf
000000e0: 40f1 b9be b02e c63d c01c 8b3e 65d0 863b
000000f0: 3f6e 123f a09b 513d cf40 53be bf8b a5bd
00000100: c423 0b3e 5ca3 68be 9d68 18bc 54c5 7fbd
00000110: 3405 013e be29 9a3e 66b9 0cbe 23df c93e
00000120: b476 9fbe b4fa b3bc ed84 333e b771 d53e
00000130: d228 0abe 6ab7 183c 64c2 973c ea16 853c
00000140: 2682 a33c 563a a53e 453a 693e a684 513c
00000150: 3826 c23d db96 39be 49b8 2d3e 688b cc3b
00000160: bd92 7cbb d7d7 fc3d f7d1 773e f188 29bf
00000170: 51b5 283f a1c5 8d3d 5c91 3cbe 5356 74be
00000180: c13b f1be ae52 1bbf faab 1a3e 0c7e ea3d
00000190: 4bd5 623e 6e65 cbbe dfc8 273e a303 533e
000001a0: 7aca 41bf 8b7d 943e 6c6a ebbe 110d 84be
000001b0: c183 1ebe 5708 14be 4bd7 fcbd 34e6 55be
000001c0: 8b89 423e e342 763e 55a8 f23b c7f3 09bf
000001d0: 14a2 4e3e 12ed d43d 6baa ca3c b1ba 333e
000001e0: 9ce0 d4bd d406 a03e 035c e8be 1a22 abbe
000001f0: 7688 31be a10d 273f 8b61 303e b812 a33d
00000200: 4c09 373e 1aca ccbe 5c47 713e da2b cf3e
00000210: 8560 d93d c294 4cba c8a9 b13c 2ca0 c9be
00000220: 8e88 c53d b642 00bf 158b dcbe 88bc a7bd
00000230: 31b1 133e 8458 0ebe 812b 4bbf eea3 acbe
00000240: 3641 293e b5fd 6d3e 5da9 c43e bc75 4bbf
00000250: bd8d d03e 7a32 d3bd a3eb aebe 54bc 0bbf
00000260: 1c0d 6b3c 0bda 21bd 7791 d73d edcf dfbe
00000270: c3b3 123d b166 1fbf 1f83 d33e a234 5abe
00000280: 2b03 553e 9a40 90bd 3a33 20bd 8439 9b3e
00000290: 4d45 70be a324 e8bd 9c39 aebe c1c6 1fbd
000002a0: e87e b73d aa8b 493e a985 853e 5968 363e
000002b0: b9d4 e03d 0ca7 91bd 4291 213c f0b8 8fbd
000002c0: 5a0b 55be cf66 32be 1952 563e cee4 a93d
000002d0: 7570 b93d d15d 11bd ef76 84bd bbec 1d3e
000002e0: 1fce e43d 383d 5d3d 3734 993e d546 ae3d
000002f0: e4d4 b13e e701 2e3e a1aa eb3d 4a1b 673e
00000300: f1a3 8fbd ef79 37bd b9d1 6fbe bc7f 07be
00000310: acef e0be 6f4a d03b 7dbb de3d 341a 99be
00000320: 7d08 8f3d 6038 9c3d be62 693e b8e0 173e
00000330: 23dc 2dbe 5b91 323b 4c36 313e b7ca 983e
00000340: ecdf 2c3e a561 4c3e bebe afbb 505f be3d
00000350: 9879 10be 3226 89be 6201 f33d 2a2e dd3c
00000360: c4b5 dbbd f7c2 6fbe c1b7 07bf ec4a b7be
00000370: c96b 94be 5a31 93be 3996 633d 03c8 68bc
00000380: d12f bfbd 3d01 a73e 00cf 873e bbda c93e
00000390: c35a 88bd 390b e73d b6ec 4dbe 43ae 8d3d
000003a0: 6c99 133d 2ffc 793d 9498 093e 5307 313d
000003b0: 7e68 ae3e 46fc 11be f05a 893c 85c4 d03c
000003c0: bdbc d43d bfa2 073d 5243 12be 098f 843d
000003d0: 6004 6bbe d1d6 4b3e c261 22be bf7e 05bc
000003e0: c1ee a1be 241f f73c 3af4 1eba 01c8 67be
000003f0: bdd8 063e 5ecd 0d3e 47e0 9bbd 8a7a 4cbe
0.06405933 -0.37738952 0.10874344 -0.1524618 0.20439616 0.20049858 0.058614217 0.05322728
0.25491658 -0.7301803 -0.24839406 -0.064419635 -0.0029860332 -0.57442117 0.1946436 -0.0383033
-0.40952745 -0.5348992 -0.37115514 -0.09910843 -0.42439115 0.11890599 -0.14931968 0.6228062
-0.045360837 -0.32037643 -0.45431545 -0.16643637 0.17589647 -0.42548653 0.15754206 -0.02651596
-0.16956641 0.11012408 0.5629203 -0.14827764 -0.5238772 -0.37054268 0.086441755 -0.18993403
0.42532972 -0.27826342 -0.06286859 0.17164204 0.20580575 0.14080194 -0.2451643 0.28402007
0.37785903 -0.24518241 -0.015643664 -0.015235221 0.20872359 -0.14466435 -0.20209958 -0.58395034
-0.36316872 0.09676874 0.27170372 0.004114198 0.5719947 0.051173806 -0.20630191 -0.08083295
0.13587862 -0.22718567 -0.0093022855 -0.062444046 0.12599641 0.30109972 -0.13742599 0.39428052
-0.3114525 -0.02197013 0.17531176 0.4168832 -0.13492134 0.009321073 0.01852531 0.016246278
0.01995952 0.3227107 0.22776134 0.0127879735 0.09479946 -0.18123953 0.1696483 0.0062422045
-0.0038539611 0.12345856 0.24201189 -0.6622458 0.65901667 0.0692246 -0.18414825 -0.23861055
-0.471159 -0.60673034 0.15104666 0.11449823 0.22151677 -0.39725822 0.1638522 0.20606856
-0.7569958 0.29002032 -0.4597963 -0.2579122 -0.15479948 -0.14456306 -0.123457514 -0.20888597
0.18997781 0.24048953 0.0074053206 -0.538876 0.20179015 0.1039678 0.024739465 0.17551686
-0.10394403 0.3125521 -0.453827 -0.33424455 -0.17337212 0.6525517 0.1722471 0.07962555
0.1787464 -0.3999794 0.23562378 0.40463144 0.10614113 -0.0007804149 0.021687403 -0.39380014
0.09645186 -0.5010179 -0.4307486 -0.08190256 0.14423062 -0.13900954 -0.79363257 -0.33718818
0.16528782 0.23241313 0.38410464 -0.79476523 0.40733138 -0.10312362 -0.34164152 -0.5458424
0.014346387 -0.039514583 0.10525792 -0.43713322 0.035815965 -0.6226607 0.41310975 -0.2130914
0.2080199 -0.07043572 -0.039111353 0.30317318 -0.23463936 -0.11335113 -0.34028327 -0.039007906
0.08959752 0.19682184 0.26078537 0.17813243 0.109780736 -0.0711194 0.009861292 -0.07017696
-0.20805112 -0.17422031 0.20929755 0.08295594 0.090546526 -0.03548986 -0.06467997 0.15422337
0.11172127 0.05401346 0.2992265 0.08509604 0.34732735 0.16992913 0.11507154 0.22569004
-0.07013691 -0.04479402 -0.23419847 -0.1323232 -0.43932855 0.0063565294 0.10875604 -0.29902804
0.06984041 0.0762794 0.22791573 0.14831817 -0.16978507 0.0027247283 0.17305869 0.2984216
0.16882294 0.19959123 -0.0053633144 0.09295523 -0.14108884 -0.26786953 0.11865498 0.026999552
-0.107280284 -0.23414217 -0.5301476 -0.35799348 -0.28988484 -0.2874859 0.055563185 -0.014207843
-0.09335292 0.32618132 0.26525116 0.3942469 -0.066579364 0.112814374 -0.2010983 0.069180034
0.036034986 0.061031517 0.1343711 0.043219876 0.34064096 -0.14256391 0.016766995 0.025484333
0.103875615 0.03311419 -0.14283493 0.06472594 -0.22950888 0.19906165 -0.15857604 -0.008147894
-0.31627467 0.030166216 -0.0006063614 -0.22634889 0.13168617 0.13847873 -0.07611137 -0.1996862

env_net1.bias f4 [160]
00000000: e763 8ebd 49ad ed3c f690 be3d 5d9c 01be
00000010: e502 113e a588 753e ef3d 843c 34a4 c7bd
00000020: 27cb d6bd 05cb fdbd b980 843e 50bd a4bd
00000030: 8fb0 033c 4a71 ddbd 3fa9 d13d 8fb5 96bd
00000040: 0656 e8bd 451c 333d 552a 43bd 57c7 b23d
00000050: 27ca 8dbe ec47 52be d1f9 9a3c f1a4 36be
00000060: 95e2 cfbd 1b6f 473d eac9 92bd 4f31 acbd
00000070: 34c1 01bd d87c 283e b30b 61be 9498 9fbd
00000080: 183f fbbd a821 cb3d e22a 18be 4d60 6ebd
00000090: 0f16 50be 3118 12be 112f 87bd b1a7 393e
000000a0: c2d7 8c3e 6642 b5bd 546b b83c 1060 1ebd
000000b0: 6e39 a53d abd6 49be 4c7d 48be c815 68bd
000000c0: 6bf7 cabd 0f09 a63d 0fbd 91be eb12 0cbd
000000d0: 3b78 983c 8488 00be fcc9 97bc 9dde 41be
000000e0: 3415 d6bd de88 71bd 6841 d3bc 653d 29bd
000000f0: 6516 863d b039 7cbe 12c1 b53c f82b 6abe
00000100: aef2 2d3c 8265 10bd fac9 23be 7d99 0cbc
00000110: 5a1f b2bd f146 773d 8ade 9f3a 3db3 21be
00000120: b545 a3bd 347d 51be 37e9 f7bd 49bd bdbd
00000130: 2249 dabd c2b4 45bc 9b7e 963d 76b9 84bd
00000140: 767d a43d b7fb 2bbe 86db b73b b35f 0dbe
00000150: fb33 9cbd bb85 98bc 6056 c1bd 1cf3 16bd
00000160: 68e3 4bbd dabd 363e 7625 db3b 0980 58bc
00000170: 448c 4ebe f180 09bb ef2e 5d3e 8786 69bd
00000180: 7e0e 30be 9b94 55bd a54a c73d 4cf6 18bb
00000190: c826 0ebe 6aab 04be 4412 6c3e 7433 1f3d
000001a0: e28a 41be 18da 8a3c 9041 edbd ccfa 9abd
000001b0: 25d7 77bd a368 70bd 2c9e a4bd 4e0e 46be
000001c0: c873 8cbd ff5e d33c 7b8a 81bd 4ca3 90bd
000001d0: b964 68be a284 5ebe aa39 c43b 0bd6 843c
000001e0: fa72 3d3d 8242 1d3d 52c8 7d3d f301 80bd
000001f0: 8c52 323d 43ba 1fbd 5974 95bd 9583 59be
00000200: 8b97 2fbe 77f1 40be 1523 a9bd 3ce8 75bd
00000210: d30b 33bd 7d39 0cbe f060 08be 2511 28be
00000220: 9802 9abe fc96 78bd 356d e63d 8e71 98bd
00000230: 93ed 463e 3d1f cebd 1bad 1bbe 4ebd ccbc
00000240: 94aa 22be 99d9 653e 9a7f 25bd a6d1 71bd
00000250: 4d7c 2ebe be3d 15bc 7ef8 043d b55f 1fbd
00000260: caec 7ebd 390c 33bd 7aa8 ecbd 89a3 05be
00000270: 7d0f 4dbe ec76 93bd cd70 16bd 1cd6 37bd
-0.069526486 0.029013293 0.09304993 -0.12657304 0.1416126 0.23977907 0.016142813 -0.09748116
-0.10487967 -0.123922385 0.25879458 -0.08043921 0.0080377 -0.10812624 0.10237359 -0.07358848
-0.11344533 0.04372813 -0.047647793 0.08729427 -0.27693292 -0.20535249 0.01891795 -0.17836358
-0.10150639 0.048689943 -0.07167418 -0.08407842 -0.031678393 0.16453874 -0.21977119 -0.07792774
-0.122678936 0.09918529 -0.14860108 -0.05819731 -0.20320915 -0.14267041 -0.06600774 0.18130375
0.2750836 -0.08850555 0.022512116 -0.03866583 0.080675945 -0.19710796 -0.19579047 -0.056661397
-0.099104725 0.081071965 -0.28464553 -0.03419773 0.018612018 -0.12552077 -0.01852893 -0.18932576
-0.10453263 -0.058968417 -0.025788024 -0.041318316 0.0654724 -0.24631381 0.02218679 -0.22868335
0.010616941 -0.035253055 -0.15995017 -0.008581516 -0.08697386 0.06037039 0.0012197059 -0.1579103
-0.0797228 -0.20457917 -0.12105029 -0.09264619 -0.1065848 -0.012067022 0.07348367 -0.06480686
0.08031742 -0.1679524 0.005610886 -0.13806038 -0.07627102 -0.018618455 -0.09440303 -0.03685294
-0.04977742 0.1784586 0.0066878153 -0.01321412 -0.20170695 -0.0020981396 0.21599935 -0.05701306
-0.17193028 -0.052143674 0.09731034 -0.0023340164 -0.13881981 -0.12956014 0.23053843 0.03886743
-0.18900636 0.016949698 -0.11584771 -0.07567367 -0.060507912 -0.05869354 -0.080379814 -0.19341394
-0.06858021 0.025802134 -0.06325241 -0.070623964 -0.22694673 -0.21730283 0.0059883194 0.016215345
0.04625223 0.038393505 0.06195862 -0.06250372 0.043535754 -0.038995992 -0.07297582 -0.21241601
-0.17147653 -0.18842112 -0.082586445 -0.06003593 -0.04371245 -0.13693805 -0.13318229 -0.1641279
-0.30080104 -0.060690865 0.11251298 -0.07443534 0.19426565 -0.10064552 -0.15202753 -0.024992611
-0.15885383 0.22446288 -0.040404893 -0.059037827 -0.17039604 -0.009108959 0.032463543 -0.038909633
-0.06223754 -0.04371283 -0.11555572 -0.13050665 -0.2002544 -0.07200417 -0.03672867 -0.044881925

env_net2.weight f4 [160, 160]
00000000: 5aba 61be ae04 9a3d 4a60 893e 58e0 12be
00000010: 6691 863f 050d 733e 50e7 c93d ed66 763d
00000020: 6deb f7be d2b2 60be 7f61 4d3d f8cc 11be
00000030: abb6 eb3d e458 10be a7eb 003d b466 313e
00000040: e892 90be 7577 f83e 6bec 11bf 6d5c 933d
00000050: 91fb 8a3e 37a7 bdbe b0c7 0bbf 5212 c4be
00000060: 3dad 90be f192 96be dbf8 1e3b 211e 183f
00000070: fccf 37bf ca63 0fbe 553f 28be 398b 7a3e
00000080: 5165 80bb e566 803d c98e 80ba 0e34 993c
00000090: 1381 1e3f 578c 30be 2856 37be 888e 66bd
000000a0: 5ac4 a3bc 1519 cbbe 5574 31bd 12e8 f93c
000000b0: cbbe 28bf 0b69 9a3e 3ec2 f43d dbc6 4abe
000000c0: e165 dbbe 7adc c3be 2684 553e bbdd 06be
000000d0: e380 88be 9340 b43e 6527 633e ee20 9bbe
000000e0: 8893 9ebe f3dd 143e c39a efbe d7f9 213e
000000f0: d748 293e 527c d53e 1720 2abd bf15 9e3e
00000100: 63b6 cebe 5cc4 2b3e d174 a4bd 56fe be3e
00000110: abb3 883e 4828 1ebe 2a7a 48be beac 893e
00000120: 8ca6 bebc 5cc2 a33d cab7 cbbe 06e6 1ebe
00000130: 9eb2 273d fa35 7cbf 5429 9b3d a242 9bbe
00000140: 7b7f f2bd 4419 193e 3c37 75bd d655 1cbe
00000150: a84c 25be f766 01bf 3a05 a13e 4e5b 8ebf
00000160: 21ac 59bd 6dd0 833d 5e25 343e a85d c53d
00000170: 13a8 743e 9209 503e b6a1 5e3d 3336 683d
00000180: 725b 0fbf 95ba b5bd 791b 993e c7f4 f9be
00000190: 0890 5dbd 4319 df3e ec9c 18bd 6766 403e
000001a0: 1827 d93d 57e8 123e 6ff0 e33c 79de 193c
000001b0: 2efd fd3d 283a 0abd 66fc 0ebe 8dd2 913b
000001c0: 8c1d c23d 7562 4dbf b0b2 dfbe 509e f5bd
000001d0: 8f46 92be a4bf 933e e845 a43e ba85 c93e
000001e0: cb34 333d 5021 a2ba 31bb 603e ba9e 1c3e
000001f0: 13f9 b43e dc5f 01be db2a 49bf 4c8e b13e
00000200: 5229 1b3e bf8a ea3e ad86 58be 3ab3 b9be
00000210: 9be0 27bd 72a8 a63e b24b 063f 0d17 32be
00000220: 9388 7b3e 9872 d33e b279 e73d ec03 c4bd
00000230: 467d 43be e970 aa3e 3002 7abf 6e47 ee3d
00000240: 7ce7 eb3e c272 e7bd e800 f0be 6421 b83d
00000250: 78b5 14be 2067 22bd 655a 56be b57a f3be
00000260: f49e efbd 5c0f 80bf 3bd2 0abe e136 e6be
00000270: d807 183e b6b6 343e 3a49 81bf cf9c 8abe
00000280: 4025 23be 5a7b 81bc d50e 3b3e 2c06 e6be
00000290: 0903 50be 905b a2be 262c 1bbf fb22 523e
000002a0: 2a9c 2dbd 0fd0 463e 96fc 0a3e d4c5 863d
000002b0: a995 853d ca25 0cbe 9ee0 253d a08a f73d
000002c0: ca64 123f 2b5f e83d a796 f43c ebaf 4e3d
000002d0: 7db0 6c3e ab12 953e 375b a73d 5deb 04be
000002e0: a7d5 8c3e cc47 1fbe a17e 52bc 762a 903d
000002f0: 69b8 dd3e f437 b73d 32c2 063e 0d1d 0ebf
00000300: 7636 36be 2b4c 083e 915b b3bd 6efa b13b
00000310: 180c 8c3e b63c f33d bd2c 64be 4208 a7be
00000320: f2ad a9be 1b13 d4be 965e f0bc bd1f 5f3e
00000330: d248 53be 029d 043e 0912 f33c e1f3 833e
00000340: f7c5 b6be 4927 823d 0626 813e d5bf 9abd
00000350: 724a ebbc 3447 30be 7a17 8b3d b5e5 353e
00000360: 8836 8f3e 2968 003e 4446 a43e ee0e 363e
00000370: 6c22 cfbe 3ead 4c3c 293e 9dbb 3d25 f23d
00000380: 3795 703e e3c7 933e 641a 7bbe 21cd c9be
00000390: b3a5 693d 6e36 033d 5eac a1be 66d9 e73d
000003a0: 026f 3f3e edf6 a9be 7612 44be 4859 8dbe
000003b0: eb24 8cbe 8aa7 cebb e626 003e d45d cbbd
000003c0: a478 a2be 2695 4c3f 7748 c13e f651 dfbe
000003d0: a4b6 bebd 968e f53d 46b6 05bc b0b4 19be
000003e0: ff5c 7fbe 9a03 1ebe 3579 a33d bf5f debd
000003f0: aaf7 2cbd eb4f 71be d86e 16bf e1ba 113e
-0.22043744 0.07520424 0.26831275 -0.14343393 1.0513122 0.23735435 0.098585725 0.06015675
-0.48421803 -0.21943215 0.050141808 -0.14238346 0.115094505 -0.14096409 0.031474736 0.17324334
-0.2823708 0.48528638 -0.5700137 0.07195363 0.27145055 -0.37041637 -0.54601574 -0.38295227
-0.2825717 -0.29408982 0.0024257216 0.59420973 -0.71801734 -0.1400291 -0.16430409 0.24467172
-0.003918328 0.062696256 -0.0009808178 0.01870158 0.619157 -0.17241035 -0.1790396 -0.056288272
-0.019991089 -0.39667574 -0.043323833 0.030506168 -0.65916127 0.30158266 0.11951111 -0.1980242
-0.42851165 -0.38254148 0.20851192 -0.13170521 -0.26660833 0.35205516 0.22182997 -0.3029856
-0.30971932 0.14537792 -0.4679776 0.15817963 0.16531692 0.4169641 -0.04153451 0.30875966
-0.40373525 0.16774124 -0.080300935 0.37303418 0.26699576 -0.15445054 -0.19577852 0.26889604
-0.023272775 0.079960555 -0.39788657 -0.15517434 0.040941827 -0.9851986 0.07576242 -0.30324274
-0.11840721 0.14951044 -0.05986713 -0.15267119 -0.16142523 -0.50547737 0.314493 -1.1121614
-0.05314267 0.064362384 0.1759238 0.09637004 0.2389224 0.20316151 0.05435344 0.056692313
-0.5599891 -0.08873478 0.29903772 -0.48819563 -0.054092437 0.4357396 -0.037259027 0.18789063
0.1060316 0.14346443 0.027824609 0.0093914205 0.12401806 -0.03374687 -0.1396347 0.0044501484
0.09478292 -0.8022836 -0.43691015 -0.11993086 -0.28569457 0.28857148 0.32084584 0.39359838
0.04375152 -0.0012369547 0.21946408 0.15294924 0.3534628 -0.12634224 -0.7858102 0.34678876
0.15152481 0.4580898 -0.21145125 -0.36269552 -0.040985685 0.3255039 0.5245925 -0.17391606
0.24563818 0.41298366 0.113025084 -0.095710605 -0.19090757 0.3328927 -0.9765959 0.11634718
0.46075046 -0.11301185 -0.4687569 0.08990744 -0.1452235 -0.03964913 -0.2093292 -0.47554556
-0.1170024 -1.0004687 -0.13556759 -0.44963744 0.14846742 0.17647824 -1.0100472 -0.2707276
-0.15932178 -0.015805889 0.18267377 -0.44926584 -0.20313658 -0.31710482 -0.6061424 0.20521156
-0.042385258 0.19415306 0.13572916 0.065807015 0.06522686 -0.1368629 0.040497415 0.120869875
0.5718504 0.11346277 0.029856993 0.050460737 0.231142 0.29115805 0.08171695 -0.12980409
0.27506754 -0.15554732 -0.0128475735 0.07039349 0.43304756 0.08946219 0.13160017 -0.5551308
-0.17794213 0.13310306 -0.08757699 0.005431465 0.27352977 0.11876814 -0.22282691 -0.32623488
-0.33140522 -0.41420826 -0.029341977 0.21789451 -0.20633247 0.12950519 0.029671686 0.25772002
-0.3569791 0.06355149 0.25224322 -0.0755612 -0.028722022 -0.17214662 0.06791587 0.17763408
0.27971292 0.12539734 0.32084858 0.17779133 -0.4045595 0.012492476 -0.00479867 0.11823509
0.23494421 0.2886344 -0.24521786 -0.39414313 0.05704279 0.03203433 -0.31576818 0.11320762
0.1869469 -0.33196202 -0.19147667 -0.2760718 -0.27371916 -0.0063065933 0.12514839 -0.09930006
-0.31732666 0.7991508 0.377506 -0.4361722 -0.0931218 0.11990087 -0.008161133 -0.15010333
-0.24937819 -0.15431061 0.07982103 -0.10858106 -0.04222838 -0.23565643 -0.58762884 0.14231445

env_net2.bias f4 [160]
00000000: 958a 77bd baf0 24be bc90 fbbb 87e2 dd39
00000010: 2e28 a5bd 2720 a53e fa41 0bbe 1da6 63bb
00000020: dab8 29be 2cc9 7cbe 9c10 01be 7079 a2bc
00000030: 0cf0 15bd 3e65 f0bc f426 2ebe e9ce 51bd
00000040: ffd9 9abe c2fd 15bd 6442 99be 6db2 ecbd
00000050: 5702 373c 2bb3 3abe 7928 40bd 7ccf f5bd
00000060: 2861 4ebe f471 99be 7aa7 e5bc ae91 e1bd
00000070: 72b0 ed3d c707 b43c bb35 e03d 31d2 18be
00000080: 91bd 9cbc 1bef 993e 3c06 f7bd 062c f93d
00000090: 5956 d0bd 1443 0abe 776a 86be 522d 48bd
000000a0: a7e2 ccbc 4de7 97bd d475 65be bdc3 c23c
000000b0: 84fc 91be e37d 8cbe a8a7 97be 06f7 98be
000000c0: 3a1e e1bd 6062 c9bc e0ac 30be cfc8 bbbe
000000d0: 3aa3 3ebe 0a34 38bd 3262 84be e238 05be
000000e0: 4ba9 24be a3e5 023e 1e13 c9bd 1763 5fbe
000000f0: 3f31 70be 7e7a 90bc 2c80 14be 121a 75bd
00000100: 81eb 83bd 66be de3d 310c 9b3c 9fe4 903e
00000110: c29e b3bd 525f 54be c7eb e0bd 9c14 6fbc
00000120: 3162 a7bd 2777 70bd e502 a3be 6773 babd
00000130: f478 b8bd 22e8 56be 12a3 9bbc c3e3 dd3e
00000140: 3b19 0e3e df5f ad3d 161f 09be 021c b63e
00000150: 99d7 92bd e08c c0bd fdc1 07be 96ed bebd
00000160: bc6e 0a3e 8b10 673d b9bf c53d 3b7c 4abe
00000170: 24dd f0bd 244b 37bd 8bd7 993e 95ce 26be
00000180: 33af 41bd b37f 623c 0bb6 9abe 6c53 d7bd
00000190: 3489 b8bd 3556 923e ac41 d6bd 2f06 09be
000001a0: 1a72 8fbc 7f2d 17bd 3ab5 2b3d 4120 0abe
000001b0: a974 f13d 2f46 08be 2498 b53e f14b 74bd
000001c0: ac76 1dbd 4317 3dbe bfea 96bd 9774 223e
000001d0: 8b66 72bd f4a4 4c3d 3cdf c9bd d69e 693e
000001e0: d0fd 1b3e cc84 65be ea7d 36be 33b1 0fbe
000001f0: 1ce5 2e3c 3b03 923e a9f9 35be 8030 b63c
00000200: 7183 65be f5fc 44be 32cd e8bd 1981 5cbc
00000210: 8aaa b23c 3098 cabd 114f a3bc 33b0 98be
00000220: ee04 32be 5ce3 b2be 645d 1dbd d6c4 abbe
00000230: 8af1 82bd 6ce4 49be 79e6 52be 69dc 00be
00000240: 4957 203c 0f27 eebd 54e6 aebe 2a81 43be
00000250: 275f 113e f694 8bbe 9b24 b5bd 19b2 62be
00000260: 8ab1 70be c382 e1bc abbc 44bd 08db e9be
00000270: be65 223d b116 1cbe ba44 fabc 9c90 f7be
-0.060434896 -0.16107455 -0.007677166 0.0004232118 -0.08064304 0.32251093 -0.13599387 -0.0034736462
-0.16574422 -0.24686116 -0.12603992 -0.019833297 -0.03660588 -0.029345151 -0.17007047 -0.051222716
-0.30244443 -0.036618955 -0.29933465 -0.115574695 0.011169991 -0.1823241 -0.046913598 -0.12002465
-0.2015425 -0.29969752 -0.02803396 -0.11014114 0.1160592 0.021976365 0.10947748 -0.14923932
-0.019133361 0.30065235 -0.12061736 0.121666 -0.101727195 -0.13502151 -0.262531 -0.048871346
-0.02501042 -0.07417164 -0.22408229 0.023774976 -0.28512967 -0.27439794 -0.296201 -0.29875964
-0.109920934 -0.024583042 -0.17253447 -0.36676642 -0.18616953 -0.044971503 -0.25856167 -0.1300998
-0.16080205 0.12782912 -0.098180994 -0.21815144 -0.23456286 -0.017636534 -0.14502019 -0.059839316
-0.06441403 0.10876159 0.018926712 0.28299424 -0.08770515 -0.20739487 -0.10982471 -0.014592316
-0.081730254 -0.058707383 -0.31838146 -0.091040425 -0.09007445 -0.20986989 -0.018998656 0.4333783
0.13876812 0.084655516 -0.13390765 0.35568243 -0.07170028 -0.0940187 -0.13257594 -0.0932266
0.13518804 0.05641226 0.09655709 -0.19773953 -0.11760929 -0.044749394 0.3004726 -0.16289742
-0.047286224 0.013824391 -0.30217013 -0.10513958 -0.090105444 0.28581396 -0.10461745 -0.13381265
-0.017510463 -0.036908623 0.041920878 -0.13488866 0.11789829 -0.13308023 0.35467637 -0.059642736
-0.038443252 -0.18465905 -0.07368993 0.15864788 -0.059179824 0.049962 -0.09857032 0.22814497
0.1523354 -0.22413939 -0.1782147 -0.1403244 0.010674741 0.2851809 -0.17771019 0.022239923
-0.22413422 -0.1923712 -0.11367263 -0.013458514 0.021809835 -0.09892309 -0.019935163 -0.2982193
-0.17384693 -0.34939086 -0.038419142 -0.3354861 -0.06393726 -0.19716042 -0.20595731 -0.1258408
0.009786435 -0.116285436 -0.341601 -0.19092241 0.14196454 -0.27262086 -0.088448726 -0.22138251
-0.23505226 -0.027528172 -0.04803149 -0.4567492 0.03964781 -0.15243031 -0.03055035 -0.48352516

env_net3.weight f4 [12, 160]
00000000: 858c 373e 28ed 913e 79de 3ebe d2e2 2abd
00000010: 1445 3bbd f2dc 893e 6d4c c13d 0a93 0dbe
00000020: 2464 53bd 4052 f33d c739 acbd 2111 d7bd
00000030: e559 2e3c c464 1dbd 2468 1a3e 79a7 3fbc
00000040: ed0e 41be 90cf 59be 8392 80be a178 1cbf
00000050: c1c7 503e c49d 473e 80c5 b53d 1aeb 913d
00000060: 120e aebe 25ce 2c3e 1dd6 0fbe 9534 9d3e
00000070: 8b10 153e f824 b23e 09d6 ee3d 20f0 933d
00000080: 69ff 8c3d 27a3 483d 0e26 a13d 33a4 053e
00000090: e24c 11be e597 2fbc 866c 1ebe ff4f 663e
000000a0: b90e 303e 4a5a c23d 3d04 e93e b819 ba3e
000000b0: dcd4 22be 62a5 c43e 2588 fd3d 1498 b7be
000000c0: 43b4 0abd 5f72 a43b 1c4e 84be 1364 e5bd
000000d0: 13be 0a3e 3a03 193e 23ed 0bbf ac53 ef3d
000000e0: 1a82 a3bc 5a8b e13d 6b81 493e 7bf1 8abe
000000f0: 4848 113d 8a54 0c3e 23fe 643d 7800 e53d
00000100: c0af 3d3e 34b2 f13d 96dd 093e 7167 4e3e
00000110: a65f 103b 0aa0 b63e f3b2 b93d e705 2b3d
00000120: d2ad 923e 44c8 9dbe c03b b6be 13c4 93be
00000130: a6bc 873d 2ec8 99bc 53d2 4abe 3033 263e
00000140: ef8d ac3e becd 023c 4090 c13c 7047 0ebe
00000150: d80a c0bd d182 893d b621 a0be e2f6 833e
00000160: ecce 753c 95c0 cdbb 635e 263e 1cb3 93be
00000170: f4cb ca3c 75d3 0e3e 5930 a2bd f6d5 42bd
00000180: 523e 323e ae65 213d 0c3e b5be 0211 013d
00000190: a8f7 e2bd 55db a13c eced 783e e5c4 5a3d
000001a0: 2b80 0d3d af0d 90bd 0edb e0bc edc3 0fbc
000001b0: 7141 853e 9d0d 98bd ea58 953e 80e8 823d
000001c0: 4a0e 943d 0eb3 523e 2fa3 253e 4355 8b3d
000001d0: bf0c f93d 5727 333e 180a 4f3e f5af 723d
000001e0: ab90 843e 83a4 773e bbd8 d4bc 216a cebd
000001f0: d0b9 a13e de02 5c3e 9cec b9bd b3de 963d
00000200: c1f3 9cbe 4311 463e 2785 a5be b863 0b3e
00000210: 66b4 8b3e 8387 07bc 95c0 0abe e6b6 a5be
00000220: 9d19 553e 230c 023e 206b 1fbd 712c dabe
00000230: 2f59 9c3d 3bf8 2dbe 77a1 c2bd a691 653e
00000240: e5b4 243e 7897 6a3d a90f 80bc 300e 3bbe
00000250: 35fb 533e 2266 aabd 46dc 70bc c339 ca3b
00000260: 98cc 31bf b71b 663d 75eb d43d a493 00be
00000270: 1e8e 193e b540 2ebe 801f c6bd a31a 9e3c
00000280: 5dfa 363e bbaf e9be 473b 793e b939 2bbf
00000290: 659c a2bd 1245 5a3c 10b5 e73e f396 bcbe
000002a0: a1d0 00bf 5479 a6be 47aa 9d3d 4ea9 b7be
000002b0: 2be4 8a3d 8202 533d a57e 09bf fbcc 79be
000002c0: 4aa3 8f3d 389a 85bd 37fc 903e b71e e33d
000002d0: d7da 4abe ca13 cbbe db06 8cbe e7fa 79be
000002e0: 17f7 b53e dbda 103e 7d90 393c 5558 aabe
000002f0: dbb8 69bd 0fdf aebe bab5 bdbe 12a3 afbe
00000300: c0d0 fabe e612 8bbd 12da 35be a59c b9bd
00000310: 951a f8bc 4901 a8bd 7f73 b53e cba4 48be
00000320: 2b9e 8f3e 583a 1e3f 6eae 00bf 2dd8 02bf
00000330: a31d 083d 22c8 8dbe f8bb d4bc 327f 2d3e
00000340: 4ae6 04be e1c8 c6be b87c de3e c911 d9be
00000350: 20e2 16be 6e59 d4bd 83ca eb3d 8e23 88be
00000360: 5de5 69bc d244 a53e c693 9fbc 8efd 11bf
00000370: 5466 14be 42a1 b4be dff2 f8be 9011 2b3c
00000380: 8449 f5be fe81 3b3e 6880 b1be e87f a73d
00000390: 8e07 efbd 9520 a3be eec3 51be f9f7 a8be
000003a0: 11ab 58bc 1216 03bd 055d 833e 62f9 e6bd
000003b0: cc10 47bd d18c a73e a05c 0f3f 57ba 82be
000003c0: 746b 27bd 37bb 4dbe 3c01 adbc a9ec 2fbe
000003d0: 38f4 c03d c11c f6be 33e6 dc3e ccbb 88be
000003e0: e061 df3b 8fdc b4bd d8f0 d0be 822f 35bc
000003f0: a0d1 6dbe 4ca9 013e 15ed 413d 1c4c b0bd
0.17924698 0.28501248 -0.18639554 -0.04172022 -0.045720175 0.2692638 0.09438405 -0.13825622
-0.051609173 0.11880922 -0.08409458 -0.10501314 0.01064155 -0.038426176 0.15078789 -0.011697643
-0.1885335 -0.21270585 -0.2511178 -0.61121565 0.203887 0.19493777 0.08875561 0.0712492
-0.3399511 0.16875513 -0.14046521 0.3070418 0.14557092 0.3479383 0.11661918 0.072235346
0.06884653 0.04898372 0.078685865 0.13050918 -0.14189485 -0.010717367 -0.15471086 0.22491454
0.17193116 0.094898775 0.45511046 0.36347747 -0.15901512 0.38407427 0.12379483 -0.35858214
-0.033863317 0.005018517 -0.25840843 -0.11200728 0.1354907 0.14942637 -0.54658717 0.11685881
-0.019959498 0.11012907 0.19678275 -0.2713736 0.035469323 0.13704124 0.055906426 0.1118173
0.18524075 0.11801568 0.13463435 0.20156647 0.0022029667 0.35668975 0.09067335 0.041753676
0.2864824 -0.30816853 -0.3559246 -0.2886053 0.06627779 -0.01877221 -0.19806795 0.16230464
0.33702037 0.007983623 0.023628354 -0.13894439 -0.09377068 0.067144044 -0.3127572 0.25774294
0.015002947 -0.006279061 0.16246943 -0.28847587 0.024755456 0.13947852 -0.07919378 -0.04756733
0.17406586 0.03940361 -0.353989 0.03151036 -0.11082393 0.019757906 0.2430951 0.05341043
0.03454606 -0.0703386 -0.027448203 -0.00877474 0.2602649 -0.074244715 0.291694 0.06392002
0.07229288 0.20576116 0.16175531 0.06803372 0.12160634 0.17495476 0.20218694 0.059249837
0.25891623 0.2418385 -0.025982251 -0.10078836 0.31587076 0.21485469 -0.09078333 0.07366695
-0.3065472 0.19342522 -0.3232815 0.13612258 0.2728607 -0.008272055 -0.13550027 -0.32366103
0.20810552 0.12699942 -0.03892052 -0.4261203 0.07634198 -0.16989224 -0.09503453 0.22418842
0.16084631 0.057273358 -0.015632467 -0.18267131 0.20701297 -0.083202615 -0.014700955 0.0061714365
-0.6945281 0.056178775 0.10396472 -0.1255632 0.1499562 -0.17016871 -0.09673977 0.01929981
0.17868944 -0.45641884 0.24339019 -0.6688495 -0.07939986 0.013322132 0.45255327 -0.36833915
-0.5031834 -0.3251444 0.076984935 -0.35871357 0.06781801 0.051516064 -0.5370887 -0.243946
0.07013567 -0.065235555 0.28317425 0.11089843 -0.19810043 -0.39663535 -0.2734898 -0.24412118
0.35540077 0.14145987 0.011325953 -0.33270517 -0.057061058 -0.34154555 -0.3705271 -0.343041
-0.4898739 -0.06790714 -0.17758968 -0.09063081 -0.030286113 -0.0820337 0.3543968 -0.19594114
0.2805036 0.61807775 -0.5026616 -0.5111111 0.03323139 -0.27691752 -0.025968537 0.16943052
-0.12978473 -0.38825133 0.43454528 -0.42396381 -0.14734697 -0.1036862 0.115132354 -0.26589626
-0.014275876 0.32279068 -0.019479644 -0.5702752 -0.1449216 -0.3527928 -0.48622796 0.010441199
-0.4790765 0.18311307 -0.3466828 0.08178693 -0.11671363 -0.31860796 -0.20484897 -0.33001688
-0.013224379 -0.03200347 0.25656906 -0.11278035 -0.048600003 0.32724622 0.5600071 -0.2553279
-0.04087396 -0.20090948 -0.021118753 -0.17180122 0.09421581 -0.48068812 0.43144378 -0.26705778
0.0068170875 -0.08831131 -0.4080875 -0.01105869 -0.23224497 0.12662238 0.04734524 -0.08608267

env_net3.bias f4 [12]
00000000: 913f 783d 3370 03be 06af 57bd 7331 3bbd
00000010: a845 a0be 7dd8 95be 985e f53d a9a9 9c3e
00000020: fd3b 82bb c951 71be dd6f 413e e37d 5d3e
0.060607497 -0.1283577 -0.05265715 -0.045701455 -0.31303144 -0.2926673 0.11980933 0.3059819
-0.0039744363 -0.23566355 0.18890329 0.21630053
