ckpts/env_ckpts/env_net_5.pth (torch, 241443 bytes, 8 tensors)

env_net0.weight f4 [160, 38]
-0.044407755 0.0704589 0.20789295 -0.3545488 0.5880417 -0.022301694 -0.24281693 -0.3721362
-0.26485154 0.43158934 -0.4940121 0.04090699 -0.4416667 -0.050202835 -0.7534152 0.20118192
-0.1128348 -0.19030797 -0.66822255 0.06372511 -0.011786759 0.21924521 -0.47198156 0.22880135
-0.15875037 -1.2675086 0.30560943 -0.13279775 0.10609117 0.13619807 0.0035093336 -0.3952835
-0.007586315 0.5980737 -0.040811177 -0.086852744 -0.13887882 0.34536496 0.33831894 0.48204187
-0.5089317 0.1693482 0.13267858 -0.011265049 0.2712743 -0.32030433 -0.05102128 -0.53002566
0.339501 -0.18087932 -0.6607038 -0.11440915 -0.049643017 0.36587095 0.14497262 0.22886303
-0.33404297 -0.22623104 0.42648897 0.0018390485 0.53633606 0.336854 -0.09500222 -0.13343488
-0.067506194 0.22827592 0.04502448 0.11651778 0.3929539 -0.53401536 -0.44690543 -0.23713855
0.00865948 0.2983743 0.45639402 0.7772432 0.06705105 -0.59722453 -0.5643549 -0.09392877
-0.19670427 0.1368229 0.15255201 -0.14988714 -0.22066112 0.18753771 -0.8444525 -0.04613007
0.18374136 0.82722104 -0.16099483 -0.11487938 -0.15027902 0.11911727 0.2086692 -0.0017444914
-0.45701787 0.07906144 -0.11594669 0.6321578 0.20720619 -0.03993513 -0.19549009 -0.16195795
-0.29455787 0.10693651 0.43816122 0.49545038 0.41032773 0.6260041 0.3978385 0.17933966
-0.20540951 0.29601157 -0.027796086 0.32020205 -0.111588515 0.021011926 0.6400103 0.0347279
-0.15810758 0.14943579 -0.36088586 0.56302977 0.01979211 0.35318854 -0.026389793 -0.2411657
-0.3826642 -0.16321823 -0.23279175 0.19472964 0.22076304 -0.19007118 0.59986514 0.18622716
0.002754275 -0.26129153 0.0010947422 -0.18390423 -0.06425596 -0.1740416 -0.008715321 -0.02476143
0.85168517 0.077587 0.37797895 0.04923325 -0.38249293 0.13816638 -0.27657637 0.29569632
-0.2674566 -0.2967884 -0.090376884 -0.17354852 0.5264718 0.22028118 0.37117428 -0.40605468
0.13041732 0.234529 0.19613622 0.44842687 0.35636446 -0.27786267 -0.12248156 -0.10982892
0.23183645 -0.47664103 -0.055020403 0.025371062 0.032859474 0.20201685 0.22384056 -0.5075068
0.17452078 0.2912374 0.43867865 0.14425674 -0.14441557 0.14190361 0.19143873 0.46901593
-0.010324837 0.026327714 0.015515649 -0.39691588 0.07377421 -0.16261037 -0.18986033 0.10967874
-0.6106537 -0.41018942 -0.2508794 0.046239715 0.43790388 0.40668762 -0.1317878 -0.12895767
-0.09895508 -0.30868477 -0.13544959 -0.24999171 0.09778672 0.19608453 -0.16170876 -0.025133625
0.11979365 -0.026913116 0.23491792 -0.0377104 -0.67484 0.60746485 0.19858594 0.09521076
-0.69710547 0.31812653 -0.9726004 -0.0013882446 0.31703198 0.06447033 0.19908719 0.1861134
0.23793235 0.05541267 -0.046391174 -0.027338346 -0.4418666 -0.15482461 0.52623975 0.07551604
-0.11567869 -0.28848025 0.19719094 -0.4106294 0.15675488 0.2388097 0.18168311 -0.5087301
-0.44764388 0.12522009 0.2926348 0.3835168 -0.31536615 0.36303005 0.5466251 0.22814308
0.06848991 -0.2314082 -0.59087515 0.32216164 0.11809006 -0.45475817 0.20662656 0.22232836
00000000: e8e4 35bd c14c 903d e4e1 543e 6c87 b5be
00000010: e789 163f 0bb2 b6bc 00a5 78be a388 bebe
00000020: 9f9a 87be 47f9 dc3e 27ef fcbe 178e 273d
00000030: 2322 e2be 7da1 4dbd d2df 40bf a202 4e3e
00000040: ee15 e7bd 18e0 42be a210 2bbf 4f82 823d
00000050: 401d 41bc d181 603e 91a7 f1be e74a 6a3e
00000060: 758f 22be b93d a2bf d778 9c3e 22fc 07be
00000070: 5446 d93d 8277 0b3e d9fc 653b 9962 cabe
00000080: 9f96 f8bb 5c1b 193f 9f29 27bd dadf b1bd
00000090: 4036 0ebe add3 b03e 2438 ad3e 31ce f63e
000000a0: 5949 02bf 9d69 2d3e e5dc 073e 0a91 38bc
000000b0: 77e4 8a3e eefe a3be b1fb 50bd c3af 07bf
000000c0: 13d3 ad3e 6e38 39be e223 29bf 584f eabd
000000d0: 7a56 4bbd 7053 bb3e b473 143e 125b 6a3e
000000e0: ae07 abbe 1ca9 67be c35c da3e 3a0c f13a
000000f0: 524d 093f 2178 ac3e 8690 c2bd 27a3 08be
00000100: b040 8abd 2ac1 693e 976b 383d e0a0 ee3d
00000110: 4131 c93e 3bb5 08bf cad0 e4be 73d4 72be
00000120: 7ee0 0d3c 84c4 983e 7aac e93e 69f9 463f
00000130: 1052 893d b5e3 18bf 9079 10bf ba5d c0bd
00000140: d86c 49be 4d1b 0c3e 9836 1c3e 047c 19be
00000150: fdf4 61be e309 403e 0a2e 58bf e2f2 3cbd
00000160: b226 3c3e c2c4 533f d4db 24be e145 ebbd
00000170: bee2 19be c1f3 f33d 61ad 553e 6ba7 e4ba
00000180: 3ffe e9be f7ea a13d 7575 edbd 18d5 213f
00000190: dc2d 543e 0593 23bd 8e2e 48be 4ed8 25be
000001a0: 4ad0 96be 8701 db3d ab56 e03e acab fd3e
000001b0: 7a16 d23e ce41 203f 7db1 cb3e d1a4 373e
000001c0: df56 52be d48e 973e 9eb4 e3bc 86f1 a33e
000001d0: 8588 e4bd 3421 ac3c b7d7 233f d83e 0e3d
000001e0: f4e6 21be b205 193e 08c6 b8be b822 103f
000001f0: 1023 a23c 21d5 b43e 682f d8bc 24f4 76be
00000200: 90ec c3be ae22 27be f660 6ebe 3567 473e
00000210: b50f 623e 05a2 42be c390 193f 55b2 3e3e
00000220: 1181 343b 01c8 85be 747d 8f3a 6451 3cbe
00000230: a198 83bd f637 32be b5ca 0ebc 7cd8 cabc
00000240: 0a08 5a3f efe5 9e3d 7586 c13e cea8 493d
00000250: 1dd6 c3be 7d7b 0d3e 6b9b 8dbe 8265 973e
00000260: 12f0 88be a6f4 97be 8417 b9bd b4b6 31be
00000270: dbc6 063f 6491 613e 8e0a be3e 66e6 cfbe
00000280: 1e8c 053e 5f28 703e efd7 483e 3598 e53e
00000290: 6775 b63e 0444 8ebe 9dd7 fabd fced e0bd
000002a0: 8966 6d3e 4b0a f4be 135d 61bd f9d6 cf3c
000002b0: a897 063d 81dd 4e3e 7636 653e f7eb 01bf
000002c0: 93b5 323e 121d 953e 7d9a e03e 0ab8 133e
000002d0: ade1 13be 2e4f 113e 8408 443e db22 f03e
000002e0: 8129 29bc 38ad d73c 5935 7e3c 8f38 cbbe
000002f0: ef16 973d 5583 26be bf6a 42be 3f9f e03d
00000300: cd53 1cbf 5904 d2be 4473 80be db65 3d3d
00000310: f034 e03e 5c39 d03e 62f3 06be 7b0d 04be
00000320: f6a8 cabd ee0b 9ebe 4cb3 0abe d4fd 7fbe
00000330: 6744 c83d 62ca 483e fb96 25be 08e5 cdbc
00000340: 6056 f53d e578 dcbc 538e 703e 3876 1abd
00000350: 50c2 2cbf d182 1b3f 1d5a 4b3e dcfd c23d
00000360: 8175 32bf 7be1 a23e 57fc 78bf c2f5 b5ba
00000370: 0452 a23e 0509 843d 83dd 4b3e 8394 3e3e
00000380: 8aa4 733e 65f8 623d ac04 3ebd abf4 dfbc
00000390: 573c e2be 588a 1ebe a6b7 063f 27a8 9a3d
000003a0: f3e8 ecbd afb3 93be 6cec 493e 043e d2be
000003b0: 5a84 203e 888a 743e 230b 3a3e 233c 02bf
000003c0: 9431 e5be b239 003e 3ad4 953e 505c c43e
000003d0: ac77 a1be 13df b93e 9fef 0b3f 579e 693e
000003e0: 7044 8c3d 45f6 6cbe 9843 17bf 5ff2 a43e
000003f0: 34d9 f13d 10d6 e8be ea95 533e 0caa 633e

env_net0.bias f4 [160]
-0.023016714 -0.00368219 0.014709717 0.12479196 -0.056218714 0.06320908 -0.14604777 -0.12703943
-0.037874162 -0.06989583 -0.061107416 -0.058577508 0.106357016 -0.085257985 -0.088001035 0.06783289
-0.20102865 -0.04160741 -0.026957763 0.08671074 -0.0649538 -0.049187485 0.12127479 -0.10652406
0.13666144 0.1409923 -0.1358412 -0.04828221 -0.06288685 -0.07309016 -0.009172026 0.1559837
-0.046748705 0.053909227 -0.0013760782 -0.032305792 0.037598804 -0.047679763 -0.062122546 -0.04251951
-0.04067495 -0.04697238 -0.0040577147 0.07367186 -0.03762065 0.106429845 -0.04867983 -0.04330044
-0.059340395 0.07526572 0.08114264 0.107581615 -0.02905375 -0.0140649555 -0.047467988 -0.097297266
0.001040038 0.076620124 -0.018902557 -0.025391929 -0.052995674 -0.07616616 0.0901121 -0.12401022
-0.08025787 0.14143318 -0.056490384 -0.021546321 -0.04829656 0.14879757 0.034869924 -0.045469686
-0.029873827 -0.030124564 -0.0025335324 -0.08776699 0.09627377 -0.08835906 -0.11340897 -0.044131678
-0.09801951 -0.08764705 0.020927582 -0.038243745 -0.06359404 0.11023303 -0.012722681 -0.079980336
-0.06611563 0.044398975 -0.04064644 -0.06065208 -0.07870904 -0.040444743 -0.15349478 0.079320766
0.030311558 -0.089926794 -0.073170885 0.04104744 -0.10359833 -0.09694653 -0.086009935 -0.07903739
0.06027775 0.062975675 -0.019785777 -0.07488508 -0.0124268355 -0.06857846 0.014082217 0.06612307
0.030495793 0.06797686 -0.12610258 -0.015105476 0.012865761 -0.094082266 -0.09841227 -0.036726296
-0.029519815 -0.046851654 -0.01717189 -0.05384651 0.07155074 0.034618698 -0.042466514 -0.07098244
-0.070375845 0.0690838 0.029821709 -0.03186857 0.0986286 -0.0956916 0.1426544 -0.059340697
-0.007825086 -0.066783994 -0.059062723 -0.0025219857 -0.011923539 0.014696193 -0.01045016 -0.056903653
-0.049608383 0.07726659 0.054424666 -0.061367974 -0.025745215 -0.053142317 0.05620867 -0.028089011
-0.045432568 -0.033288732 -0.115032695 -0.04571723 -0.028214937 -0.03177865 -0.04920859 0.037026133
00000000: 8c8d bcbc e650 71bb 0601 713c ed92 ff3d
00000010: 9845 66bd c373 813d 8c8d 15be a016 02be
00000020: f021 1bbd 8b25 8fbd c54b 7abd f8ee 6fbd
00000030: b5d1 d93d bd9b aebd e339 b4bd f8eb 8a3d
00000040: 74da 4dbe 886c 2abd 87d6 dcbc 6795 b13d
00000050: 7f06 85bd d178 49bd eb5e f83d 4929 dabd
00000060: faf0 0b3e 4960 103e f519 0bbe 91c3 45bd
00000070: d2ca 80bd 4bb0 95bd 4446 16bc 31ba 1f3e
00000080: 927b 3fbd eccf 5c3d 865d b4ba 1453 04bd
00000090: 3401 1a3d db4b 43bd 3674 7ebd f028 2ebd
000000a0: c79a 26bd 1c66 40bd 94f6 84bb 46e1 963d
000000b0: 1c18 1abd e4f7 d93d 8064 47bd cd5b 31bd
000000c0: ea0e 73bd ea24 9a3d 1d2e a63d c053 dc3d
000000d0: 2102 eebc b370 66bc cb6d 42bd ca43 c7bd
000000e0: e251 883a 03eb 9c3d 89d9 9abc bc02 d0bc
000000f0: fe11 59bd 01fd 9bbd b18c b83d 12f9 fdbd
00000100: 3d5e a4bd dcd3 103e 7662 67bd e981 b0bc
00000110: 9dd2 45bd 645e 183e c4d3 0e3d 6c3e 3abd
00000120: f5b9 f4bc cac7 f6bc 9f09 26bb 2ebf b3bd
00000130: 2f2b c53d 98f5 b4bd f642 e8bd 6bc3 34bd
00000140: 74be c8bd 4c80 b3bd 5270 ab3c 79a5 1cbd
00000150: 983d 82bd dbc1 e13d cb72 50bc bbcc a3bd
00000160: a267 87bd b3db 353d e27c 26bd 516e 78bd
00000170: 3532 a1bd 63a9 25bd bc2d 1dbe ed72 a23d
00000180: f24f f83c 8a2b b8bd 9eda 95bd 5c21 283d
00000190: 5c2b d4bd e78b c6bd fa25 b0bd 5bde a1bd
000001a0: cde5 763d 64f9 803d c815 a2bc 595d 99bd
000001b0: ed99 4bbc dd72 8cbd 19b9 663c 886b 873d
000001c0: 50d2 f93c 7437 8b3d 0921 01be f57c 77bc
000001d0: eaca 523c 34ae c0bd 5f8c c9bd 506e 16bd
000001e0: 8ad3 f1bc 85e7 3fbd 10ac 8cbc 288e 5cbd
000001f0: 3289 923d 56cc 0d3d 5ef1 2dbd 3e5f 91bd
00000200: 3621 90bd cf7b 8d3d a84c f43c 9e88 02bd
00000210: cbfd c93d f5f9 c3bd ff13 123e 3b0f 73bd
00000220: ca34 00bc 0cc6 88bd c1eb 71bd e647 25bb
00000230: f35a 43bc 4dc8 703c 2637 2bbc ce13 69bd
00000240: 2932 4bbd f23d 9e3d 66ec 5e3d fc5c 7bbd
00000250: a1e7 d2bc c2ab 59bd 103b 663d ed1a e6bc
00000260: 8017 3abd c459 08bd 4396 ebbd fd41 3bbd
00000270: 0323 e7bc 542a 02bd f28e 49bd b7a8 173d

env_net1.weight f4 [160, 160]
0.18191595 0.3356985 0.17561378 -0.13523737 0.22321557 0.47839212 0.4470774 0.5331898
0.03729692 -0.20840526 -0.036200024 0.47208256 -0.003028759 0.36325476 0.08065177 0.02190471
0.96354777 0.31005457 0.25636578 0.20514347 -0.43115684 -0.3208325 -0.1662434 0.48921347
-0.25275818 -0.17962858 0.41183144 0.16827694 0.16254202 0.016558036 -0.13925114 -0.18228848
-0.68300295 0.03633914 -0.116056226 0.22947344 0.07407386 0.47340736 -0.08947616 -0.051246464
-0.806178 0.08799046 0.43711957 -0.6469846 -0.22137593 -0.11679707 0.53585804 -0.26719323
0.29731512 -0.100857355 0.10745957 0.023458 0.00061423593 0.2926683 0.34289196 0.31115282
-0.15283264 -0.3714746 0.14964417 -0.03259931 -0.20799972 0.17223068 0.13440421 0.54837495
0.40913776 -0.13127589 0.10074975 0.1951275 0.36360985 0.05588361 0.20119813 0.3429582
0.44244435 0.11090555 -0.04004065 -0.38717797 -0.12017747 0.2992662 -0.12203822 0.115943
0.28713262 -0.18771435 0.21750422 0.11260269 -0.059660066 -0.29231906 -0.01829277 -0.26457688
0.18637496 0.14632006 0.2303603 0.16846958 -0.027720049 -0.27710253 -0.07867339 0.21378343
-0.43294162 0.059424434 -0.40489948 -0.03862438 0.45868763 -0.06466862 0.034854803 0.45030275
0.11446579 -0.11268055 -0.14320175 0.0063356743 0.08485314 -0.10334461 0.03437389 0.29523337
0.32501864 0.16962503 0.60349554 -0.14582315 0.19728765 -0.12662674 -0.1613785 -0.08602804
-0.16901982 0.06510385 0.4364249 0.09115824 -0.5006689 -0.42550564 0.1396628 -0.56926024
-0.37218216 -0.522298 0.016532646 0.08887386 0.12045352 0.33488587 -0.10402787 -0.22771387
-0.2146621 0.04902927 0.06936508 0.05897179 0.07579911 -0.009464149 -0.109230906 -0.30097517
-0.13699996 -0.090784796 0.29780513 0.6170082 -0.19080897 -0.26080033 -0.19167793 -0.630342
0.18589558 0.009067419 0.38520756 0.12280146 0.23988383 -0.03746504 -0.05672442 -0.5096495
0.58936185 -0.2112721 0.12293491 -0.06976967 0.225742 -0.123247325 -0.54067665 -0.28932863
-0.03249797 0.78504485 0.14828975 0.33895627 -0.2419037 -0.470767 0.2517689 0.0024684977
0.008406455 0.5667779 -0.22523081 -0.10254133 0.4823634 -0.15879875 -0.18617739 -0.1177888
-0.30557624 -0.3149172 0.3359277 -0.46567917 0.08910818 0.4301558 0.20318587 0.20290567
0.25237307 -0.15736328 -0.12007003 -0.6529391 -0.13692339 -0.10594056 0.5321282 0.033481803
0.070145726 0.070334524 0.24293305 -0.10475179 -0.075121835 0.08557169 0.30082577 -0.054646138
0.20383239 -0.12338542 0.15944684 0.115464844 0.16077067 -0.019302484 -0.6205105 -0.13018984
0.4060334 -0.0031356202 0.4290582 0.20055196 -0.20289513 -0.20420258 -0.37220505 -0.83965486
-0.57072663 0.07217101 0.29413736 0.45841283 0.2199016 0.26265836 -0.10854692 -0.46204102
0.33172035 0.41516787 0.057122793 -0.073885225 -0.1626511 -0.22159961 -0.14475386 0.5888202
0.7022626 0.3180353 -0.510937 -0.49302432 -0.007425503 -0.400843 0.42173436 -0.17552021
0.32997075 0.12643348 0.10054416 0.10773281 -0.6455564 -0.27996936 -0.00096343434 0.04198971
00000000: 2d48 3a3e ace0 ab3e 19d4 333e aa7b 0abe
00000010: 9f92 643e d0ef f43e 54e7 e43e 207f 083f
00000020: a8c4 183d 3068 55be 7a46 14bd ceb4 f13e
00000030: 257e 46bb 87fc b93e c12c a53d 8271 b33c
00000040: 11ab 763f 79bf 9e3e 6042 833e 2111 523e
00000050: 97c0 dcbe 2844 a4be b63b 2abe 307a fa3e
00000060: 8569 81be 8ef0 37be 92db d23e ca50 2c3e
00000070: 6a71 263e b8a4 873c da97 0ebe d5a9 3abe
00000080: 48d9 2ebf 5ad8 143d e3ae edbd 16fb 6a3e
00000090: 09b4 973d 7362 f23e 473f b7bd d0e7 51bd
000000a0: ae61 4ebf 5834 b43d 23ce df3e c8a0 25bf
000000b0: 5fb0 62be 4d33 efbd fe2d 093f 8dcd 88be
000000c0: b039 983e 4d8e cebd c313 dc3d fe2a c03c
000000d0: ad04 213a 9fd8 953e 898f af3e 6c4f 9f3e
000000e0: 2980 1cbe eb31 bebe 523c 193e db86 05bd
000000f0: e1fd 54be 3d5d 303e 42a1 093e 4d62 0c3f
00000100: 817a d13e 306d 06be e355 ce3d 81cf 473e
00000110: 122b ba3e 36e6 643d e206 4e3e 3898 af3e
00000120: 1188 e23e 7322 e33d aa01 24bd 313c c6be
00000130: 9b1f f6bd 6b39 993e 2def f9bd 8673 ed3d
00000140: 0c03 933e 3138 40be 6db9 5e3e 3d9c e63d
00000150: 1d5e 74bd d8aa 95be b8da 95bc 9f76 87be
00000160: 14d9 3e3e edd4 153e 92e3 6b3e 4a83 2c3e
00000170: 2815 e3bc 62e0 8dbe 841f a1bd 0bea 5a3e
00000180: 86aa ddbe 0967 733d fc4e cfbe 9934 1ebd
00000190: 1bd9 ea3e fb70 84bd e9c3 0e3d 158e e63e
000001a0: 0a6d ea3d 0fc5 e6bd 7ba3 12be 7d9b cf3b
000001b0: 7cc7 ad3d 57a6 d3bd a3cb 0c3d d428 973e
000001c0: d868 a63e 2fb2 2d3e af7e 1a3f aa52 15be
000001d0: c605 4a3e 71aa 01be 6840 25be 782f b0bd
000001e0: 8813 2dbe 2b55 853d 1673 df3e 2cb1 ba3d
000001f0: d62b 00bf e0db d9be c403 0f3e 0abb 11bf
00000200: a98e bebe 52b5 05bf 796f 873c 8003 b63d
00000210: 56b0 f63d 2976 ab3e 900c d5bd d32d 69be
00000220: 62d0 5bbe ead2 483d 470f 8e3d 678c 713d
00000230: 903c 9b3d 850f 1bbc 74b4 dfbd 6b19 9abe
00000240: b849 0cbe 61ed b9bd ea79 983e 40f4 1d3f
00000250: 6d63 43be 9f87 85be 3847 44be 185e 21bf
00000260: 695b 3e3e 838f 143c ed39 c53e 557f fb3d
00000270: 1ba4 753e f174 19bd de57 68bd 6478 02bf
00000280: 6be0 163f b757 58be 4cc5 fb3d 67e3 8ebd
00000290: e928 673e 1869 fcbd c969 0abf e222 94be
000002a0: 971c 05bd b3f8 483f 45d9 173e ad8b ad3e
000002b0: 9bb5 77be 5f08 f1be dae7 803e 85c6 213b
000002c0: 3abb 093c 5b18 113f e8a2 66be 3001 d2bd
000002d0: 56f8 f63e 249c 22be 49a5 3ebe 413b f1bd
000002e0: 7d74 9cbe d43c a1be b7fe ab3e 806d eebe
000002f0: 597e b63d 623d dc3e f50f 503e 81c6 4f3e
00000300: 0b37 813e d723 21be 47e7 f5bd 0427 27bf
00000310: a535 0cbe 5df7 d8bd 8e39 083f 3724 093d
00000320: 90a8 8f3d 8c0b 903d 71c3 783e 1b88 d6bd
00000330: 7ad9 99bd 3640 af3d d605 9a3e a1d4 5fbd
00000340: 70b9 503e 7fb1 fcbd 0846 233e d578 ec3d
00000350: 11a1 243e 3e20 9ebc c7d9 1ebf 7c50 05be
00000360: 9ce3 cf3e fa7e 4dbb 84ad db3e 7e5d 4d3e
00000370: bec3 4fbe 7b1a 51be a991 bebe 9ff3 56bf
00000380: 241b 12bf 65ce 933d 2c99 963e 16b5 ea3e
00000390: e32d 613e 287b 863e d94d debd a490 ecbe
000003a0: 40d7 a93e e290 d43e 97f9 693d 2351 97bd
000003b0: 038e 26be 02eb 62be 5b3a 14be ecbc 163f
000003c0: 7bc7 333f 86d5 a23e c4cc 02bf af6d fcbe
000003d0: a251 f3bb 4b3b cdbe 91ed d73e 92bb 33be
000003e0: edf1 a83e c777 013e 19ea cd3d 05a3 dc3d
000003f0: 2f43 25bf 2558 8fbe fc8e 7cba 67fd 2b3d

env_net1.bias f4 [160]
-0.15310232 -0.036843296 0.065757304 0.063480854 -0.0122194225 -0.12593341 0.1238509 -0.08796528
0.18795753 -0.037097603 -0.020713583 -0.1706459 -0.12928477 0.03630997 -0.017827362 -0.009912015
0.07393753 -0.15652123 0.11924984 0.09317286 0.07862823 0.08657873 0.046124876 -0.012088256
-0.013556535 0.11266657 0.09591506 -0.006331715 0.055896077 -0.094252124 0.05987639 -0.09560416
-0.05338412 -0.27215847 -0.106267355 -0.08337033 0.06332319 0.08378117 -0.029544618 -0.050789375
0.08804198 0.01404045 0.01677339 -0.015038479 -0.12965612 -0.18000911 -0.06119954 0.04151565
-0.1657702 -0.13875437 0.014988856 0.035279475 -0.015047228 -0.007327365 -0.030150741 -0.06450352
-0.019475518 -0.081854254 0.11163683 -0.044999614 -0.1356565 -0.044398107 -0.0023681219 -0.013345631
-0.0032374524 -0.040955648 -0.028476084 -0.100244574 -0.025069771 0.16271819 -0.06542358 0.082433365
-0.035981894 0.03893996 -0.12663591 -0.20331831 -0.15959805 0.12154434 0.023093218 -0.00012731017
-0.072802044 0.08353259 0.05027535 0.07878225 -0.0025619327 -0.12915593 0.030468885 -0.09804357
0.032159194 -0.10335474 0.08151267 -0.027713794 -0.03960401 -0.032775946 0.098812856 0.085529596
0.03060457 -0.015601043 -0.16450061 -0.21592069 -0.05175316 -0.038197912 -0.23065384 0.0049839527
-0.09915781 0.039313875 -0.16479121 0.05049315 0.017802738 -0.059708323 0.05388046 -0.10678243
-0.024750236 0.03807503 -0.034922734 0.03234299 -0.16346624 0.0067630946 -0.032129917 -0.021665145
-0.316393 -0.010471643 0.09600101 0.015426605 -0.11510023 -0.017186716 0.017859746 0.08737856
0.06295876 -0.13916747 -0.032379445 -0.24861011 -0.07013352 -0.08185987 0.027589737 0.045745134
-0.2039318 0.011162969 -0.055137575 0.034181233 0.010046704 -0.02267769 0.0004663537 -0.05176199
-0.14920297 0.052591648 0.23572938 -0.098972656 0.02046096 -0.114102684 -0.045870874 -0.0025196618
-0.104790464 -0.030633887 0.021817282 -0.04435427 -0.1272974 -0.08621297 0.2075956 0.03919006
00000000: dbc6 1cbe ffe8 16bd c4ab 863d 4002 823d
00000010: f933 48bc b0f4 00be 8aa5 fd3d 2427 b4bd
00000020: f077 403e a8f3 17bd 88af a9bc ccbd 2ebe
00000030: 3a63 04be c3b9 143d b00a 92bc 0166 22bc
00000040: 8f6c 973d 1a47 20be 4339 f43d 6ad1 be3d
00000050: d607 a13d 3050 b13d 70ed 3c3d d20d 46bc
00000060: 3b1c 5ebc bbbd e63d 1d6f c43d 467a cfbb
00000070: 49f3 643d 4207 c1bd f240 753d 1dcc c3bd
00000080: 4fa9 5abd 5b58 8bbe b3a2 d9bd 10be aabd
00000090: 97af 813d 7695 ab3d 8e07 f2bc 8508 50bd
000000a0: 5b4f b43d ea09 663c 5968 893c f463 76bc
000000b0: 93c4 04be 4f54 38be 5eac 7abd 500c 2a3d
000000c0: aabf 29be a015 0ebe d293 753c 3681 103d
000000d0: a688 76bc 651a f0bb b0fe f6bc 6c1a 84bd
000000e0: 1f8b 9fbc 34a3 a7bd daa1 e43d 8451 38bd
000000f0: 8ae9 0abe cada 35bd 7e32 1bbb a2a7 5abc
00000100: 702b 54bb 1cc1 27bd ad46 e9bc 074d cdbd
00000110: 1f5f cdbc 999f 263e ccfc 85bd d3d2 a83d
00000120: c061 13bd 827f 1f3d d8ac 01be ad32 50be
00000130: ac6d 23be 3dec f83d fd2d bd3c 907e 05b9
00000140: 3d19 95bd 2213 ab3d 87ed 4d3d 9758 a13d
00000150: 19e6 27bb 7441 04be e299 f93c 11cb c8bd
00000160: 5cb9 033d a6ab d3bd 1df0 a63d 0a08 e3bc
00000170: d037 22bd 1240 06bd 655e ca3d 242a af3d
00000180: 6fb6 fa3c 849b 7fbc d972 28be 501a 5dbe
00000190: 1ffb 53bd 6a75 1cbd 8530 6cbe 6d50 a33b
000001a0: 4013 cbbd 9607 213d 07bf 28be e8d1 4e3d
000001b0: 0cd7 913c b790 74bd c2b1 5c3d bfb0 dabd
000001c0: 02c1 cabc 90f4 1b3d 240b 0fbd 157a 043d
000001d0: b263 27be f39c dd3b a99a 03bd 1a7b b1bc
000001e0: 43fe a1be 4191 2bbc 2d9c c43d dfbf 7c3c
000001f0: abb9 ebbd 28cb 8cbc 9a4e 923c 88f3 b23d
00000200: 86f0 803d eb81 0ebe 4fa0 04bd a693 7ebe
00000210: 2aa2 8fbd 26a6 a7bd df03 e23c 405f 3b3d
00000220: 7fd3 50be e3e4 363c f0d7 61bd 9f01 0c3d
00000230: ee9a 243c 90c6 b9bc ef80 f439 6104 54bd
00000240: aac8 18be 576a 573d 0b63 713e 2db2 cabd
00000250: be9d a73c abae e9bd 19e3 3bbd e920 25bb
00000260: 629c d6bd ebf3 fabc 28ba b23c d3ac 35bd
00000270: 405a 02be 6d90 b0bd f193 543e c285 203d

env_net2.weight f4 [160, 160]
0.00421142 -0.07399087 -0.13789319 -0.08794045 -0.18090272 0.36160237 -0.1876529 -0.7681182
-0.30475408 -0.22253208 -0.3363336 -0.1264215 0.38625142 0.17470647 0.03734321 0.017694948
-0.111253135 0.2765611 -0.41913754 -0.3822119 -0.28820765 0.13621125 0.22490941 -0.25467178
-0.11018237 0.09016049 -0.10723208 -0.12321589 0.14356093 0.13353053 -0.15074757 0.5730505
-0.110742494 -0.075939596 -0.22211641 0.39507687 -0.7309233 -0.36275253 -0.4635294 -0.11140385
-0.6156066 0.050147142 -0.00023134354 -0.071258955 0.32008162 -0.41721392 -0.027664274 0.15044664
0.12378141 0.17413844 0.17977199 0.13149337 0.075401135 -0.2694485 0.11476222 0.5520953
0.12601942 -0.61233187 -0.31209704 0.11970381 -0.03996702 -0.0645337 -0.2888802 -0.011880785
-0.3755871 0.10809315 -0.6370413 0.45358273 -0.03857473 -0.8501465 0.2710239 -0.16616647
-0.13291799 -0.032515656 -0.19666338 0.16505241 -0.39038217 0.12519221 -0.32960564 -0.23935257
0.5669521 -0.17115432 -0.050115373 -0.2199547 -0.44707435 -0.013018476 -0.39018932 -0.21308279
-0.13371187 -0.8375371 0.11464678 -0.17981237 -0.40158355 -0.07967316 0.04454785 -0.1940365
0.0033861322 0.046663295 0.0108661875 -0.15539846 0.23633608 0.1748098 0.15880099 -0.1805073
-0.16689241 -0.20429617 -0.20206076 0.1136536 0.14632496 -0.34047967 -0.14650212 -0.45889264
-0.141029 0.041795544 -0.19764039 -0.2850663 0.15375283 0.087038785 0.46157938 0.26537323
-0.25457525 -0.2913655 0.08821707 -0.37428477 0.11733976 0.033266738 -0.04103149 -0.09048566
-0.29187125 0.30113032 -0.20566796 0.06912379 -0.14773147 -0.50051785 -0.066716924 -0.14261979
0.11128997 0.10507522 -0.5051899 0.19579642 -0.029697407 -0.052485798 -0.055449646 0.142587
0.024963055 0.2079758 -0.3659391 0.06270859 -0.1906465 0.11755177 -0.13955297 0.04196305
-0.25356 0.10685272 0.15946828 -0.036301628 0.041196004 0.23864636 -0.86729395 -0.72327155
0.24932685 0.10764503 -0.2669072 0.2841396 -0.47022066 0.46355012 -0.7857274 -0.27345952
0.1446945 -0.043712202 -0.4196657 0.16063279 0.39493856 -0.47640562 0.028646998 -0.13748285
0.14517553 -0.004105062 -0.06690531 -0.2083366 -0.1583836 -0.54253817 0.82533115 0.16712111
-1.1426562 -0.4731114 -0.114016235 0.044731773 -0.13963991 -0.65055627 -0.15523033 -0.17693292
-0.46430704 -0.07324775 0.3772848 -0.28153655 0.13278642 -0.055538222 0.16332935 0.16510794
-0.21381907 -0.34255663 -0.11681237 -0.14288868 0.40844902 0.4540975 -0.023425866 0.17381461
-0.006938497 -0.014143896 0.05271429 -0.568613 -0.14458573 -0.04105799 -0.021303652 -0.22448511
0.22161841 -0.06541669 -1.1738207 -0.026907384 0.33858243 -0.08507219 -0.29159966 -0.0728589
-0.28007114 0.08009514 -0.8462416 -0.13650209 -2.1625234e-05 0.057720196 0.2103877 0.012992489
0.080407545 -0.00541676 0.09717953 0.019396264 -0.094698854 -0.31297135 -0.32036516 -0.22440368
-0.09205803 -0.21931913 0.0019571888 -0.05938126 -0.13157426 0.02346757 -0.05596005 0.18973218
0.019439047 0.44506484 -0.40886366 -0.24484661 0.21934544 -0.08483127 0.02312465 0.07115095
00000000: f4ff 893b 8688 97bd df33 0dbe 1f1a b4bd
00000010: 903e 39be f223 b93e 1528 40be 65a3 44bf
00000020: ba08 9cbe 73df 63be eb33 acbe a374 01be
00000030: bfc2 c53e 41e6 323e 32f5 183d fff4 903c
00000040: afd8 e3bd 6b99 8d3e 3299 d6be 47b1 c3be
00000050: f48f 93be f67a 0b3e a74e 663e 5764 82be
00000060: 4ba7 e1bd 10a6 b83d 7e9c dbbd 9d58 fcbd
00000070: a301 133e 3abc 083e 925d 1abe 70b3 123f
00000080: f6cc e2bd 3886 9bbd 7c72 63be 8447 ca3e
00000090: ca1d 3bbf b3ba b9be ba53 edbe b427 e4bd
000000a0: 6598 1dbf 1767 4d3d cf94 72b9 37f0 91bd
000000b0: bde1 a33e 109d d5be 30a0 e2bc af0e 1a3e
000000c0: 1c81 fd3d 5951 323e 2616 383e 33a6 063e
000000d0: e96b 9a3d 27f5 89be 7408 eb3d 1e56 0d3f
000000e0: 3c0b 013e c8c1 1cbf 2fcb 9fbe 4527 f53d
000000f0: 75b4 23bd 3f2a 84bd 1be8 93be a0a7 42bc
00000100: f44c c0be f15f dd3d 2315 23bf ff3b e83e
00000110: 8900 1ebd 33a3 59bf a5c3 8a3e 8b27 2abe
00000120: a71b 08be 232f 05bd 2062 49be 8003 293e
00000130: 2ce0 c7be 6332 003e 12c2 a8be d718 75be
00000140: c623 113f 1443 2fbe c745 4dbd ce3b 61be
00000150: eee6 e4be 724b 55bc e5c6 c7be 6032 5abe
00000160: c4eb 08be d568 56bf eecb ea3d bc20 38be
00000170: 5c9c cdbe af2b a3bd ce77 363d 81b1 46be
00000180: dfe9 5d3b 0322 3f3d 1808 323c c620 1fbe
00000190: 1602 723e 5701 333e ba9c 223e e8d6 38be
000001a0: d8e5 2abe 0433 51be 04e9 4ebe 38c3 e83d
000001b0: 36d6 153e 5a53 aebe a704 16be faf3 eabe
000001c0: e869 10be ce31 2b3d 3e62 4abe 36f4 91be
000001d0: 6271 1d3e 6441 b23d 2254 ec3e 00df 873e
000001e0: b057 82be dc2d 95be 27ab b43d 41a2 bfbe
000001f0: d44f f03d b442 083d a310 28bd 8c50 b9bd
00000200: 2670 95be c12d 9a3e 9f9a 52be c690 8d3d
00000210: eb46 17be f021 00bf e2a2 88bd ec0a 12be
00000220: ffeb e33d ad31 d73d 2054 01bf db7e 483e
00000230: fa47 f3bc 59fb 56bd 2b1f 63bd 5402 123e
00000240: 527f cc3c 9cf7 543e 5f5c bbbe 5c6d 803d
00000250: d638 43be fbbe f03d f9e6 0ebe 72e1 2b3d
00000260: 9ed2 81be 99d5 da3d a74b 233e 04b1 14bd
00000270: 24bd 283d b65f 743e fa06 5ebf 5328 39bf
00000280: 8a4f 7f3e ff74 dc3d 0fa8 88be bf7a 913e
00000290: c3c0 f0be 7156 ed3e 6e25 49bf e302 8cbe
000002a0: cc2a 143e 910b 33bd 6cde d6be ec7c 243e
000002b0: 6335 ca3e 70eb f3be 1cad ea3c 4ec8 0cbe
000002c0: e5a8 143e c283 86bb a705 89bd 3156 55be
000002d0: 4f2f 22be c8e3 0abf e748 533f cc21 2b3e
000002e0: 8f42 92bf a83b f2be 5881 e9bd aa38 373d
000002f0: c4fd 0ebe db8a 26bf b3f4 1ebe e72d 35be
00000300: a7b9 edbe eb02 96bd 792b c13e 8f25 90be
00000310: 2af9 073e 0c7c 63bd cf3f 273e 0e12 293e
00000320: 63f3 5abe 9563 afbe 533b efbd 6951 12be
00000330: 3b20 d13e 787f e83e 9ae7 bfbc 75fc 313e
00000340: 555c e3bb cdbb 67bc f0ea 573d 9f90 11bf
00000350: 480e 14be 6c2c 28bd ff84 aebc 6ddf 65be
00000360: f0ef 623e 30f9 85bd c23f 96bf e06c dcbc
00000370: ad5a ad3e 543a aebd 8d4c 95be 0c37 95bd
00000380: 7c65 8fbe ec08 a43d 4aa3 58bf 34c7 0bbe
00000390: d667 b5b7 036c 6c3d e06f 573e 73de 543c
000003a0: b6ac a43d 147f b1bb 1006 c73d eae4 9e3c
000003b0: 79f1 c1bd c83d a0be e706 a4be 14ca 65be
000003c0: ec88 bcbd 3295 60be 2e44 003b c439 73bd
000003d0: 67bb 06be 103f c03c 5e36 65bd 2749 423e
000003e0: a33e 9f3c 8adf e33e 9456 d1be 12b9 7abe
000003f0: 179c 603e 04bc adbd e86f bd3c 97b7 913d

env_net2.bias f4 [160]
-0.08613956 -0.23176283 0.21428783 0.18379317 0.15617691 -0.0911631 -0.00364181 -0.16867094
-0.07906222 -0.054456573 -0.074171185 -0.12199854 -0.045572434 -0.21439004 -0.14226979 -0.06253689
-0.08491979 -0.08064901 -0.061038867 -0.014363516 -0.013254503 -0.012460839 -0.049606107 0.19638097
0.0566164 -0.07961161 -0.05780899 -0.13187912 -0.040742118 0.02152884 -0.038984124 -0.035562333
-0.06618597 -0.027452046 -0.05440399 -0.2351468 -0.12010671 -0.14502697 -0.17467533 -0.018520229
-0.1339869 -0.10533543 -0.015966812 -0.16158544 0.01691467 -0.14749266 0.07669377 -0.10618754
-0.092675745 -0.052042548 -0.06390229 -0.11798719 -0.008866641 -0.049368072 0.067593135 0.05758223
-0.06861157 -0.06812009 -0.10095143 0.025862187 0.1599514 0.13312925 -0.035834238 -0.023030665
-0.056141317 0.01788966 -0.002412856 -0.07721237 -0.057303786 -0.018354408 -0.05277792 0.01812088
-0.122057155 -0.09058003 -0.046579555 0.11037811 -0.013679258 -0.175517 -0.05652867 0.15190813
0.15055297 -0.23112696 -0.17307118 -0.014494095 -0.06322103 0.08768309 -0.21030988 0.15942681
-0.045458972 0.10245921 0.11888825 -0.07292487 0.011036083 -0.0262527 -0.086524054 0.09210954
-0.0110546425 -0.24626553 0.19673575 -0.08866803 -0.020196015 -0.011040105 -0.061728388 -0.22995609
-0.049907066 -0.022386657 0.019382235 0.20369467 -0.1842344 -0.21647583 0.01657207 -0.08057533
-0.05813749 -0.13485882 0.036031656 -0.043070916 -0.04924294 -0.06136806 0.060653925 -0.14705634
-0.072734945 0.091452 -0.056189016 0.24898845 0.06476189 -0.081544764 0.07859197 -0.12330463
-0.114604734 0.08522578 -0.008236549 -0.024860287 -0.016397826 -0.07473824 0.07884065 -0.064025894
0.27236634 0.056641586 0.067492835 -0.17746668 0.19623251 -0.043496046 -0.121929444 -0.118049465
-0.036702473 0.021020487 -0.11045827 0.091906436 0.19609465 -0.18986943 0.028146617 0.06818225
0.08091185 -0.016561152 -0.041066367 -0.09618529 -0.066921 -0.09215764 -0.2308723 -0.13575234
00000000: f069 b0bd 3c53 6dbe 456e 5b3e 4734 3c3e
00000010: d7ec 1f3e b8b3 babd 6fab 6ebb 13b8 2cbe
00000020: 60eb a1bd db0d 5fbd 10e7 97bd 5fda f9bd
00000030: 29aa 3abd 1089 5bbe 2caf 11be 5713 80bd
00000040: 6dea adbd 4f2b a5bd e403 7abd f454 6bbc
00000050: 6a29 59bc 8c28 4cbc c62f 4bbd 1818 493e
00000060: 99e6 673d 690b a3bd 1fc9 6cbd 520b 07be
00000070: 35e1 26bd 405d b03c d1ad 1fbd cfa9 11bd
00000080: 838c 87bd 1de3 e0bc b8d6 5ebd 53ca 70be
00000090: 82fa f5bd f381 14be 17de 32be bcb7 97bc
000000a0: dd33 09be 1aba d7bd d5cc 82bc a776 25be
000000b0: a290 8a3c 5108 17be a011 9d3d da78 d9bd
000000c0: c8cc bdbd 912a 55bd 34df 82bd 45a3 f1bd
000000d0: 6345 11bc 2d36 4abd 456e 8a3d 58db 6b3d
000000e0: 3984 8cbd 8c82 8bbd a0bf cebd f0dc d33c
000000f0: 4dca 233e 0953 083e ecc6 12bd ceaa bcbc
00000100: 70f4 65bd 568d 923c 0221 1ebb 8521 9ebd
00000110: 60b7 6abd fc5b 96bc a92d 58bd 3d72 943c
00000120: 1af9 f9bd 0682 b9bd 34ca 3ebd eb0d e23d
00000130: f71e 60bc baba 33be 9b8a 67bd ce8d 1b3e
00000140: 8f2a 1a3e 8cac 6cbe 9239 31be a478 6dbc
00000150: 077a 81bd 3193 b33d 795b 57be c840 233e
00000160: 3033 3abd 22d6 d13d af7b f33d a259 95bd
00000170: b0d0 343c e70f d7bc 8633 b1bd eda3 bc3d
00000180: 881e 35bc 082d 7cbe 1975 493e 9697 b5bd
00000190: 1d72 a5bc 8ee1 34bc e8d6 7cbd 9c79 6bbe
000001a0: 5a6b 4cbd 3964 b7bc 7ec7 9e3c 5695 503e
000001b0: f1a7 3cbe d7ab 5dbe 26c2 873c ae04 a5bd
000001c0: 9421 6ebd 6e18 0abe ee95 133d 216b 30bd
000001d0: f7b2 49bd 135d 7bbd 4070 783d f095 16be
000001e0: 0ff6 94bd 304b bb3d 7426 66bd d4f6 7e3e
000001f0: e2a1 843d f100 a7bd d4f4 a03d 2387 fcbd
00000200: e3b5 eabd db8a ae3d 97f2 06bc cda7 cbbc
00000210: bc54 86bc 5d10 99bd 3577 a13d 0220 83bd
00000220: 9a73 8b3e 0201 683d af39 8a3d d3b9 35be
00000230: 2df1 483e e928 32bd 25b6 f9bd ebc3 f1bd
00000240: 5555 16bd 2833 ac3c f237 e2bd 7139 bc3d
00000250: 09cd 483e 226d 42be bc93 e63c 23a3 8b3d
00000260: 1db5 a53d 41ab 87bc 3535 28bd cbfc c4bd
00000270: e10d 89bd 25bd bcbd ca69 6cbe a902 0bbe

env_net3.weight f4 [12, 160]
0.25835896 0.308079 -0.0036815694 -0.11100349 0.16120046 -0.4593795 0.1490823 0.034362454
0.016859978 0.009243765 0.22090162 0.11594099 0.24279198 -0.33876005 0.21467905 -0.098653965
0.14098886 -0.33332542 0.10726316 -0.081245765 -0.40230966 -0.029349105 -0.0137787415 -0.16645625
-0.07240655 0.01627824 -0.07852863 -0.4608336 -0.42203447 -0.0015294991 0.011886914 -0.11069109
-0.02106394 -0.32650197 0.25394535 -0.19600168 0.24180196 -0.04958379 -0.21409051 -0.031607825
-0.19276686 -0.33148885 -0.36669353 0.002269044 -0.2740222 -0.56558424 -0.111136034 -0.1355557
-0.2002189 -0.051995084 0.21964072 0.07388239 -0.22059642 -0.15171723 -0.16251215 -0.22829257
-0.17397277 0.091977894 0.012606388 0.097702324 0.07749658 -0.10932585 -0.15114172 -0.06443686
-0.1059755 0.29500884 -0.45052522 0.038471665 -0.059840154 0.054434765 -0.16171761 0.105507344
-0.07334538 0.076746754 0.16308913 -0.15972869 -0.17858714 -0.42318717 0.065348074 -0.013786263
-0.21942268 -0.2509638 -0.41291448 -0.32889673 0.30068064 -0.25239405 0.093524985 0.09414729
-0.28626436 -0.10672742 0.25388724 -0.16711663 -0.22391918 0.14611655 -0.15313287 -0.05109988
0.056829974 0.64157856 0.14783765 -0.07327613 0.09829367 0.1477812 0.20413238 -0.5700118
0.16654813 0.011541851 -0.01392206 0.0145981265 -0.4201193 -0.1960037 0.005999083 0.38976833
-0.39106408 0.08804476 0.14652756 -0.24792308 0.109765776 -0.06732762 0.11248256 -0.030535022
0.111811645 0.033024833 -0.14231317 0.13862972 0.05814919 0.15426128 0.032696705 -0.1780668
0.04033762 0.10978135 0.4462813 0.032326303 -0.07602587 -0.47416347 -0.19454992 0.3269752
-0.10690162 -0.0018240119 0.063172825 0.3046611 0.14023933 0.0011239247 0.15598002 -0.1708265
-0.06955575 0.31202367 0.99655825 -0.06487632 0.13311419 0.15312797 0.29228804 0.10273909
0.15778609 0.11057701 -0.14404117 -0.31145027 0.11298934 0.08716723 -0.18717797 -0.004075059
0.2947218 0.54364204 -0.5185565 -0.25533527 -0.57271385 -0.36617705 -0.64143115 -0.12711994
-0.58279055 0.047345612 -0.12716618 0.42853883 0.250043 0.38286355 0.42860657 0.24733357
0.35697308 0.2079795 -0.025625011 0.05712694 -0.27549204 -0.0017569722 0.18553154 -0.24203663
0.037535097 -0.16384582 -0.53185904 0.87081134 0.048991404 -0.12280424 0.0082174735 -0.2569864
-0.07013794 -0.16505282 0.12665652 0.016104486 -0.21757822 0.039343525 -0.1384112 0.4780885
-0.28897262 0.04726601 -0.11328981 0.062515676 -0.003011959 -0.11300666 0.0076098167 0.1523664
-0.11415365 -0.14651735 0.056797545 -0.1738033 -0.46941105 0.21148822 0.14706145 0.2107868
0.14483407 -0.086136386 0.3505413 0.07145037 -0.36316067 -0.21312611 -0.0684939 -0.35685542
-0.13302185 -0.46676338 0.26266637 0.2858267 -0.066468805 -0.10966144 -0.2567979 -0.12164214
0.24425146 -0.02147993 -0.13228211 -0.15900001 0.27641448 0.49948025 -0.0245938 -0.26354796
-0.08192074 -0.1140783 -0.091561496 0.29317197 0.11545633 0.12791562 -0.30132213 -0.24373059
0.24792 0.114631265 0.14421803 -0.1346762 0.10416037 -0.01716501 -0.07934085 0.07027297
00000000: a047 843e 88bc 9d3e 7c46 71bb cc55 e3bd
00000010: bc11 253e ca33 ebbe 08a9 183e a5bf 0c3d
00000020: f01d 8a3c 2973 173c 0934 623e 7872 ed3d
00000030: 769e 783e f571 adbe d3d4 5b3e 170b cabd
00000040: 625f 103e a1a9 aabe caac db3d 2e64 a6bd
00000050: 88fb cdbe 896d f0bc 3bc0 61bc 8273 2abe
00000060: e349 94bd f259 853c 9ed3 a0bd 62f2 ebbe
00000070: e714 d8be 7979 c8ba 55c1 423c 03b2 e2bd
00000080: 498e acbc 442b a7be 2005 823e aab4 48be
00000090: ef9a 773e 5f18 4bbd 8b3a 5bbe 3577 01bd
000000a0: ad64 45be e8b8 a9be 41bf bbbe 3eb4 143b
000000b0: a34c 8cbe 21ca 10bf 4a9b e3bd 1dcf 0abe
000000c0: 2f06 4dbe ccf8 54bd 7fe9 603e a74f 973d
000000d0: 07e4 61be c35b 1bbe 9669 26be 87c5 69be
000000e0: eb25 32be e85e bc3d 068b 4e3c 2818 c83d
000000f0: 87b6 9e3d 3be6 dfbd e5c4 1abe 79f7 83bd
00000100: af09 d9bd 660b 973e 3eab e6be 7794 1d3d
00000110: f31a 75bd fdf6 5e3d 4d99 25be 3c14 d83d
00000120: 1a36 96bd 672d 9d3d d600 273e eb8f 23be
00000130: 8cdf 36be fdab d8be 36d5 853d c7df 61bc
00000140: 57b0 60be 547e 80be 8769 d3be 2765 a8be
00000150: d0f2 993e cb39 81be 078a bf3d 4bd0 c03d
00000160: 3e91 92be e893 dabd 82fd 813e 9f20 2bbe
00000170: 124b 65be 949f 153e ddce 1cbe 1c4e 51bd
00000180: 8cc6 683d 7e3e 243f c162 173e cc11 96bd
00000190: 314e c93d f453 173e 1408 513e 4bec 11bf
000001a0: 988b 2a3e 081a 3d3c 5a19 64bc fb2c 6f3c
000001b0: e019 d7be 32b5 48be f593 c43b b78f c73e
000001c0: 8d39 c8be d050 b43d 520b 163e 8cdf 7dbe
000001d0: e1cc e03d 10e3 89bd 425d e63d 9524 fabc
000001e0: 81fd e43d 0c45 073d 8bba 11be f3f4 0d3e
000001f0: d82d 6e3d abf6 1d3e fbec 053d 2557 36be
00000200: 0f39 253d 0bd5 e03d fc7e e43e 9668 043d
00000210: 74b3 9bbd 8ec5 f2be 1838 47be 4b69 a73e
00000220: 3def dabd af13 efba c160 813d 8afc 9b3e
00000230: e69a 0f3e a850 933a 3ab9 1f3e 24ed 2ebe
00000240: 3f73 8ebd 91c1 9f3e 711e 7f3f e0dd 84bd
00000250: 164f 083e 94cd 1c3e c7a6 953e df68 d23d
00000260: ad92 213e 3376 e23d 877f 13be 6976 9fbe
00000270: f566 e73d bc84 b23d 95ab 3fbe 1388 85bb
00000280: c7e5 963e 202c 0b3f 1ec0 04bf 4ebb 82be
00000290: 609d 12bf 8f7b bbbe d534 24bf bb2b 02be
000002a0: c331 15bf 79ed 413d da37 02be 7169 db3e
000002b0: a305 803e b106 c43e 5272 db3e 0345 7d3e
000002c0: 2dc5 b63e 94f8 543e 8beb d1bc f0fd 693d
000002d0: 4b0d 8dbe 344a e6ba fbfb 3d3e 73d8 77be
000002e0: 67be 193d 33c7 27be ea27 08bf 7eed 5e3f
000002f0: 36ab 483d ca80 fbbd 95a2 063c b993 83be
00000300: 7ba4 8fbd 9b03 29be 3fb2 013e 8eed 833c
00000310: d3cc 5ebe ad26 213d aabb 0dbe 04c8 f43e
00000320: 38f4 93be 019a 413d 7d04 e8bd 3808 803d
00000330: 4964 45bb 0970 e7bd c55b f93b f005 1c3e
00000340: 64c9 e9bd a508 16be 8ba4 683d 7ef9 31be
00000350: a556 f0be 5e90 583e 4797 163e 7fd8 573e
00000360: 624f 143e 4668 b0bd 267a b33e 9254 923d
00000370: 32f0 b9be bb3d 5abe 8846 8cbd c1b5 b6be
00000380: e136 08be 9cfb eebe 357c 863e e157 923e
00000390: cc20 88bd 2d96 e0bd 047b 83be 841f f9bd
000003a0: 0e1d 7a3e aef6 afbc f674 07be e6d0 22be
000003b0: 3386 8d3e e0bb ff3e f078 c9bc c2ef 86be
000003c0: 10c6 a7bd e2a1 e9bd 9884 bbbd a31a 963e
000003d0: 5e74 ec3d 50fc 023e e546 9abe 8394 79be
000003e0: bede 7d3e ccc3 ea3d e4ad 133e 8fe8 09be
000003f0: 0852 d53d a39d 8cbc 757d a2bd 46eb 8f3d

env_net3.bias f4 [12]
-0.15644926 -0.2883572 -0.024919834 0.18415493 -0.14183097 0.04611396 0.14002262 -0.065424524
-0.28803566 0.04978064 0.2297979 0.15102725
00000000: 3c34 20be 8ea3 93be ae24 ccbc 1c93 3c3e
00000010: 233c 11be fee1 3c3d 1762 0f3e 4bfd 85bd
00000020: 6979 93be c9e6 4b3d 2450 6b3e e3a6 1a3e
