demo/envs/env_net_4.pth (torch, 240783 bytes, 8 tensors)

0.weight f4 [160, 38]
0	0xbe1fa807	-0.15591441
1	0xbe9c670f	-0.30547377
2	0x3de8ab2b	0.11360773
3	0xbda39107	-0.07986646
4	0x3ea2a4ca	0.3176635
5	0xbe6a7188	-0.22894871
6	0xbe5f7822	-0.21823171
7	0xbecbe102	-0.39820105
8	0x3d4da32a	0.050204434
9	0xbe6b9b92	-0.23008564
10	0xbdee60cd	-0.11639557
11	0xbec3eb6c	-0.3826555
12	0x3ed1177f	0.4083824
13	0x3cfa9aa5	0.030591318
14	0x3e0c5f64	0.13708264
15	0xbed5b78e	-0.41741604
16	0x3f033a3f	0.5126075
17	0x3dce5dc2	0.10076477
18	0x3ec3a554	0.38212073
19	0xbdd32836	-0.10310404
20	0xbe9a9039	-0.30188158
21	0x3df223e0	0.11823249
22	0x3e9a05ac	0.30082452
23	0x3eb8a599	0.3606384
24	0x3c03b2a3	0.008038196
25	0x3e4df626	0.2011343
26	0xbe704d70	-0.2346704
27	0xbdac7df1	-0.08422459
28	0x3ea1c581	0.31595996
29	0x3ddf27f2	0.10896291
30	0xbe3581b7	-0.17725264
31	0xbdca9333	-0.09891357
32	0x3eca8792	0.39556557
33	0x3e8f25c4	0.279585
34	0xbcd431f1	-0.02590272
35	0xbdc58cd1	-0.09645999
36	0x3f04b4b8	0.51838255
37	0xbcc272ac	-0.02373632
38	0x3d1d2126	0.03836169
39	0x3d41ac65	0.04728355
40	0xbef6aa50	-0.48176813
41	0xbcd08f0c	-0.025458835
42	0xbf50b035	-0.8151887
43	0xbd5ceaab	-0.053934734
44	0xbddf165f	-0.10892939
45	0xbe83bbda	-0.25729257
46	0xbd904ec0	-0.0704627
47	0xbeb9117b	-0.3614615
48	0xbea1913a	-0.31556112
49	0x3e317257	0.17328773
50	0xbe3b7005	-0.18304451
51	0x3d8fb5a9	0.07017071
52	0xbef78ee8	-0.48351216
53	0x3eaa3fd8	0.33251834
54	0xbf038d27	-0.51387256
55	0x3e3165ba	0.17323962
56	0xbe80baf2	-0.25142628
57	0x3e5544dc	0.20827049
58	0xbf1f613e	-0.62257755
59	0xbdf186b7	-0.11793273
60	0x3da38a70	0.07985389
61	0xbe08bc8c	-0.13353175
62	0x3deead37	0.11654132
63	0x3d1d12f8	0.038348168
64	0x3cbd9566	0.023142528
65	0xbd0a5253	-0.033769917
66	0xbef4327d	-0.4769477
67	0xbe4db300	-0.20087814
68	0x3cee8683	0.029116875
69	0x3eb0a8b6	0.34503716
70	0xbf2a61e3	-0.66555613
71	0x3ba1285f	0.0049181427
72	0xbe0f9645	-0.14022167
73	0x3ccc05d6	0.024905127
74	0xbb3ee6e4	-0.002912932
75	0xbd9d427d	-0.07678697
76	0xbe796429	-0.24354614
77	0x3e72df3c	0.2371797
78	0x3d3542e0	0.04425323
79	0x3db763a8	0.08954555
80	0x3e1718f4	0.14755613
81	0xbeb6d51f	-0.35709473
82	0x3e8d9fcd	0.2766098
83	0xbf3a5b66	-0.7279571
84	0x3db56543	0.08857205
85	0xbf112853	-0.56702155
86	0xbe90733b	-0.28212914
87	0x3eac2c5b	0.3362759
88	0x3e80bbb6	0.25143212
89	0xbd3bbdb4	-0.045835212
90	0x3d80c9e3	0.06288507
91	0xbd80966c	-0.06278691
92	0xbbceeebb	-0.00631508
93	0x3e98d4eb	0.29849944
94	0x3e089132	0.13336638
95	0xbe22abf1	-0.15885903
96	0xbeba08d9	-0.36334875
97	0xbe1a1ec7	-0.15050803
98	0x3ee992cc	0.4561981
99	0xbeff480d	-0.49859658
100	0xbd51d2f9	-0.05122659
101	0x3ec1aaa5	0.37825504
102	0x3e94e6c1	0.290823
103	0x3e6b5e63	0.22985224
104	0xbf4909aa	-0.7853037
105	0xbe1cc88d	-0.15310879
106	0xbe755b05	-0.23960502
107	0x3f2a0f39	0.6642948
108	0xbf54d94b	-0.8314406
109	0x3e5647ec	0.20925874
110	0xbeb5eac2	-0.35530668
111	0xbf137e81	-0.57614905
112	0xbed85cc3	-0.42258272
113	0xbd3fcc24	-0.046825543
114	0xbd007390	-0.03136021
115	0x3e956f87	0.2918665
116	0xbdd2655f	-0.10273241
117	0xbea791e5	-0.32728496
118	0xbe0f4265	-0.13990171
119	0xbe654426	-0.22389278
120	0x3e80b97a	0.25141507
121	0x3c9fc958	0.019505188
122	0x3e6363b9	0.2220601
123	0xbef4239c	-0.47683418
124	0xbf7a9a2c	-0.978915
125	0xbe8f0758	-0.2793529
126	0xbe568f1f	-0.20953034
127	0xbdc148e2	-0.094377294
128	0x3f0df7da	0.55456316
129	0x3e78f8c0	0.2431364
130	0x3ee80768	0.4531815
131	0x3f28c3ea	0.6592394
132	0x3e81e5a2	0.25370508
133	0xbe123943	-0.14279656
134	0x3f06e329	0.5269037
135	0xbdb2d0d9	-0.08731241
136	0xbf194f44	-0.59886575
137	0x3f3c60de	0.7358531
138	0xbe3033d3	-0.1720727
139	0xbeebed2b	-0.46079382
140	0x3eff5ae4	0.49874032
141	0xbed1ab97	-0.40951225
142	0x3eeafea0	0.45897388
143	0xbe3ef62b	-0.18648593
144	0x3d80614a	0.062685564
145	0xbebac218	-0.36476207
146	0x3de9c58d	0.11414633
147	0x3e048988	0.12943089
148	0x3e96bc89	0.29440716
149	0x3e2a45b9	0.1662816
150	0x3ebeb00a	0.37243682
151	0x3ecb6ec7	0.39732954
152	0xbe62ba69	-0.22141422
153	0x3e9e5e9d	0.3093156
154	0xbe208b79	-0.15678205
155	0xbc88bcf5	-0.016691664
156	0x3efa76a3	0.48918638
157	0xbdd6dac6	-0.104909465
158	0xbdb54b38	-0.088522375
159	0xbe2fd7bc	-0.1717214
160	0xbd934807	-0.071914725
161	0xbc9583d7	-0.018251343
162	0x3f02f0df	0.5114879
163	0x3eeb9697	0.46013328
164	0x3e966d18	0.29380107
165	0x3ec8929e	0.3917436
166	0xbe6fdc28	-0.23423827
167	0x3f1cebb3	0.6129715
168	0xbf21345c	-0.6297052
169	0x3e124387	0.14283572
170	0xbef940a4	-0.4868213
171	0x3da00a4f	0.07814466
172	0xbe92cfe8	-0.28674245
173	0xbdec0f36	-0.11526339
174	0xbce60e29	-0.028082924
175	0xbe6dfed7	-0.23241745
176	0x3dd03396	0.10166089
177	0xbb988540	-0.0046545565
178	0xbe7fbffb	-0.24975578
179	0x3eade918	0.339669
180	0xbf53d076	-0.8273996
181	0x3befcb34	0.007317925
182	0xbcb7b6f8	-0.022426113
183	0x3f11a21f	0.56888
184	0xbd195890	-0.037437975
185	0x3d8482b3	0.064702414
186	0x3f31b385	0.6941455
187	0xbf08a9e2	-0.5338422
188	0x3efe420a	0.4965976
189	0xbee03c19	-0.4379585
190	0xbe8880f4	-0.26660883
191	0xbe25d8ff	-0.16196059
192	0x3e767dc7	0.24071418
193	0x3dcdf748	0.10056931
194	0x3b148695	0.0022663225
195	0xbe549413	-0.20759611
196	0xbc078752	-0.008272009
197	0xbe2d1b7f	-0.1690502
198	0x3c1d00d5	0.009582718
199	0xbeca86cc	-0.39555967
200	0x3da1e749	0.07905442
201	0x3e79639b	0.24354403
202	0xbe270eff	-0.16314314
203	0xbe5000c4	-0.20312792
204	0x3e177ca0	0.14793634
205	0x3e329ec8	0.17443383
206	0xbd838fb8	-0.064238966
207	0xbcb3dc98	-0.021955773
208	0x3f864492	1.0489676
209	0x3e0985a5	0.13429888
210	0xbeb6e365	-0.35720363
211	0xbdc9b793	-0.09849467
212	0x3edee124	0.43531144
213	0x3db9bec8	0.09069592
214	0xbe173332	-0.14765623
215	0x3e3cf6a6	0.18453464
216	0xbca8fc09	-0.020627992
217	0xbd75541b	-0.059894662
218	0xbd2021f9	-0.0390949
219	0x3e39edb6	0.18157086
220	0x3e9221a2	0.28541285
221	0xbe81efcc	-0.25378263
222	0xbf056905	-0.5211337
223	0xbd480f4f	-0.048842724
224	0xbefa568f	-0.48894164
225	0x3df0768d	0.11741362
226	0xbf139695	-0.57651645
227	0xbe7b0c61	-0.24516441
228	0x3e6a53da	0.2288355
229	0x3e86266e	0.26201195
230	0xbe63cb9e	-0.22245643
231	0xbda9cddc	-0.08291218
232	0x3ebf81a2	0.3740359
233	0xbe0db146	-0.13837156
234	0x3e09d2c5	0.13459308
235	0x3dcac17a	0.09900184
236	0xbee995d2	-0.45622116
237	0xbca8cc8a	-0.020605344
238	0x3dad0386	0.08447938
239	0xbe60b78a	-0.21945015
240	0x3e0e5550	0.13899732
241	0x3f3a9988	0.7289052
242	0xbf01a062	-0.5063535
243	0x3eedccbd	0.46445265
244	0xbf0a467c	-0.540138
245	0x3f19bf9d	0.60058004
246	0xbdd21843	-0.10258534
247	0xbe4bb28e	-0.19892332
248	0x3e480df3	0.19536571
249	0x3d7d729a	0.06187687
250	0x3ebd4337	0.36965343
251	0xbcbeea3f	-0.023305057
252	0x3e40e37d	0.1883678
253	0x3d2b841e	0.041874044
254	0x3e39d61e	0.18148085
255	0xbdbfcb33	-0.09364929

0.bias f4 [160]
0	0xbd223c45	-0.03960826
1	0x3cc28055	0.023742834
2	0xbd37f3ad	-0.04491012
3	0xbc305591	-0.010762588
4	0xbdbbead4	-0.09175649
5	0xbd80aa65	-0.062825
6	0xbd9a2bc0	-0.07527876
7	0x3d8d3df2	0.06896581
8	0xbcbcdb3b	-0.023053756
9	0x3d53aa19	0.05167589
10	0x3c4d46f9	0.012529128
11	0xbd95622e	-0.07294117
12	0x3d5e060a	0.054204978
13	0x3cffd72a	0.031230528
14	0x3d524bc7	0.0513418
15	0x3def6e18	0.116909206
16	0xbdad5675	-0.08463756
17	0xbc68ff98	-0.014221095
18	0xbde2f5ad	-0.11082015
19	0x3c1cfa16	0.0095811095
20	0xbdd0c0e9	-0.10193045
21	0xbd112f06	-0.035445236
22	0x3ced7fd0	0.02899161
23	0xba90f8f9	-0.0011060528
24	0xbc6bbdc3	-0.014388504
25	0x3c8165e7	0.015795661
26	0x3d26a870	0.04068798
27	0xbd96134c	-0.07327899
28	0xbd629543	-0.05531813
29	0xbd9d1276	-0.07669537
30	0xbd88e369	-0.06684
31	0xbcc82e03	-0.024436003
32	0xbd35c869	-0.04438058
33	0xbdaabd9f	-0.083369486
34	0xbda21b93	-0.079154156
35	0x3d31a00a	0.043365516
36	0xbdf163d8	-0.11786622
37	0x3d05093d	0.032479513
38	0xbd27a220	-0.0409261
39	0xbd2e4d35	-0.0425541
40	0x3d55ff58	0.052245468
41	0x3e0df50c	0.13863009
42	0x3c82137c	0.015878431
43	0xbd8bc6f5	-0.068250574
44	0xbd6450d7	-0.055741157
45	0x3de7a8f3	0.113115214
46	0xbd11edc1	-0.03562713
47	0xbd829793	-0.06376567
48	0xbd8b2657	-0.06794422
49	0x3b7f62dd	0.003896884
50	0xbcc09f61	-0.023513498
51	0x3ca3a4d4	0.019976057
52	0xbdebc92f	-0.11512982
53	0x3d2f6f5e	0.042830817
54	0xbda9c328	-0.08289176
55	0xbd83aef1	-0.06429852
56	0xbdb96161	-0.09051777
57	0x3c8e7179	0.017388092
58	0xbd027f6c	-0.0318598
59	0xbcc0edfd	-0.023550982
60	0xbc0281d0	-0.00796552
61	0xbd91ac7f	-0.07112979
62	0xbd65ea55	-0.05613168
63	0xbce714d3	-0.028208172
64	0x3d1e83a8	0.038699776
65	0x3dbab07a	0.091156915
66	0x3d8d1622	0.06888987
67	0xbd3ef96c	-0.046624586
68	0x3da6af1b	0.081388675
69	0xbcbb3779	-0.0228536
70	0xbd748eb6	-0.059706412
71	0xbcb1c941	-0.02170241
72	0xbd165813	-0.036705088
73	0x3d0b05bd	0.03394102
74	0xbdf8c4e2	-0.121469274
75	0xba49f57e	-0.00077041227
76	0x3e040dc0	0.1289587
77	0xbd069754	-0.03285916
78	0xbdcff64e	-0.10154401
79	0xbca492cd	-0.020089531
80	0xbd4f7261	-0.05064619
81	0xbdb0a427	-0.086250596
82	0x3c456009	0.012046822
83	0xbd9ad60c	-0.075603575
84	0x3de66331	0.11249388
85	0xbbec916e	-0.007219485
86	0x3d04684c	0.032326028
87	0xbd58e8d6	-0.052956425
88	0xbd2ff874	-0.042961553
89	0xbdc81b1f	-0.09770798
90	0x3d762ccc	0.060101315
91	0xbcee01d8	-0.029053614
92	0x3dca44a3	0.09876373
93	0xbda48daa	-0.08034833
94	0xbd914093	-0.07092395
95	0xbd420d13	-0.04737575
96	0xbc0e3b17	-0.00868108
97	0xbd20a86a	-0.039223112
98	0xbd810ea6	-0.06301622
99	0x3d163536	0.03667184
100	0x3da19770	0.078902125
101	0x3ded600e	0.115905866
102	0xbd7f08e5	-0.06226434
103	0xbd869dea	-0.065730885
104	0xbdb7c14b	-0.089724146
105	0x3dadf380	0.084937096
106	0xbd915c5c	-0.07097694
107	0xbd84acd0	-0.06478274
108	0x3c621434	0.013798762
109	0xbd4335e0	-0.0476588
110	0x3ca842f2	0.020539735
111	0xbc040e4b	-0.008060048
112	0x3bb403a2	0.005493597
113	0xbc486279	-0.012230509
114	0xbc99fc3c	-0.018797033
115	0xbc4d628b	-0.0125357015
116	0x3bebfda2	0.0072018662
117	0xbde234e0	-0.11045241
118	0x3b4ffa6f	0.0031734963
119	0xbd0076a1	-0.031363133
120	0x3d322394	0.04349096
121	0xbd1339bd	-0.035943735
122	0xbd6468ec	-0.055764124
123	0x3da286bb	0.07935854
124	0xbd7c1749	-0.061545644
125	0xbdccc8c8	-0.099992335
126	0x3d4da07e	0.050201885
127	0xbd8a6e9f	-0.067593805
128	0xbd92fbf7	-0.07176965
129	0xbcbcc3ea	-0.023042638
130	0xbdc79762	-0.09745671
131	0xbca4aeba	-0.020102847
132	0xbd70a9c0	-0.058755636
133	0xbc5e9ea7	-0.01358763
134	0x3db0b82c	0.08628878
135	0xbd40b760	-0.04704988
136	0xbbe4ef11	-0.0069865067
137	0x3cb5ab4d	0.02217641
138	0x3bb00bc5	0.005372497
139	0xbd0640fc	-0.032776818
140	0x3de54ce0	0.11196303
141	0xbd5bb220	-0.05363667
142	0x3de3d4e7	0.11124592
143	0xbcc169dd	-0.02361005
144	0x3ca6e936	0.020374876
145	0xbc3980b3	-0.011322188
146	0xbd77fd1c	-0.06054412
147	0xbc8be369	-0.017076211
148	0xbdcc88bb	-0.09987017
149	0x3c8f4cf3	0.017492747
150	0xbdaca54a	-0.08429964
151	0xba663b4a	-0.00087826385
152	0xbd440ec5	-0.047865648
153	0xbd21417c	-0.03936909
154	0xbcb9078b	-0.022586605
155	0xbd1e08ce	-0.038582616
156	0x3cdfab81	0.02730346
157	0xbc622063	-0.013801667
158	0xbdb13df2	-0.08654393
159	0x3d6d97ae	0.05800598

2.weight f4 [160, 160]
0	0x3c9e048a	0.019289274
1	0x3c286f5f	0.010280459
2	0xbf25b2db	-0.64726037
3	0x3e68212c	0.22668904
4	0xbf7469ab	-0.95473737
5	0xbeb34a63	-0.3501769
6	0xbf408488	-0.75202227
7	0xbd01046e	-0.031498365
8	0xbdedda14	-0.11613861
9	0x3e0f2e9b	0.13982622
10	0xbd2127cb	-0.03934459
11	0x3c1f9bf9	0.009741777
12	0x3e43ed22	0.19133428
13	0x3e0ebee0	0.1394
14	0x3db1e734	0.086866766
15	0x3db2d233	0.087314986
16	0x3ce6ed3a	0.02818929
17	0xbdbe7d5e	-0.09301256
18	0x3e3b226b	0.18274848
19	0xbcf1270a	-0.02943756
20	0x3edcbbff	0.4311218
21	0x3e6242fd	0.22095867
22	0x3e4284ab	0.18995921
23	0x3d8a1c71	0.06743706
24	0x3d4fc67f	0.05072641
25	0x3ea0bf32	0.3139587
26	0xbe62aa6e	-0.22135326
27	0xbea53668	-0.3226807
28	0x3dd7b4d4	0.10532537
29	0x3cd6dc6b	0.02622815
30	0xbe216c6f	-0.1576402
31	0xbdd4f7a9	-0.103988
32	0xbe9d2f18	-0.30699992
33	0xbdbf1cd7	-0.09331673
34	0xbd25e5d3	-0.04050238
35	0xbe51ad01	-0.20476152
36	0xbe8211fd	-0.2540435
37	0xbc9f1708	-0.019420162
38	0x3d644552	0.05573017
39	0x3e8534d8	0.2601688
40	0x3ebf86c6	0.3740751
41	0x3e9f738b	0.3114284
42	0xbe7a498b	-0.24442117
43	0xbe68ba4e	-0.2272732
44	0x3d2ad4f5	0.041706998
45	0x3e4dd34e	0.20100138
46	0x3e8afc9e	0.27145857
47	0xbec79189	-0.38978222
48	0xbf077adc	-0.52921844
49	0x3e37a96c	0.17935723
50	0xbe2bedc4	-0.16789919
51	0xbf425c01	-0.75921637
52	0x3eb9ba50	0.36274958
53	0xbd8a7cba	-0.06762071
54	0xbd7d2516	-0.061802946
55	0xbe8da218	-0.2766273
56	0xbe8638fd	-0.26215354
57	0x3e53d218	0.20685613
58	0xbf92b56c	-1.1461616
59	0x3e8b86cf	0.27251288
60	0xbe57c81f	-0.21072434
61	0xbed21986	-0.41035098
62	0x3dbc80d8	0.092042625
63	0x3c28b591	0.010297195
64	0x3d9b29da	0.07576342
65	0x3e8d6b8a	0.27621108
66	0x3cf6d867	0.030132486
67	0xbe66946d	-0.22517557
68	0x3d2bb3b1	0.041919414
69	0xbc41be97	-0.011825225
70	0x3e8e8703	0.2783738
71	0x3e8956da	0.26824075
72	0xbd77ffae	-0.06054657
73	0x3e6895a8	0.2271334
74	0xbf2910ab	-0.6604106
75	0x3d8de80a	0.069290236
76	0xbe3c351f	-0.18379639
77	0x3e9f8e88	0.3116343
78	0xbd8cbad5	-0.06871573
79	0xbe4b39b3	-0.1984623
80	0xbf8bf991	-1.0935537
81	0xbf4f3f70	-0.8095617
82	0x3d3c8b2d	0.046031166
83	0xbecc5aa7	-0.39912912
84	0x3ecc9c3d	0.3996295
85	0xbedf04bf	-0.43558308
86	0xbd818355	-0.06323878
87	0xbf42d7fc	-0.76110816
88	0x3b1208d7	0.00222831
89	0x3e911732	0.2833801
90	0x3c54f51a	0.01299789
91	0x3f0c5220	0.5481281
92	0x3eaf05ba	0.34184057
93	0x3df942fc	0.121709794
94	0xbf2dfa44	-0.6796
95	0xbec6cf1f	-0.38829896
96	0xbd580c73	-0.052746248
97	0x3deac062	0.11462475
98	0xbc3d4b41	-0.011553586
99	0xbdbe3608	-0.092876494
100	0xbdd7ce6f	-0.10537421
101	0x3eb60866	0.35553282
102	0x3d948e6b	0.072537266
103	0xbdb69ab4	-0.08916226
104	0x3c850c09	0.01624109
105	0x3ad3aab6	0.0016148898
106	0x3e0b9806	0.13632211
107	0xbf0ef867	-0.5584778
108	0xbf02d93a	-0.5111271
109	0x3e7925d7	0.24330841
110	0x3e037a61	0.12839653
111	0xbeb3d7fa	-0.35125715
112	0xbdd8ab93	-0.105796
113	0xbe82d49a	-0.25552827
114	0x3d89cadc	0.067281455
115	0xbed439cc	-0.41450346
116	0xbe4b1568	-0.19832385
117	0xbf472e92	-0.77805436
118	0xbe60cc45	-0.21952923
119	0xbe060dcf	-0.13091205
120	0x3eac5068	0.33655095
121	0xbf12e4c2	-0.57380307
122	0x3e1a3a05	0.15061195
123	0x3ea5505b	0.3228787
124	0x3e8a3138	0.26990676
125	0xbf442a12	-0.76626694
126	0xbc548216	-0.012970468
127	0x3ed5c061	0.41748336
128	0xbd92304f	-0.071381204
129	0xbe3e1281	-0.18561746
130	0xbeebe069	-0.4606965
131	0xbe1ca90b	-0.1529886
132	0xbf09d541	-0.53841025
133	0xbe9502ae	-0.29103607
134	0x3d33e096	0.043915354
135	0xbf539106	-0.82643163
136	0xbd8a79ed	-0.06761537
137	0xbdba9c35	-0.091118254
138	0x3e8e52a9	0.2779744
139	0xbe67a9e7	-0.22623406
140	0x3c651863	0.013982865
141	0xbdf82daf	-0.121180885
142	0xbe20ce72	-0.15703753
143	0xbeabf84b	-0.3358787
144	0x3ec21731	0.3790832
145	0x3dfbd68d	0.12296782
146	0x3eafb3b3	0.34316787
147	0x3e4d090c	0.20022982
148	0xbe92c85b	-0.28668484
149	0xbdf16d7e	-0.11788462
150	0xbeee5687	-0.4655039
151	0x3e0cd28c	0.13752192
152	0xbec15b3c	-0.3776492
153	0xbeb5f70d	-0.35540047
154	0x3e82cf7f	0.25548932
155	0xbf1db43d	-0.61603147
156	0x3debdf93	0.11517253
157	0xbed8d25d	-0.42347994
158	0xbfa443e4	-1.2833219
159	0x3d3770db	0.04478536
160	0x3e05c8d1	0.13064887
161	0xbed9e097	-0.4255416
162	0xbd6fb427	-0.058521416
163	0x3e95d4f4	0.29264033
164	0xbe31b7cc	-0.17355269
165	0xbe8de5d9	-0.27714422
166	0x3e7b460b	0.24538438
167	0x3e7b09e4	0.24515492
168	0xbdd04d10	-0.101709485
169	0x3dd53424	0.10410336
170	0x3edb24fb	0.4280165
171	0x3e975f6e	0.29564995
172	0x3e11b9cb	0.1423103
173	0x3e3203d7	0.17384277
174	0x3d3c10ee	0.045914583
175	0xb9a92845	-0.00032264195
176	0x3d36c3ab	0.044620197
177	0xbe668958	-0.2251333
178	0x3e83c9cd	0.257399
179	0x3e92e923	0.28693494
180	0x3d58705f	0.05284154
181	0x3e697dc6	0.22801885
182	0x3e329571	0.1743982
183	0xbef17455	-0.47159067
184	0x3cd02384	0.02540756
185	0xbdab40c6	-0.08361964
186	0x3e2ea807	0.17056285
187	0x3ee3664c	0.44413984
188	0xbd3a3780	-0.045463085
189	0xbda7189d	-0.081589915
190	0xbec631c9	-0.38709858
191	0x3ea9439a	0.33059388
192	0x3e9fd9dd	0.31220904
193	0x3f05cd4e	0.52266395
194	0x3d773762	0.06035555
195	0x3e3c2720	0.183743
196	0xbe561037	-0.20904623
197	0xbe91065f	-0.28325173
198	0x3ecad30f	0.3961415
199	0xbcbd9ecb	-0.023147007
200	0xbde2a30d	-0.11066256
201	0xbcf53833	-0.029934024
202	0xbeb26a66	-0.348468
203	0x3ba2df80	0.004970491
204	0xbe86fb4a	-0.26363593
205	0x3d6e0f42	0.05812002
206	0xbe07e506	-0.1327096
207	0xbd865c89	-0.065606184
208	0x3e65cf03	0.2244225
209	0xbebbefe7	-0.36706468
210	0x3e971f78	0.29516196
211	0xbe666115	-0.22497971
212	0xbeb73975	-0.35786024
213	0x3d27c0d4	0.04095538
214	0xbc896f01	-0.016776564
215	0xbdf6efef	-0.120574825
216	0x3decfdb9	0.11571831
217	0x3cef774b	0.029231688
218	0x3e1ed418	0.15510595
219	0xbe9bf8a6	-0.3046314
220	0x3e133ff9	0.14379872
221	0x3e92341a	0.28555375
222	0xbd5da876	-0.054115735
223	0x3e7c49f1	0.24637581
224	0xbe1bb8b5	-0.15207179
225	0x3e5bf161	0.21478797
226	0xbef89e6d	-0.4855837
227	0x3e267c9b	0.1625847
228	0x3e748982	0.2388058
229	0xbd831529	-0.0640052
230	0x3d6dad42	0.05802656
231	0x3e8848b7	0.26617977
232	0x3c00cdc4	0.007861558
233	0xbd3ceb59	-0.046122883
234	0x3ea4e3ea	0.32205135
235	0x3d162f75	0.036666352
236	0x3e04c7a8	0.12966788
237	0x3e626032	0.22107008
238	0xbe9f6c8b	-0.311375
239	0xbe92e5ea	-0.28691036
240	0xbea29746	-0.31756037
241	0x3d713725	0.05889048
242	0xbeb07d6c	-0.3447069
243	0x3e9eef85	0.31042114
244	0xbdd6d6f8	-0.10490221
245	0xbe30798a	-0.17233863
246	0xbec208a7	-0.37897226
247	0x3e7c79d4	0.24655849
248	0xbc26d859	-0.010183417
249	0x3e65bef4	0.22436124
250	0x3e10f506	0.14155969
251	0xbd5d240c	-0.053989455
252	0xbdb30359	-0.08740873
253	0x3f31874e	0.69347084
254	0xbe8f7358	-0.28017688
255	0xbdc90bac	-0.09816679

2.bias f4 [160]
0	0x3d27cedd	0.040968765
1	0xbe273c8b	-0.16331689
2	0x3da2274d	0.07917652
3	0x3e2da509	0.16957487
4	0xbdbf7f69	-0.093504734
5	0xbcc8cfb9	-0.024513112
6	0x3d99e794	0.07514873
7	0x3cdce6fb	0.026965609
8	0xbd465307	-0.048419025
9	0x3d6ac83c	0.057319865
10	0xbe546c55	-0.2074445
11	0xbd7f786b	-0.0623707
12	0xbe4f5cb0	-0.20250201
13	0x3e8605dc	0.26176345
14	0x3ceb1b2d	0.028699482
15	0xbde34dd2	-0.110988274
16	0x3d42348c	0.047413394
17	0xbe42a615	-0.19008668
18	0xbd936b88	-0.07198244
19	0xbd6ed314	-0.05830677
20	0x3e594e12	0.21221188
21	0xbd710ee3	-0.058852088
22	0xbd5c2dd8	-0.053754658
23	0x3adffc2a	0.00170887
24	0x3e6c4694	0.23073798
25	0xbd6eba92	-0.058283396
26	0xbe0efafd	-0.13962932
27	0xbe5de0d6	-0.216678
28	0xbe1c8003	-0.15283208
29	0xbea277db	-0.31732067
30	0xbe3b970a	-0.18319336
31	0xbd1aa1c8	-0.037751943
32	0xbdffe087	-0.12493997
33	0x3ca30059	0.019897627
34	0xbd6bd2ff	-0.05757427
35	0x3da45740	0.08024454
36	0x3c0bdc1b	0.008536364
37	0xba685041	-0.00088620564
38	0xbe861235	-0.26185766
39	0xbd3f31b3	-0.046678256
40	0xbd0b3384	-0.033984676
41	0xbd0a74a8	-0.03380266
42	0xbdb6b86a	-0.08921893
43	0x3e3ac1b1	0.1823795
44	0xbbb4b885	-0.0055151605
45	0x3d991b50	0.074759126
46	0xbcaf7dd2	-0.0214223
47	0xbd8030d1	-0.06259311
48	0xbe00a461	-0.12562706
49	0xbe90828f	-0.28224608
50	0x3e20d123	0.1570478
51	0x3d160386	0.036624454
52	0xbe7e65b2	-0.24843481
53	0xbd3414f9	-0.043965314
54	0xbd1edac4	-0.03878285
55	0x3e2ed2c9	0.17072596
56	0xbe5483fc	-0.20753473
57	0x3e2cc0fa	0.1687049
58	0xbd34d9bc	-0.04415296
59	0xbe4e17c1	-0.20126249
60	0xbd78a16f	-0.06070083
61	0xbd82e9d1	-0.06392253
62	0x3d801a59	0.062550254
63	0xbd98a974	-0.074541956
64	0x3d26b851	0.04070312
65	0xbdabd95a	-0.08391066
66	0xbd384ad7	-0.044993248
67	0xbe36acc9	-0.1783935
68	0xbe974188	-0.29542184
69	0x3ddaf418	0.106910884
70	0xbe2382fe	-0.15967938
71	0x3d1fab77	0.03898188
72	0x3e60e660	0.21962881
73	0xbcd59b90	-0.026075155
74	0xbe26b2e5	-0.1627918
75	0xbb296a4c	-0.0025850711
76	0xbc87047a	-0.016481627
77	0x3c839755	0.016063372
78	0x3de53182	0.111910835
79	0xbddaec65	-0.1068962
80	0x3df144f5	0.11780731
81	0x3d30d861	0.043175105
82	0xbc463fe0	-0.01210019
83	0xbe24c210	-0.16089654
84	0xbdfffdac	-0.12499556
85	0xbe9a9627	-0.30192682
86	0xbd50f8ca	-0.051018514
87	0xbd0a9119	-0.033829782
88	0xbd21ad00	-0.039471626
89	0x3d551419	0.05202112
90	0x3e661e4e	0.22472498
91	0xbd8b3613	-0.06797423
92	0x3d093042	0.033493288
93	0xbe455736	-0.1927155
94	0x3ca87fe6	0.0205688
95	0x3e13bd85	0.14427765
96	0xbe7e89ec	-0.248573
97	0x3e2e1d80	0.17003441
98	0xbda80568	-0.08204156
99	0x3d128ca2	0.03577865
100	0x3ddd1f92	0.10797037
101	0x3d6aefe4	0.057357684
102	0xbd1d88a0	-0.038460374
103	0xbc2efc05	-0.010680203
104	0xbcc0522a	-0.023476679
105	0xbc7f6f10	-0.015590444
106	0xbdd52336	-0.104071066
107	0xbc9c2846	-0.019062173
108	0xbbbfd3ae	-0.0058540916
109	0xbd8ac3e3	-0.06775644
110	0x3dc76ad1	0.097371705
111	0x3d31fb68	0.04345265
112	0x3c836649	0.016039984
113	0xbd564ea6	-0.0523211
114	0xbe803942	-0.25043684
115	0xbbb1937c	-0.005419193
116	0x3d811fb1	0.06304873
117	0xbda54e3f	-0.08071565
118	0x3c5543de	0.013016669
119	0xbd30326c	-0.043016836
120	0xbe4a9af0	-0.19785666
121	0xbd82315e	-0.06357072
122	0xbc14ae46	-0.009074753
123	0xbd36229a	-0.044466592
124	0x3db590f0	0.08865535
125	0x3e3a3cb1	0.18187214
126	0xbe2c489a	-0.1682457
127	0xbb264c9e	-0.0025375257
128	0x3dccae05	0.09994129
129	0x3ded8360	0.115973234
130	0xbc66cb74	-0.014086593
131	0x3e200446	0.1562663
132	0x3d9590dc	0.0730302
133	0xbe4ccec9	-0.20000757
134	0xbd38b9b2	-0.045098968
135	0x3dbd1d97	0.092341594
136	0xbaf374ae	-0.0018574202
137	0x3dd6a0dc	0.104799
138	0xbdd7e662	-0.10541989
139	0x3e26a3c9	0.16273417
140	0x3db29abe	0.08720921
141	0xbea6dc8e	-0.32590145
142	0x3c978ca8	0.018499687
143	0x3d0c4c80	0.034252644
144	0x3d2d596a	0.0423216
145	0xbd899ea7	-0.06719714
146	0x3b67dbda	0.0035378844
147	0xbe172eb9	-0.14763917
148	0x3db3ad19	0.0877325
149	0x3a3d364b	0.0007217868
150	0xbd3e91a6	-0.04652562
151	0xbcc72102	-0.024307732
152	0xbd4b7f6c	-0.049682066
153	0xbd57664d	-0.052587796
154	0xbec47fad	-0.3837866
155	0x3e27f4b7	0.16401945
156	0x3c286bdb	0.010279621
157	0xbdb73fee	-0.089477405
158	0xbdc677ba	-0.09690805
159	0x3d48e65a	0.049047805

4.weight f4 [160, 160]
0	0xbd2cadd1	-0.04215795
1	0xbc048884	-0.0080891885
2	0xbf2bbc35	-0.67084056
3	0xbe1e57ba	-0.15463153
4	0x3e275a37	0.16343008
5	0x3e049374	0.12946874
6	0xbf95a61b	-1.1691316
7	0xbd8c2869	-0.06843645
8	0xbd15cacb	-0.03657035
9	0xbbc62bb3	-0.00604769
10	0xbf075fce	-0.5288056
11	0x3d81a35c	0.063299865
12	0xbeaeba55	-0.34126535
13	0xbe45aa4d	-0.19303246
14	0xbf451478	-0.7698436
15	0xbea34ad2	-0.3189302
16	0x3e91fe00	0.285141
17	0x3be83a1e	0.0070870062
18	0x3dcc9dc4	0.09991029
19	0x3e67424a	0.22583881
20	0xbe010cc1	-0.12602521
21	0xbdb4810e	-0.08813678
22	0x3e157cb6	0.14598355
23	0x3de4eacc	0.111775964
24	0x3d2d0ae4	0.042246714
25	0x3ec28825	0.37994495
26	0x3e695f25	0.22790201
27	0xbcda8d6c	-0.026678763
28	0xbf0d4e71	-0.5519782
29	0x3e765338	0.24055183
30	0x3e8fb6fa	0.28069288
31	0xbc894392	-0.016755853
32	0xbcddfa06	-0.02709676
33	0x3e5745cf	0.21022724
34	0x3e212174	0.15735418
35	0x3cc60daa	0.024176437
36	0x3d81dd67	0.06341057
37	0xbe489fac	-0.1959216
38	0xbe9ec8cc	-0.3101257
39	0x3ead0a42	0.3379689
40	0x3ea47938	0.32123733
41	0x3dc16ae7	0.09444218
42	0xbe36cd3c	-0.17851728
43	0xbdb78351	-0.089605935
44	0x3db62c15	0.08895127
45	0x3e4e64ae	0.20155594
46	0x3e50c255	0.20386632
47	0xbecaed79	-0.39634302
48	0x3e26eded	0.16301699
49	0x3dd8d648	0.10587746
50	0xbd8d194b	-0.0688959
51	0xbf2731c5	-0.6531032
52	0x3d3180a9	0.04333559
53	0x3c826403	0.01591683
54	0x3e38355f	0.1798911
55	0xbf1bd8ed	-0.6087788
56	0xbd58d17a	-0.052934147
57	0x3e15bbaa	0.1462237
58	0xbe5e039b	-0.21681063
59	0x3d3df3ee	0.046375208
60	0xbdcac70d	-0.09901247
61	0x3d621904	0.055199638
62	0x3e336b2a	0.17521349
63	0xbdd0807e	-0.10180758
64	0x3dc6b82c	0.09703097
65	0x3d9edcf4	0.07756987
66	0xbc65d479	-0.014027708
67	0x3c8379cc	0.016049288
68	0x3e2c6110	0.16833901
69	0x3e89f231	0.2694259
70	0xbc6f1a7a	-0.014593715
71	0x3daecf8a	0.08535679
72	0xbd74640e	-0.059665732
73	0xbda6d3fa	-0.081459
74	0xbe8a5e87	-0.27025244
75	0x3e321877	0.17392145
76	0xbe5ad5b2	-0.21370581
77	0x3e2388a4	0.15970093
78	0x3e16f85c	0.14743179
79	0x3e512b79	0.2042674
80	0xbe03cd0c	-0.12871188
81	0x3e7fe264	0.24988705
82	0xbd24e75f	-0.040259715
83	0x3ddf1aa5	0.10893754
84	0x3e42f73e	0.19039628
85	0x3d9b9be6	0.07598095
86	0x3e209968	0.1568352
87	0x3e718b52	0.23588303
88	0xbda67eba	-0.0812964
89	0x3c7f2c1a	0.0155744795
90	0xbe7b819d	-0.24561162
91	0xbdf5aff1	-0.11996449
92	0xbe3cd478	-0.18440425
93	0x3e3189f2	0.17337778
94	0x3e82ac43	0.2552205
95	0xbe1afc1a	-0.15135232
96	0xbe524662	-0.20534661
97	0x3e89b9f8	0.26899695
98	0x3d013ef4	0.031554177
99	0xbd4bbc04	-0.049739853
100	0xbd5d02a0	-0.05395758
101	0xbd3a749a	-0.045521356
102	0xbc425c00	-0.011862755
103	0xbeac5b74	-0.33663523
104	0x3d53662a	0.051611103
105	0xbec784d8	-0.3896854
106	0xbd007298	-0.031359285
107	0x3e3be884	0.18350416
108	0x3e7fbf31	0.24975277
109	0x3df97056	0.121796295
110	0x3e8bd10d	0.2730793
111	0xbdd5cd7a	-0.10439582
112	0x3e620eb3	0.2207592
113	0x3d0c6b43	0.03428198
114	0xbcb04402	-0.021516804
115	0x3e1314a7	0.14363347
116	0xbded1265	-0.11575774
117	0xbdf87efe	-0.12133597
118	0xbf7ad907	-0.9798741
119	0x3f2501a5	0.64455634
120	0xbdf761ed	-0.12079225
121	0x3d79eb6e	0.06101554
122	0xbf9ee7d1	-1.2414495
123	0xbe47f19a	-0.19525757
124	0x3df7d8f9	0.12101931
125	0x3d61e81c	0.055152997
126	0x3d52fe31	0.051511947
127	0xbe63bc45	-0.22239788
128	0xbf3431ae	-0.70388305
129	0xbf4a465a	-0.790136
130	0xbf2adeb7	-0.66746086
131	0x3d83857e	0.06421946
132	0x3e91328e	0.28358883
133	0x3e5415a2	0.20711377
134	0x3ddb4c47	0.10707908
135	0x3d568b83	0.052379142
136	0x3cedbee8	0.029021695
137	0xbedb57f8	-0.42840552
138	0x3ddbe0c9	0.10736234
139	0x3e83e068	0.25757146
140	0x3c991adc	0.018689565
141	0xbde4c095	-0.111695446
142	0xbe207b81	-0.15672113
143	0xbf725c8e	-0.9467248
144	0x3d6a66b2	0.057226844
145	0xbd59600c	-0.053070113
146	0x3e64a11b	0.22327082
147	0x3ca07e41	0.019591453
148	0xbde7bf29	-0.11315758
149	0x3d129c08	0.035793334
150	0xbde33880	-0.11094761
151	0xbea51595	-0.32243028
152	0x3da9f28c	0.08298215
153	0xbd2302d8	-0.039797634
154	0x3e337d44	0.17528254
155	0xbe31c026	-0.17358455
156	0x3d030cc0	0.03199458
157	0x3d5cb528	0.0538837
158	0x3e93d7c8	0.28875566
159	0xbd31901c	-0.043350324
160	0xbf46c144	-0.7763865
161	0x3e578268	0.2104584
162	0x3d8464eb	0.06464561
163	0x3b81f1d6	0.0039655967
164	0x3c0c95e9	0.008580663
165	0xbe32510e	-0.17413732
166	0xbbdf2786	-0.0068101315
167	0xbe3f7f12	-0.18700817
168	0xbd92c1ec	-0.07165894
169	0xbdd36aac	-0.103230804
170	0x3ed65e95	0.41869035
171	0x3c048a5b	0.008089627
172	0x3d2c149e	0.04201185
173	0x3d00405b	0.031311374
174	0x3e010e67	0.1260315
175	0xbcdc2dfd	-0.026877398
176	0xbe2bf532	-0.16792753
177	0x3e3e5915	0.1858867
178	0x3cb6564c	0.022257946
179	0xbf285876	-0.6575998
180	0xbd5539d9	-0.05205712
181	0xbe66b904	-0.22531515
182	0x3e2247c0	0.15847683
183	0xbe6e1ac6	-0.23252401
184	0xbc7e919a	-0.015537644
185	0xbaed525d	-0.0018106211
186	0x3d0ee178	0.034882993
187	0xbe81348d	-0.25235406
188	0xbd04b084	-0.0323949
189	0x3e241079	0.16021909
190	0xbe6bf1d0	-0.23041463
191	0x3e0e3420	0.13887072
192	0x3e0f8648	0.14016068
193	0xbbf17f81	-0.007369936
194	0x3dbc095e	0.09181474
195	0xbe32d659	-0.1746458
196	0x3e014f56	0.1262792
197	0x3dab399a	0.08360596
198	0x3ed168df	0.40900323
199	0x3d9375a2	0.07200171
200	0x3ecb9537	0.3976228
201	0x3ed7310f	0.42029616
202	0xbe3f6b52	-0.18693283
203	0xbee5660d	-0.4480442
204	0xbefa812d	-0.48926678
205	0xbe3c39b9	-0.18381394
206	0xbf0ab24c	-0.5417831
207	0x3debf628	0.1152156
208	0x3dcc19ec	0.09965882
209	0xbcf1dd08	-0.029524341
210	0xbd0182e9	-0.031618986
211	0x3e264c4e	0.16240045
212	0xbe78e34e	-0.2430546
213	0xbe05a7a0	-0.13052225
214	0xbb86c888	-0.0041132607
215	0xbd047c6e	-0.032345228
216	0xbe788d55	-0.24272664
217	0xbe945bdc	-0.28976333
218	0xbeea01e0	-0.45704556
219	0xbd8344d8	-0.06409615
220	0x3e305e96	0.17223582
221	0xbd2a8f3a	-0.041640498
222	0xbea36f87	-0.31921026
223	0xbcb695e0	-0.022288263
224	0xbecba20a	-0.39772063
225	0x3e1619cf	0.14658283
226	0x3d6ae65e	0.0573486
227	0x3e128cc0	0.14311504
228	0x3d12f88b	0.03588156
229	0xbe86afdb	-0.26306042
230	0xbd4ab915	-0.049492914
231	0xbf88de21	-1.0692788
232	0xbe052905	-0.13003929
233	0x3ca5a7af	0.02022156
234	0xbeb0a2a2	-0.3449908
235	0x3daee847	0.08540397
236	0xbe323552	-0.17403153
237	0xbf63a75b	-0.8892724
238	0xbf28c5b7	-0.6592669
239	0xbe1ef562	-0.15523294
240	0xbe163d96	-0.1467193
241	0xbe5d868a	-0.21633354
242	0xbf3a2819	-0.72717434
243	0x3eb173f6	0.34658784
244	0xbd512924	-0.051064625
245	0xbecae900	-0.3963089
246	0xbe024215	-0.12720521
247	0xbd141d2a	-0.036160626
248	0xbcff7633	-0.031184291
249	0xbed09af3	-0.40743217
250	0x3d9134d3	0.070901535
251	0xbd441846	-0.04787471
252	0xbe515512	-0.20442608
253	0xbde74f19	-0.112943836
254	0x3ea53949	0.32270268
255	0x3ccf477a	0.025302637

4.bias f4 [160]
0	0x3d0d91d6	0.034562908
1	0xbe22903d	-0.15875335
2	0x3d33778d	0.043815184
3	0xbd863f3c	-0.0655503
4	0xbd947fdc	-0.0725095
5	0xbdae54af	-0.08512246
6	0xbda332fb	-0.07968708
7	0xbda466d0	-0.080274224
8	0xbc7dc3a4	-0.015488539
9	0xbdba47ef	-0.090957515
10	0xbe231b2e	-0.15928337
11	0xbd853464	-0.06504133
12	0xbd7bb11f	-0.061448213
13	0x3e7e60f6	0.24841675
14	0x3e0174ed	0.1264226
15	0xbe638b76	-0.22221169
16	0xbdf826ac	-0.12116751
17	0xbe13257a	-0.14369765
18	0x3e389911	0.1802714
19	0xbd7c6946	-0.061623834
20	0xbe028d89	-0.12749304
21	0xbe686478	-0.22694576
22	0x3e1e04e2	0.1543155
23	0xbbe61c31	-0.0070224036
24	0xbe734a27	-0.23758756
25	0xbd919032	-0.07107581
26	0xbe192cfc	-0.14958566
27	0xbda61b03	-0.08110621
28	0xbbe27642	-0.00691107
29	0xbdd8e1f3	-0.105899714
30	0xbd31ded8	-0.04342541
31	0xbd4913c4	-0.049091116
32	0x3c4ec2d6	0.012619695
33	0xbd8a2bf9	-0.06746668
34	0xbc08355b	-0.008313502
35	0xbc807c9e	-0.015684422
36	0xbe6228a3	-0.22085814
37	0xbd92e071	-0.07171715
38	0xbd0a8c1c	-0.033825025
39	0xbe763c6b	-0.24046485
40	0xbd644c09	-0.055736575
41	0x3d008177	0.031373467
42	0x3e64a677	0.22329126
43	0xbe2d2f63	-0.16912608
44	0x3ddb719c	0.10715029
45	0xbd1b2c4f	-0.037884053
46	0xbd9fdbe5	-0.078056134
47	0xbd143cfd	-0.036190975
48	0xbdea3fcb	-0.11437949
49	0xbeadaf11	-0.33922628
50	0xbea48f32	-0.321405
51	0xbd8492c5	-0.064733066
52	0xbd8e2d81	-0.06942273
53	0xbe01b0e2	-0.12665132
54	0xbd8e88bf	-0.06959676
55	0xbcdcc5a8	-0.026949719
56	0x3e467eb0	0.19384265
57	0xbde3cffb	-0.111236535
58	0xbdc52767	-0.09626656
59	0xbdca3d28	-0.09874946
60	0xbceb73dd	-0.028741771
61	0xbdf52571	-0.11970032
62	0x3e48e6ab	0.19619243
63	0x3c887883	0.016659027
64	0xbe992497	-0.29910728
65	0xbc9347da	-0.017978597
66	0xbd459962	-0.04824198
67	0xbcf8a1bc	-0.030350558
68	0x3e7588a0	0.239779
69	0x3e81d9c5	0.25361457
70	0xbdd2a796	-0.10285871
71	0xbd42ea17	-0.047586527
72	0xbd7a6e65	-0.061140437
73	0xbeb7d84d	-0.35907212
74	0xbcc2415b	-0.023712805
75	0xbdc7ba58	-0.09752339
76	0xbe6f0eee	-0.23345539
77	0xbe140cbe	-0.14457986
78	0x3cbb52a2	0.02286655
79	0xbcd62dcf	-0.02614489
80	0xbe534ee6	-0.20635566
81	0xbdb7f7ca	-0.08982809
82	0x3e8e6b77	0.27816364
83	0xbd5a0a01	-0.053232197
84	0x3e4c12be	0.19929025
85	0x3e03db4d	0.12876625
86	0x3e30982a	0.17245546
87	0xbd40785d	-0.046989787
88	0xbe822b05	-0.25423446
89	0xbd45609a	-0.04818783
90	0x3dfc7d2b	0.123285614
91	0xbeb25af3	-0.34835014
92	0x3e0a26d6	0.13491377
93	0x3e57face	0.21091768
94	0xbd17aa89	-0.03702787
95	0xbdce69a6	-0.100787446
96	0xbd30d30e	-0.043170027
97	0xbdcbd58d	-0.09952841
98	0xbddfe40e	-0.1093217
99	0x3e07cecc	0.1326248
100	0x3e6b3583	0.22969632
101	0xbdb2d221	-0.08731485
102	0xbd24cdd8	-0.04023537
103	0xbd9abfe0	-0.075561285
104	0xbe098397	-0.13429104
105	0xbd21a481	-0.039463524
106	0xbdbaff67	-0.091307454
107	0xbe0c1866	-0.13681182
108	0xbdd98080	-0.106202126
109	0xbbaa748d	-0.005201882
110	0x3e97e61e	0.29667753
111	0x3e1547ac	0.14578122
112	0xbd880099	-0.06640739
113	0x3e5407ec	0.20706147
114	0xbd39589e	-0.045250528
115	0xbe9b6183	-0.30347833
116	0xbe437c38	-0.19090354
117	0x3df95bfd	0.121757485
118	0xbd8058de	-0.0626695
119	0xbb06e59a	-0.002058363
120	0x3da63eb9	0.08117432
121	0xbd1b7685	-0.037954826
122	0x3de08a2a	0.10963853
123	0xbd256935	-0.040383536
124	0xbb8e13c8	-0.004335854
125	0x3d37cad5	0.04487117
126	0x3db4bad9	0.08824701
127	0xbc5b8ce2	-0.013400288
128	0xbdf27249	-0.118382044
129	0xbecdcd58	-0.40195727
130	0x3daaa9b5	0.0833315
131	0xbe85ecc1	-0.2615719
132	0xbcbce6bc	-0.023059241
133	0x3c615dd1	0.013755278
134	0x3ec18aaa	0.37801105
135	0xbe498680	-0.19680214
136	0xbd47f48b	-0.0488172
137	0xbdf4a627	-0.119457535
138	0xbde60dbe	-0.1123309
139	0xbc016a11	-0.007898823
140	0xbe940791	-0.28912023
141	0xbd4ec74d	-0.050483037
142	0xbd9aa845	-0.07551626
143	0xbe372078	-0.1788348
144	0xbdae46bc	-0.08509585
145	0xbdd61085	-0.104523696
146	0x3ccec48e	0.025240209
147	0xbc2c1aeb	-0.010504465
148	0xbe5ac0c5	-0.21362598
149	0xbc0c9f73	-0.0085829375
150	0x3d14b4a9	0.036305103
151	0xbcbb2e37	-0.022849185
152	0xbe492a6e	-0.19645092
153	0xbdfd5df9	-0.123714395
154	0xbd6e7b66	-0.05822315
155	0xbd9af2cf	-0.07565843
156	0xbe7868d6	-0.24258742
157	0x3ae7314e	0.0017638595
158	0xbddaf55d	-0.106913306
159	0xbe22796c	-0.15866631

6.weight f4 [12, 160]
0	0xbe71ede1	-0.236259
1	0x3ae23cb0	0.0017260518
2	0xbddcdde1	-0.107845075
3	0xbc72e20b	-0.014824401
4	0x3d14ee07	0.036359813
5	0xbe9d0c82	-0.30673605
6	0xbd7a3351	-0.061084095
7	0xbbcd5701	-0.006266475
8	0x3bdab10e	0.0066739386
9	0xbe89f20f	-0.2694249
10	0x3d3828d6	0.04496082
11	0xbef6854f	-0.4814858
12	0x3dfb7a55	0.12279192
13	0xbe10f880	-0.14157295
14	0xbe6dfc8c	-0.2324087
15	0x3ebe2fb2	0.37145764
16	0xbc31d9e5	-0.010855173
17	0xbe9590ac	-0.29211938
18	0x3c949619	0.018137978
19	0xbe12ed4a	-0.14348331
20	0x3d97364f	0.073834054
21	0xbe789392	-0.24275044
22	0xbc160c99	-0.009158277
23	0xbe25b7be	-0.16183373
24	0xbe9285bc	-0.28617656
25	0xbeb4d426	-0.35318106
26	0x3ebb4ab3	0.36580428
27	0x3da7aff2	0.08187856
28	0x3c84a35f	0.016191183
29	0xbe9c8a8f	-0.30574462
30	0x3e4707a9	0.19436516
31	0xbd73468c	-0.05939345
32	0xbccff25c	-0.02538412
33	0xbd9385eb	-0.07203277
34	0x3d01c2fb	0.03168009
35	0xbddff700	-0.109357834
36	0x3e453400	0.19258118
37	0x3dc77d4d	0.09740696
38	0x3ee37176	0.444225
39	0xbe3e508c	-0.18585414
40	0x3d117f11	0.03552157
41	0x3d57a73c	0.05264972
42	0xbd776149	-0.060395513
43	0xbcbf029c	-0.023316674
44	0xbe2f4145	-0.17114742
45	0xbed78983	-0.420971
46	0xbe2dc35b	-0.16969053
47	0xbd209d20	-0.039212346
48	0xbe3eba82	-0.18625835
49	0xbe1f6b4c	-0.15568274
50	0x3e1867d9	0.14883365
51	0xbc78e450	-0.015191153
52	0x3dd04a90	0.10170472
53	0xbde73cb3	-0.11290874
54	0xbe0b47f6	-0.1360167
55	0x3e11389a	0.14181748
56	0x3de08330	0.10962522
57	0xbe1e55cc	-0.15462416
58	0x3e4e3e1c	0.2014088
59	0xbe79d995	-0.24399407
60	0x3c10fa3b	0.008848722
61	0x3e94b0a7	0.29041025
62	0x3e2eb095	0.17059548
63	0xbe0413b0	-0.12898135
64	0x3d92c970	0.071673274
65	0x3e222959	0.15836085
66	0x3abb6651	0.001429746
67	0xbe82aa6f	-0.25520656
68	0xbcf41e14	-0.029799499
69	0xbdd6d1c5	-0.10489229
70	0xbc69717f	-0.014248251
71	0x3dce20f9	0.10064883
72	0xbcc8b9d9	-0.024502682
73	0x3c8302e4	0.01599259
74	0x3f069504	0.5257113
75	0x3eb84ba2	0.35995203
76	0xbe8634a1	-0.26212028
77	0xbccd6990	-0.02507475
78	0x3dcba076	0.09942715
79	0x3e997f30	0.2997985
80	0xbea3160f	-0.31852767
81	0x3dc73378	0.09726614
82	0xbc6405b5	-0.013917376
83	0x3d8c51c4	0.06851533
84	0xbe8c5f3e	-0.27416414
85	0x3ded3163	0.115816854
86	0xbe13bbe8	-0.1442715
87	0xbc6b71d2	-0.014370399
88	0x3dea0aa3	0.1142781
89	0x3dbc8075	0.09204189
90	0xbe7bfdf7	-0.24608599
91	0xbe6556e6	-0.2239643
92	0xbc1a75a1	-0.009427459
93	0x388220ad	6.2049694e-05
94	0xbda55872	-0.0807351
95	0x3d9378ca	0.07200773
96	0x3c08e126	0.008354461
97	0xbd8d9ba8	-0.06914455
98	0xbdb4a021	-0.08819605
99	0xbc5cf151	-0.013485269
100	0xbe43d38d	-0.19123669
101	0xbda91805	-0.082565345
102	0x3e420a63	0.18949275
103	0x3d12e5db	0.03586374
104	0xbeef786b	-0.4677156
105	0x3d0caaf3	0.034342717
106	0xbd97aa1b	-0.07405492
107	0xbeec1a1a	-0.46113664
108	0xbedaebf7	-0.42758152
109	0xbe894d1b	-0.2681664
110	0xbe60bdb0	-0.2194736
111	0xbe4bb96b	-0.1989495
112	0x3dd27294	0.1027576
113	0xbe560977	-0.20902048
114	0x3d0d3ffc	0.03448485
115	0xbe4294dc	-0.19002098
116	0xbcf5f52a	-0.03002413
117	0xbe57bcf7	-0.21068178
118	0xbe3e773a	-0.18600169
119	0xbe630077	-0.22168146
120	0x3eee8800	0.46588135
121	0xbebd1645	-0.36931053
122	0x39d7b416	0.0004114217
123	0xbe0d17e9	-0.13778652
124	0xbe2f3589	-0.17110266
125	0xbd190933	-0.03736229
126	0xbe949a1a	-0.2902382
127	0x3ea57915	0.3231894
128	0xbeb10f4b	-0.3458198
129	0xbe0e5925	-0.13901193
130	0xbddae1e7	-0.10687619
131	0xbe2bebd5	-0.16789182
132	0xbd965552	-0.07340492
133	0x3dbb0d04	0.09133342
134	0xbe54b339	-0.20771493
135	0xbba8ea45	-0.00515488
136	0xbef6f485	-0.4823343
137	0xbccaed95	-0.024771491
138	0x3eb64f22	0.3560725
139	0xbe6671a8	-0.22504294
140	0xbcb0f006	-0.021598827
141	0xbe65adf0	-0.22429633
142	0x3e5b32dd	0.21406122
143	0xbd74f8c0	-0.05980754
144	0x3ef6128f	0.48061034
145	0xbed4a086	-0.4152872
146	0xbe6fe6c1	-0.2342787
147	0xbd3d1141	-0.046159033
148	0xbec60d25	-0.38681903
149	0xbe2b9bbf	-0.16758631
150	0x3db70cca	0.08937986
151	0xbeeeb586	-0.46622866
152	0xbe73d207	-0.23810588
153	0x3d2356dc	0.039877757
154	0xbe2c6a1d	-0.16837354
155	0xbd89b1b9	-0.06723351
156	0xbe6d8016	-0.23193392
157	0xbee38a70	-0.44441557
158	0x3e294c1f	0.16532944
159	0xbcdcc21a	-0.026948024
160	0x3da5eb2a	0.081014946
161	0xbe198e02	-0.14995578
162	0xbea84032	-0.32861477
163	0xbea0fb19	-0.31441572
164	0xbf370bc5	-0.71502334
165	0xbe924174	-0.28565562
166	0x3e3af311	0.18256785
167	0xbd007349	-0.031359944
168	0x3e7a1726	0.24422893
169	0xbe9f5c91	-0.3112531
170	0xbd93d54f	-0.0721842
171	0xbe2a1aea	-0.1661183
172	0xbe05eb23	-0.13077979
173	0xbecd2c80	-0.40073013
174	0x3d5e4f6b	0.054274958
175	0x3ea5c8ea	0.32379848
176	0xbddc4cfa	-0.107568696
177	0x3e1821bf	0.14856623
178	0xbe5c3a35	-0.21506579
179	0x3e1f169d	0.1553597
180	0x3e1853d4	0.14875728
181	0x3e9782ab	0.2959188
182	0xbe24d66b	-0.16097419
183	0xbe87de37	-0.26536724
184	0x3cd88d1e	0.026434477
185	0x3bea2622	0.007145659
186	0x3e900080	0.2812538
187	0x3dd05154	0.10171762
188	0x3e42177f	0.18954276
189	0xbf05e4e0	-0.5230236
190	0xbca421cc	-0.020035647
191	0x3ec74e74	0.38927042
192	0xbe342540	-0.17592335
193	0x3d60b0df	0.054856177
194	0x3db7a461	0.089669
195	0xbe451ea4	-0.1924997
196	0x3e89f184	0.26942074
197	0x3dfc63a4	0.123236924
198	0x3e9adacc	0.30245054
199	0xbe49df82	-0.19714168
200	0xbe279d6d	-0.16368647
201	0x3de61008	0.112335265
202	0xbf2b22d6	-0.6685003
203	0xbb338c74	-0.002739695
204	0xbf0e3a6b	-0.5555789
205	0x3cdd94b5	0.027048448
206	0xbe17adab	-0.14812343
207	0xbf0d556a	-0.55208457
208	0xbdb9651e	-0.0905249
209	0x3cfae773	0.030627942
210	0x3d9cf5a0	0.07664037
211	0xbe625c8d	-0.22105618
212	0xbdbc9b32	-0.09209289
213	0xbe7c77b7	-0.24655043
214	0xbf034625	-0.5127891
215	0xbd388e33	-0.045057487
216	0x3d79311e	0.060837857
217	0x3ddfb9c8	0.10924107
218	0xbe0b5948	-0.13608277
219	0x3bd6028a	0.0065310644
220	0xbe58707d	-0.21136661
221	0x3e630622	0.22170308
222	0xbe01b476	-0.12666497
223	0xbca65f17	-0.020309014
224	0xbeab1df1	-0.3342128
225	0x3ee4593c	0.4459933
226	0xbf244224	-0.6416342
227	0xbd76b713	-0.060233187
228	0xbf2a1b40	-0.6644783
229	0xbf1eb01f	-0.6198749
230	0x3ddc99be	0.107715115
231	0xbde72330	-0.11286008
232	0xbe1279cc	-0.14304274
233	0x3e19faae	0.15037033
234	0x3e0ba4d3	0.13637094
235	0x3f2712c5	0.65263015
236	0xbe6e1f7b	-0.23254196
237	0xbe34e761	-0.17666389
238	0x3d8f250a	0.069894865
239	0x3eaa4cdf	0.33261773
240	0xbe805386	-0.25063723
241	0x3ddadc1d	0.106865145
242	0xbeda7c50	-0.42672968
243	0xbd745178	-0.059648007
244	0xbf14776c	-0.57994723
245	0xbe0b2225	-0.13587244
246	0xbdad9759	-0.08476133
247	0xbedf4777	-0.4360921
248	0xbd1a0b98	-0.037608713
249	0xbea08974	-0.31354868
250	0xbe87e490	-0.26541567
251	0xbe1e871c	-0.15481228
252	0xbe350a9a	-0.17679825
253	0xbec75205	-0.38929763
254	0xbda67756	-0.0812823
255	0xbeef7092	-0.46765572

6.bias f4 [12]
0	0xbe4beadd	-0.19913812
1	0xbef0666a	-0.46953136
2	0x3cf159ca	0.02946176
3	0x3d4667c7	0.048438814
4	0xbee94427	-0.4555981
5	0xbc906cd2	-0.017630015
6	0x3db2c6cc	0.08729324
7	0xbe2b24c3	-0.16713242
8	0xbe17d1e5	-0.14826162
9	0x3def222c	0.1167644
10	0x3e7735df	0.24141644
11	0xbd3cfc4b	-0.046139043
