demo/envs/env_net_1.pth (torch, 240783 bytes, 8 tensors)

0.weight f4 [160, 38]
-0.47132564 -0.5402697 0.1128648 0.41316572 0.3438372 -0.22615166 -0.13928688 -0.10251619
0.36513728 -0.037386622 0.013003123 -0.079853274 0.14555693 -0.15812336 0.33036613 -0.30639833
-0.093340285 -0.34781346 -0.50935686 -0.1160646 0.27856177 0.13559772 -0.2173842 0.02803994
-0.110412516 -0.05023979 0.06260475 -0.18199784 -0.22895683 0.23301661 -0.21083058 0.051616356
-0.0011947657 0.018015428 -0.22967586 -0.38250497 0.09581224 -0.32711697 0.104181 0.48970512
-0.050578665 0.028587686 -0.42714563 -0.035278782 0.092122234 -0.060251307 -0.7369474 0.46885148
-0.28801268 0.05245564 -0.37093592 0.080757074 -0.11739426 -0.2165321 0.18742764 0.45997444
0.5492361 0.053837296 -0.32559735 0.2201022 -0.33281347 -0.2855614 0.21737555 -0.19259748
-0.17283425 -0.10081535 0.76133317 0.23514181 0.41076672 0.10874974 0.6564681 0.14250685
-0.19846758 0.89112633 -0.23970388 0.5477829 -0.0661793 -0.08799349 -0.6080489 0.20898452
-1.5086508 0.78773236 0.21036224 1.0674568 0.018306924 -0.042196043 -0.019340558 0.34663466
-0.08529553 -0.22987694 0.2830806 -0.048202936 0.659661 0.44452104 0.5474187 -0.09166526
-0.18830656 -0.22140133 -0.032405887 0.15663286 0.19279185 0.12367342 -0.15079984 -0.21524039
-0.49209896 0.14574297 0.41206017 0.51420563 -0.42541245 0.79414904 -0.560772 0.41810027
-0.053006135 0.29640716 0.17077588 -0.53824705 0.054776367 -0.057516463 0.35321224 0.1557185
0.03112653 -0.17113252 -0.041169062 0.4078245 -0.14979547 -0.010330756 -0.36154968 0.22874455
-0.23132853 0.0059085237 -0.0060438435 -0.02668201 -0.25204098 0.17026642 -0.14800426 -0.22041209
-0.18071978 -0.07211676 -0.09158693 0.04331696 0.08210122 -0.29324615 0.097392276 -0.11840112
-0.0052606585 0.047734004 -0.19549724 0.05873757 0.1601435 0.43430007 0.13614509 -0.1404935
-0.25319853 -0.17848046 -0.13337258 0.28312463 0.13123699 -0.006643756 0.17490649 0.59577554
0.082393356 -0.40909067 0.531229 0.20537081 0.6885696 0.39474052 -0.4032844 0.17170821
-0.855642 -0.4154218 -0.71956736 -0.21957666 -0.25271165 -0.11329692 0.10614716 0.2356445
-0.17582263 -0.0064937025 0.63732994 -0.18212076 0.31620905 0.119229704 0.34242177 -0.27420026
0.11789427 -0.06286338 -0.5168737 0.06896596 -0.35261703 -0.36535567 0.27714917 -0.16335496
0.17458509 -0.16698238 0.24771531 -0.5984424 0.031212501 -0.8930012 0.35042372 -0.27012542
-0.1438416 0.27527246 0.1544676 0.14119169 0.21931686 0.8210659 0.009230834 -0.012986871
-0.7430769 0.14793627 -0.17809846 -0.037910018 0.3985303 0.14218214 0.040339738 -0.4476901
-0.28605458 -0.083311565 0.41314515 0.20519264 0.046716437 -0.3253209 -0.19122458 0.11390183
-0.4245751 0.39527273 0.04223896 0.6336733 0.0863488 0.23128277 -0.13804248 0.072302036
0.035322707 -0.10437151 0.049437113 -0.3214126 0.59881985 -0.16458319 -0.10109834 -0.020009413
0.09099327 0.31287906 -0.08377661 0.13879551 0.18733484 -0.38088658 0.18080151 0.19639742
-0.47601566 -0.039645296 0.50732636 -0.41487545 0.19277081 -0.23549278 -0.034215007 0.03577519
00000000: 9851 f1be 1d4f 0abf a925 e73d 758a d33e
00000010: 6e0b b03e 4d94 67be 38a1 0ebe 02f4 d1bd
00000020: 46f3 ba3e b722 19bd 0d0b 553c 1d8a a3bd
00000030: e00c 153e 17eb 21be c025 a93e 3ee0 9cbe
00000040: 3129 bfbd 9b14 b2be 3665 02bf 47b3 edbd
00000050: a69f 8e3e 21da 0a3e f799 5ebe 04b4 e53c
00000060: f51f e2bd 3dc8 4dbd eb36 803d a45d 3abe
00000070: a973 6abe e89b 6e3e f9e3 57be ac6b 533d
00000080: af99 9cba 1795 933c 2630 6bbe b1d7 c3be
00000090: 3539 c43d e07b a7be d95c d53d a1ba fa3e
000000a0: 932b 4fbd b930 ea3c d5b2 dabe 7c80 10bd
000000b0: 95aa bc3d 13ca 76bd 96a8 3cbf 4d0d f03e
000000c0: 6676 93be badb 563d 50eb bdbe f763 a53d
000000d0: 676c f0bd 97ba 5dbe 08ed 3f3e c581 eb3e
000000e0: bd9a 0c3f 7f84 5c3d b2b4 a6be 7962 613e
000000f0: 8766 aabe 1b35 92be b297 5e3e 4638 45be
00000100: 76fb 30be 4778 cebd bbe6 423f 04c9 703e
00000110: 0450 d23e 2fb8 de3d 4b0e 283f 51ed 113e
00000120: 163b 4bbe db20 643f ef74 75be 803b 0c3f
00000130: 0389 87bd ee35 b4bd 18a9 1bbf 0a00 563e
00000140: 781b c1bf d4a8 493f 3369 573e 6da2 883f
00000150: 67f8 953c c2d5 2cbd 1770 9ebc 197a b13e
00000160: 6caf aebd dc64 6bbe f1ef 903e 7170 45bd
00000170: 8bdf 283f 4398 e33e a223 0c3f ffba bbbd
00000180: 6fd3 40be 08b7 62be 09bc 04bd 5d64 203e
00000190: 3a6b 453e 7d48 fd3d 466b 1abe fa67 5cbe
000001a0: 65f4 fbbe a53d 153e 8df9 d23e fba2 033f
000001b0: a9cf d9be 5a4d 4b3f c18e 0fbf 3d11 d63e
000001c0: f61c 59bd aec2 973e dfdf 2e3e 8fca 09bf
000001d0: 2f5d 603d 6296 6bbd 3cd8 b43e ac74 1f3e
000001e0: 11fd fe3c 5d3d 2fbe e4a0 28bd 5fce d03e
000001f0: fc63 19be 5542 29bc 0a1d b9be 033c 6a3e
00000200: 63e1 6cbe 4a9c c13b 6f0b c6bb 3b94 dabc
00000210: 840b 81be 525a 2e3e 6e8e 17be b5b3 61be
00000220: 9b0e 39be f4b1 93bd ee91 bbbd 206d 313d
00000230: af24 a83d 5c24 96be 9a75 c73d 497c f2bd
00000240: 9a61 acbb bb84 433d 6e30 48be ce96 703d
00000250: a8fc 233e 945c de3e 9e69 0b3e 87dd 0fbe
00000260: 3da3 81be 95c3 36be d292 08be b6f5 903e
00000270: fd62 063e ddb3 d9bb b01a 333e bf84 183f
00000280: d9bd a83d 5574 d1be a0fe 073f ba4c 523e
00000290: 1946 303f 6e1b ca3e 4b7b cebe 47d4 2f3e
000002a0: 5b0b 5bbf 2bb2 d4be 9135 38bf b4d8 60be
000002b0: 6c63 81be 3708 e8bd af63 d93d cb4c 713e
000002c0: d90a 34be 20c9 d4bb 0e28 233f dd7d 3abe
000002d0: 27e6 a13e b42e f43d e851 af3e fa63 8cbe
000002e0: 8d72 f13d 84be 80bd d651 04bf 063e 8d3d
000002f0: 388a b4be e60f bbbe 7fe6 8d3e 8646 27be
00000300: 6fc6 323e 6efd 2abe 15a9 7d3e 8533 19bf
00000310: 5cb1 ff3c ba9b 64bf bd6a b33e e14d 8abe
00000320: 364b 13be 83f0 8c3e c12c 1e3e 8e94 103e
00000330: 9994 603e 6031 523f ed3c 173c e3c6 54bc
00000340: 4a3a 3ebf 9b7c 173e 715f 36be 8947 1bbd
00000350: 2a0c cc3e 3298 113e 483b 253d a337 e5be
00000360: bf75 92be 419f aabd c387 d33e 051e 523e
00000370: bc59 3f3d 7690 a6be 60d0 43be 5d45 e93d
00000380: e861 d9be 3061 ca3e c202 2d3d 6a38 223f
00000390: a4d7 b03d 64d5 6c3e 025b 0dbe 1713 943d
000003a0: 8bae 103d bbc0 d5bd 927e 4a3d 3190 a4be
000003b0: 424c 193f 7f88 28be a50c cfbd c8ea a3bc
000003c0: ae5a ba3d af31 a03e 1293 abbd 6920 0e3e
000003d0: b4d4 3f3e 9103 c3be 0824 393e 681c 493e
000003e0: 53b8 f3be 1b63 22bd 24e0 013f 8e6a d4be
000003f0: b665 453e 0525 71be 0925 0cbd 0189 123d

0.bias f4 [160]
0.0699712 -0.13124801 0.044758372 -0.041731637 -0.111817375 -0.10709167 0.019730793 -0.03981008
-0.10911729 -0.0584719 -0.039330877 -0.06689842 -0.03045231 -0.050849132 -0.020043725 -0.05987505
-0.10026926 0.001847215 0.0039267535 -0.04183804 -0.07355173 -0.11411299 -0.07009071 -0.11360198
-0.052877497 0.13452134 -0.008804974 0.029153254 0.050561123 -0.043221638 0.029544977 0.018426593
-0.06363117 -0.073616445 0.017786145 -0.11158814 0.07039894 -0.054829825 -0.07972383 -0.1370193
-0.0016336128 -0.04483183 0.010092321 0.01666382 0.016952066 -0.077872045 0.013003545 -0.09700453
-0.11270246 0.015361554 -0.017703192 -0.0947496 -0.049587023 -0.07539192 -0.035903964 -0.051751334
-0.027266294 -0.100955784 0.022906533 -0.08643118 -0.10035453 -0.12888776 0.100593925 0.020387705
-0.00444162 0.00802258 0.05241238 0.020680487 -0.07605424 0.039064325 -0.10795946 -0.05213004
0.0066746236 -0.056402426 -0.060912807 -0.11266469 -0.060933787 0.047615808 -0.1393269 -0.0729567
-0.09203391 0.068028785 0.02078103 -0.043204688 -0.071422964 0.017870402 -0.06348483 0.070199385
-0.08462675 -0.044954274 -0.117199816 -0.043159947 -0.07864562 -0.13986054 -0.07105601 -0.08424076
0.019321116 -0.10128243 -0.017831238 -0.14119372 0.047071353 -0.0073034866 -0.11697347 -0.11315996
-0.049020093 -0.11374647 0.052206866 -0.060373515 0.020506736 -0.013235034 -0.15013456 -0.13348557
-0.046656236 -0.085611016 0.055981614 0.113755226 -0.035652466 -0.1448629 -0.07789516 -0.08382424
-0.07004526 -0.0350317 -0.052684855 -0.068831794 -0.10089889 0.043130174 -0.07142839 0.04512133
-0.047162164 -0.031669818 -0.05621625 0.0024435872 -0.0065479316 -0.07608563 0.023684336 -0.076860696
-0.07082733 0.013793504 -0.07298206 -0.09489534 0.015408859 -0.015530005 -0.017750466 -0.07191207
-0.10356363 -0.054857023 -0.16087751 -0.031928528 -0.06263193 -0.07398246 0.04155775 0.02365118
-0.016046809 -0.11823033 -0.11345417 -0.10899592 -0.084064454 0.002080763 0.012858083 -0.05966646
00000000: 0f4d 8f3d e165 06be 8e54 373d cbee 2abd
00000010: 8200 e5bd e152 dbbd 79a2 a13c e50f 23bd
00000020: e378 dfbd 3b80 6fbd 6a19 21bd 0a02 89bd
00000030: 1f77 f9bc 2e47 50bd bd32 a4bc 8a3f 75bd
00000040: f859 cdbd 401e f23a ffab 803b 5d5e 2bbd
00000050: 4aa2 96bd 12b4 e9bd b88b 8fbd 28a8 e8bd
00000060: 1396 58bd f6bf 093e bd42 10bc ced2 ee3c
00000070: 2e19 4f3d 2c09 31bd 4f08 f23c 5ef3 963c
00000080: 0f51 82bd 38c4 96bd 40b4 913c 5388 e4bd
00000090: 522d 903d 3d95 60bd 3f46 a3bd ca4e 0cbe
000000a0: f31e d6ba 95a1 37bd 435a 253c 9082 883c
000000b0: 0fdf 8a3c 617b 9fbd d20c 553c 50aa c6bd
000000c0: 8cd0 e6bd 07af 7b3c 4906 91bc 140c c2bd
000000d0: c31b 4bbd 1467 9abd 0910 13bd 35f9 53bd
000000e0: 905d dfbc e8c1 cebd 7ba6 bb3c d502 b1bd
000000f0: ad86 cdbd 27fb 03be 3004 ce3d 1e04 a73c
00000100: 028b 91bb 2471 033c 5dae 563d 206a a93c
00000110: 53c2 9bbd ea01 203d d919 ddbd 4f86 55bd
00000120: cdb6 da3b 3b06 67bd b57f 79bd bfbc e6bd
00000130: b595 79bd cb08 433d b6ab 0ebe 536a 95bd
00000140: 467c bcbd ad52 8b3d fb3c aa3c 66f7 30bd
00000150: 3446 92bd f364 923c 5604 82bd b2c4 8f3d
00000160: ca50 adbd f921 38bd 7506 f0bd 7cc8 30bd
00000170: f410 a1bd 9a37 0fbe d085 91bd 6b86 acbd
00000180: 5147 9e3c 2a6d cfbd d112 92bc 1695 10be
00000190: e4cd 403d 1652 efbb c98f efbd 69c0 e7bd
000001a0: 4bc9 48bd e9f3 e8bd ded6 553d 384a 77bd
000001b0: befd a73c c2d7 58bc e0bc 19be 71b0 08be
000001c0: 9c1a 3fbd d454 afbd fa4c 653d 80f8 e83d
000001d0: 5208 12bd f156 14be 7f87 9fbd 0bac abbd
000001e0: e473 8fbd 667d 0fbd 13cc 57bd aff7 8cbd
000001f0: 14a4 cebd 44a9 303d 0c49 92bd 25d1 383d
00000200: 1d2d 41bd 36b8 01bd 0343 66bd 9724 203b
00000210: 0890 d6bb c8d2 9bbd a705 c23c 2469 9dbd
00000220: eb0d 91bd 26fe 613c 9e77 95bd 7d58 c2bd
00000230: 7075 7c3c 9071 7ebc 6d69 91bc a346 93bd
00000240: 2b19 d4bd c2b1 60bd 13bd 24be 7dc7 02bd
00000250: 2b45 80bd 1e84 97bd 7638 2a3d 1fc0 c13c
00000260: 9974 83bc be22 f2bd a95a e8bd 4139 dfbd
00000270: fc29 acbd 695d 083b b5aa 523c d164 74bd

2.weight f4 [160, 160]
0.23487553 -0.40471736 -0.5389353 0.025309177 -0.40000036 -0.2703491 -0.0010907957 -0.2805212
-0.16697381 -0.58474815 -0.47328964 0.21567361 -0.067384206 -0.38493156 0.0582476 -0.34565866
-0.04004815 0.25457993 -0.4358542 -0.20894383 -0.1801667 -0.7650392 -0.17078292 0.174083
-0.14376043 0.37859297 -0.05259007 -0.58876836 0.124645665 -0.43156224 -0.02305539 -0.20157035
-0.13398005 0.021566233 0.13131472 0.15721366 0.10786982 0.040689208 0.12432908 0.29083103
0.13229658 0.4005465 -0.27229747 0.307431 -0.15529175 0.44576442 0.17546465 0.21723402
-0.053497396 -0.2527097 -0.0072057466 0.37687868 0.12826559 0.35739094 -0.28657657 -0.16383544
-0.3144827 -0.026627176 0.20544523 0.35802436 0.011243802 -0.06190682 0.30703032 0.107046895
0.07951626 0.058990706 0.27856016 0.14338942 0.15825711 -0.14678277 -0.32339436 -0.31968334
-0.09759226 -0.04560206 -0.20045732 -0.2970117 0.022596775 0.16446814 -0.4922228 0.102187775
-0.3700616 -0.20209272 -0.3513848 0.13153301 -0.037075896 -0.0019155956 0.20340914 0.36834195
-0.23902899 -0.3302247 -0.5454471 -0.2291533 0.36854282 -0.061603118 -0.6360895 -0.22439784
0.14450149 -0.36632332 -0.30479106 0.046600387 0.29662514 -0.30301452 -0.14713685 0.021834683
-0.07964553 0.2135253 0.32264632 -0.05519699 -0.15850843 -0.0046274457 -0.077264614 -0.124044806
-0.42919695 -0.35936064 0.16620749 0.03938709 -0.42039728 -0.03493763 -0.3972696 -0.48197338
0.0005720477 -0.0034661703 -0.62649757 0.15223974 -0.08883919 0.15613763 0.046362795 -0.02442104
-0.58083963 -0.28760675 0.11342951 0.15748101 -0.010866596 -0.14940706 -0.63879186 -0.023352152
-0.5864565 -0.025559066 -0.4219695 0.010095974 0.328118 0.085739836 0.20823787 0.18932283
0.24219096 -0.5215967 -0.28877345 0.05965908 0.08880998 -0.2519399 0.12734514 -0.0051724343
-0.3412165 0.16649956 -0.009295089 0.084649906 -0.13018683 0.17575014 0.2333453 -0.73219913
0.2549373 -0.058883496 0.24224028 -0.010600436 -0.11281563 -0.32755005 -0.2920568 0.09924789
0.1678773 0.32264334 0.3004259 -0.021967728 -0.0667364 0.34123644 0.015859308 0.26243326
-0.0084085325 -0.08788456 0.02628783 -0.0406384 0.049252402 -0.19382854 -0.20396867 -0.190074
0.17659166 -0.48855773 0.26529008 0.1347213 -0.24426392 -0.18094148 0.4886549 0.30493405
-0.064611144 -0.35654938 0.076824315 0.06414155 -0.35817263 0.09134813 0.14713734 -0.098427474
-0.36310658 0.061128285 0.1830971 -0.5119459 0.35769355 -0.34774074 0.33551466 0.13729613
-0.30722776 -0.06268321 0.06682203 0.11718299 0.09293823 -0.10131707 0.028565757 -0.11956094
0.07415186 0.27827382 0.25763425 0.111289755 0.033425905 0.2323848 0.22944212 0.08545115
0.26653537 0.08418799 0.07505879 0.3307198 -0.3777758 -0.21247254 0.0724474 0.16445619
0.46618387 -0.011792988 -0.29827362 -0.10684912 0.35635206 -0.31907368 -0.12952748 -0.12756053
0.031718016 0.24426848 0.0069700642 -0.018663969 0.15331861 0.5534668 0.095746115 -0.32694346
-0.22329625 -0.42142567 0.23327881 -0.31304288 -0.29600543 -0.16660772 0.07639986 -0.043617275
00000000: 3683 703e 1d37 cfbe aaf7 09bf 3155 cf3c
00000010: d9cc ccbe 326b 8abe 08f9 8eba 7aa0 8fbe
00000020: 2ffb 2abe 0eb2 15bf 0553 f2be 8bd9 5c3e
00000030: bb00 8abd c015 c5be 0995 6e3d 2cfa b0be
00000040: 8709 24bd 4d58 823e 4828 dfbe 5ff5 55be
00000050: 9f7d 38be 9cd9 43bf b8e1 2ebe d042 323e
00000060: ef35 13be f0d6 c13e af68 57bd 86b9 16bf
00000070: 3a46 ff3d baf5 dcbe a8de bcbc 7568 4ebe
00000080: 1132 09be abab b03c 5e77 063e 9efc 203e
00000090: daea dc3d baa9 263d 3fa0 fe3d cee7 943e
000000a0: c178 073e 6e14 cd3e 936a 8bbe 9967 9d3e
000000b0: cd04 1fbe 3c3b e43e 01ad 333e 9872 5e3e
000000c0: 1620 5bbd 2a63 81be 2f1e ecbb 3ef6 c03e
000000d0: 0e58 033e f2fb b63e 2aba 92be 7ac4 27be
000000e0: e003 a1be 3c21 dabc 3c60 523e f84e b73e
000000f0: ec37 383c 0192 7dbd 1433 9d3e 673b db3d
00000100: 6cd9 a23d 3da0 713d 709f 8e3e add4 123e
00000110: 270e 223e 394e 16be f293 a5be 89ad a3be
00000120: 73de c7bd 3ac9 3abd af44 4dbe eb11 98be
00000130: df1c b93c 566a 283e a004 fcbe d347 d13d
00000140: b778 bdbe 65f1 4ebe b5e8 b3be 97b0 063e
00000150: e5dc 17bd b914 fbba 7c4a 503e 5197 bc3e
00000160: 04c4 74be 3613 a9be 6ca2 0bbf 2aa7 6abe
00000170: a5b1 bc3e 8d53 7cbd c3d6 22bf 8cc8 65be
00000180: 33f8 133e bb8e bbbe 930d 9cbe 0ce0 3e3d
00000190: 40df 973e b824 9bbe 0bab 16be a6de b23c
000001a0: 321d a3bd 60a6 5a3e e631 a53e 3d16 62bd
000001b0: 0950 22be d4a1 97bb e93c 9ebd 340b febd
000001c0: b4bf dbbe 1efe b7be 4c32 2a3e 5b54 213d
000001d0: 503e d7be c31a 0fbd ec66 cbbe 37c5 f6be
000001e0: 79f5 153a b028 63bb 2562 20bf bce4 1b3e
000001f0: 52f1 b5bd 8be2 1f3e eae6 3d3d a20e c8bc
00000200: e8b1 14bf 3141 93be bb4d e83d b442 213e
00000210: cf09 32bc 2afe 18be dd87 23bf 034d bfbc
00000220: 0322 16bf 3f61 d1bc 630c d8be 9669 253c
00000230: 15ff a73e 5e98 af3d 4f3c 553e d8dd 413e
00000240: e800 783e 5d87 05bf 1dda 93be 145d 743d
00000250: 02e2 b53d 44fe 80be c466 023e 867d a9bb
00000260: eeb3 aebe dc7e 2a3e 6e4a 18bc ee5c ad3d
00000270: b24f 05be d8f7 333e 12f2 6e3e 6771 3bbf
00000280: 2487 823e d22f 71bd d60d 783e 73ad 2dbc
00000290: e20b e7bd a4b4 a7be 7888 95be 7a42 cb3d
000002a0: 07e8 2b3e 8231 a53e 6cd1 993e aaf5 b3bc
000002b0: 18ad 88bd 8bb6 ae3e 61eb 813c a75d 863e
000002c0: f1c3 09bc d2fc b3bd 9359 d73c 7374 26bd
000002d0: e3bc 493d fd7a 46be 2add 50be c2a2 42be
000002e0: 72d4 343e 3d24 fabe 1ad4 873e 61f4 093e
000002f0: 5220 7abe b948 39be fa30 fa3e 5120 9c3e
00000300: d952 84bd a48d b6be 1156 9d3d a55c 833d
00000310: 6762 b7be ba14 bb3d 2cab 163e 5894 c9bd
00000320: 1be9 b9be a761 7a3d ce7d 3b3e e30e 03bf
00000330: 9c23 b73e 130b b2be 94c8 ab3e 5b97 0c3e
00000340: f54c 9dbe 0e60 80bd fdd9 883d a3fd ef3d
00000350: 6656 be3d 537f cfbd bc02 ea3c 5edc f4bd
00000360: eedc 973d e879 8e3e a3e8 833e e2eb e33d
00000370: 9ae9 083d 48f6 6d3e e0f2 6a3e 0301 af3d
00000380: 5377 883e c16a ac3d 6cb8 993d 1b54 a93e
00000390: d46b c1be 6792 59be 4d5f 943d 3467 283e
000003a0: a7af ee3e 6037 41bc 52b7 98be b6d3 dabd
000003b0: c773 b63e a05d a3be daa2 04be 3a9f 02be
000003c0: c0ea 013d 8421 7a3e 2365 e43b 2ee5 98bc
000003d0: 8eff 1c3e 00b0 0d3f 8a16 c43d 2265 a7be
000003e0: c6a7 64be 1bc5 d7be a4e0 6e3e 2847 a0be
000003f0: 068e 97be 379b 2abe 8877 9c3d 07a8 32bd

2.bias f4 [160]
0.1685605 0.01688477 0.22880608 -0.05364968 0.05272359 0.08827326 -0.081027746 -0.16918045
-0.13394536 -0.12314731 -0.028666127 0.031782605 -0.050266214 -0.06289227 -0.10389396 -0.007527099
-0.06361356 0.06071976 0.043610603 -0.048450366 -0.08715902 0.03979538 0.061554026 0.16340314
0.15258707 -0.09921071 -0.19405332 -0.055389274 -0.008873814 -0.050852362 0.05407265 0.00473243
0.123686716 0.2749412 -0.27129754 -0.26725855 -0.18355595 -0.10588108 -0.03498159 0.13229144
-0.08312838 0.10813266 0.21478938 -0.097928725 -0.06296359 0.0168954 -0.10371426 0.09611366
-0.14943811 -0.17110279 0.17293537 -0.02212834 -0.05932841 -0.08811286 0.12751652 -0.097251825
-0.083785646 -0.06529788 0.053741544 0.1908206 -0.011460814 0.02912403 0.004618397 -0.15536538
-0.015945114 -0.057849083 -0.107362255 -0.0672159 0.104347475 -0.12367046 0.17121936 -0.042364288
-0.065355316 0.08267643 0.257698 0.0013455831 0.051671714 0.13834813 0.0720629 -0.0064828945
-0.08502372 -0.07643962 0.13912757 -0.07471822 -0.046031173 -0.095231004 -0.06391528 -0.048375268
0.10212756 -0.023922596 -0.13591948 -0.0686355 -0.05985338 0.187196 -0.1580733 -0.16657111
-0.027577195 0.0818234 -0.04778017 0.015489161 -0.016920865 -0.037505295 -0.043864865 0.086917266
-0.09976595 0.13786674 -0.11159678 -0.030328296 0.16643108 -0.03510643 -0.1404503 0.03948647
-0.20078753 -0.13976648 0.041624635 -0.17485791 -0.1457946 -0.05197504 -0.09145898 -0.09765043
0.013886473 -0.24213527 0.23769009 -0.045621708 0.057110358 -0.021553645 -0.1971462 0.20563716
-0.17562126 -0.0353388 -0.11632037 -0.01373201 -0.03583098 -0.09618784 -0.07472149 -0.12390474
0.13545023 0.09861353 -0.041406643 0.11747645 -0.06976987 -0.20537342 -0.026526531 0.12848468
0.08596461 -0.048320934 -0.061179508 0.09963032 0.0965525 0.0673129 -0.13418719 -0.028365994
-0.19184308 0.1458457 -0.03968601 -0.07642128 0.09733739 -0.07001762 -0.13389301 -0.10260319
00000000: 209b 2c3e ee51 8a3c 244c 6a3e c4bf 5bbd
00000010: b1f4 573d 9cc8 b43d e0f1 a5bd a43d 2dbe
00000020: f928 09be a834 fcbd 3ad5 eabc 7a2e 023d
00000030: f2e3 4dbd aacd 80bd 5bc6 d4bd e2a5 f6bb
00000040: d347 82bd 48b5 783d 08a1 323d e473 46bd
00000050: 6e80 b2bd 7b00 233d 1320 7c3d 2753 273e
00000060: c93f 1c3e fc2e cbbd eab5 46be dddf 62bd
00000070: 7963 11bc 914a 50bd 487b 5d3d 8012 9b3b
00000080: 764f fd3d 18c5 8c3e 83e7 8abe 1dd6 88be
00000090: 17f6 3bbe 2ed8 d8bd db48 0fbd 6877 073e
000000a0: 363f aabd a874 dd3d bff1 5b3e db8e c8bd
000000b0: 0ef3 80bd 3968 8a3c 2468 d4bd 3dd7 c43d
000000c0: 4e06 19be 9235 2fbe f815 313e 7e46 b5bc
000000d0: 5902 73bd 8474 b4bd b193 023e f72b c7bd
000000e0: cf97 abbd e5ba 85bd 1820 5c3d 7a66 433e
000000f0: 23c6 3bbc 8595 ee3c ec55 973b 1a18 1fbe
00000100: 549f 82bc 29f3 6cbd bee0 dbbd 7da8 89bd
00000110: 21b4 d53d f046 fdbd 2154 2f3e 2d86 2dbd
00000120: 02d9 85bd 4352 a93d fef0 833e 475e b03a
00000130: b8a5 533d 22ab 0d3e b795 933d 766e d4bb
00000140: eb20 aebd 608c 9cbd 7577 0e3e de05 99bd
00000150: 2f8b 3cbd 7908 c3bd 04e6 82bd 2525 46bd
00000160: 4128 d13d 52f9 c3bc 7a2e 0bbe c590 8cbd
00000170: d128 75bd 4fb0 3f3e f8dd 21be 9e91 2abe
00000180: 92e9 e1bc 0793 a73d 24b5 43bd 40c6 7d3c
00000190: a09d 8abc 279f 19bd a5ab 33bd ae01 b23d
000001a0: 1752 ccbd f02c 0d3e da8c e4bd 0c73 f8bc
000001b0: e96c 2a3e c3cb 0fbd 34d2 0fbe 91bc 213d
000001c0: 3f9b 4dbe f21e 0fbe 987e 2a3d f40d 33be
000001d0: 2e4b 15be c8e3 54bd d94e bbbd f3fc c7bd
000001e0: 1784 633c 4ff2 77be 0865 733e d4dd 3abd
000001f0: 8dec 693d 4591 b0bc b2e0 49be 8c92 523e
00000200: 0fd6 33be 6bbf 10bd 6039 eebd 39fc 60bc
00000210: 81c3 12bd 21fe c4bd 9507 99bd c5c1 fdbd
00000220: 77b3 0a3e e4f5 c93d 039a 29bd 7e97 f03d
00000230: 81e3 8ebd 694d 52be 2b4e d9bc 7d91 033e
00000240: 370e b03d 2cec 45bd 5d97 7abd fb0a cc3d
00000250: 51bd c53d 59db 893d 5e68 09be cd5f e8bc
00000260: 8372 44be 9358 153e cc8d 22bd c382 9cbd
00000270: d358 c73d 6665 8fbd 401b 09be 9f21 d2bd

4.weight f4 [160, 160]
0.21454075 0.020647181 -0.5437707 -0.13133062 -0.019913899 -0.07278471 -0.23393482 -0.1374454
0.35574543 0.36283422 -0.0764961 0.069388025 -0.011096213 0.019971775 -0.16682684 0.2557458
0.2655777 0.26391694 -0.26127684 0.036925923 -0.07980574 0.3470882 0.26129067 0.121485405
-0.101109415 0.23559256 0.3532677 -0.09453526 -0.3715776 -0.5431648 0.16553298 -0.15688969
-0.3932746 -0.08046932 -0.24229017 -0.20333786 0.26479214 -0.49625155 0.1234185 0.07064056
-0.16635932 0.20098317 -0.64134973 -0.36906213 0.29237875 0.10924031 0.20672522 -0.083928764
0.06458127 0.34613264 -0.3530159 0.15527105 -0.11401687 0.29065824 -0.5926327 -0.09817163
0.15684707 -0.13637343 0.08197046 -0.14457871 -0.72961515 -0.086529024 0.11951123 0.05482177
0.11216487 -0.019416468 -0.16007188 0.064036414 0.039054323 0.1092836 -0.24925104 0.22568308
-0.13716619 0.28656316 -0.2659937 0.026947817 0.39211378 -0.02413252 -0.0775257 0.09302418
0.23172607 0.15874116 -0.26843262 0.19933963 -0.18717553 0.21749254 -0.02956926 -0.021613466
-0.08897994 -0.06482045 0.2983522 0.0743275 -0.07366189 -0.6376879 0.07301879 0.22517388
0.13045971 -0.25093627 -0.12297966 -0.57418984 -0.096107036 -0.09106955 -0.31565344 0.14079988
-0.017857127 -0.56941 -0.19906676 -0.24514233 -0.24520439 0.11235201 0.10887519 0.18339749
-0.07765658 0.06888294 -0.006434728 -0.3842641 -0.3801521 -0.34937978 -0.4278052 0.19322069
-0.12933038 0.32854867 -0.67998344 -0.77023375 0.1708985 0.039115142 0.10427864 -0.17883049
-0.038351063 0.103851184 0.037844367 -0.46907133 0.18789902 -0.029448701 -0.106915206 0.03170454
-0.007223779 -0.02276223 0.17945966 -0.17885332 0.08767089 0.24723007 -0.22288679 0.017184746
-0.078000836 0.0893031 0.04768175 0.099669 0.17530683 -0.7393686 0.014949945 0.054968793
-0.0822954 -0.04398599 0.054466907 -0.08168656 -0.025051942 -0.061671104 -0.08603944 -0.13310021
-0.14220585 -0.37041712 -0.22022764 -0.07234892 -0.32531902 -0.1397421 -0.018431054 -0.35810262
0.27783912 -0.10037537 -0.293056 -0.18330368 0.11137586 -0.17394698 -0.017510165 -0.11527112
0.018833704 0.2874712 -0.65904766 0.034498896 -0.03346112 0.034088798 -0.39720783 -0.18228123
-0.19082612 -0.13329495 0.030949272 -0.1159555 -0.13304743 -0.09432025 -0.55484986 0.23618968
-0.31763625 -0.35671178 0.038547315 -0.3166265 0.40257743 -0.19078328 0.08871994 -0.29354843
-0.23794203 0.24172823 -0.34129238 -0.018339284 -0.5392338 -0.37301785 0.12200708 -0.41955438
-0.36353856 0.09485726 -0.41337067 -0.36586207 -0.03951949 -0.33271393 -0.26587215 -0.43822014
0.16103172 -0.024232477 0.042756926 -0.39045405 -0.43210453 -0.5137723 -0.39840668 -0.39588088
-0.2223573 0.35657606 -0.45816654 -0.1654266 -0.1735477 -0.06650555 -0.14784509 -0.37130696
0.058177464 0.17158316 -0.29351792 0.06537272 -0.10179073 -0.33904722 -0.2985208 0.19320258
-0.1611678 0.17318565 -0.8885948 0.25229162 -0.03656345 -0.19599575 0.17777649 0.014889849
-0.6623376 -0.22967568 0.0703696 0.5168877 0.068563834 -0.3509205 0.086622775 -0.47493577
00000000: 92b0 5b3e 4724 a93c 8e34 0bbf 897b 06be
00000010: 7922 a3bc 2610 95bd 9c8c 6fbe 7dbe 0cbe
00000020: 4424 b63e 68c5 b93e fda9 9cbd 4f1b 8e3d
00000030: e4cc 35bc d99b a33c a8d4 2abe 1df1 823e
00000040: cdf9 873e 1f20 873e 14c6 85be a33f 173d
00000050: 3171 a3bd 8bb5 b13e e4c7 853e 57cd f83d
00000060: 7412 cfbd 2d3f 713e 81df b43e b49b c1bd
00000070: 6b3f bebe d90c 0bbf 7a81 293e b1a7 20be
00000080: 4a5b c9be 19cd a4bd ea1a 78be cd37 50be
00000090: d692 873e af14 febe d7c2 fc3d ffab 903d
000000a0: 195a 2abe 88ce 4d3e 7f2f 24bf b6f5 bcbe
000000b0: abb2 953e 62b9 df3d c7af 533e d8e2 abbd
000000c0: 2f43 843d 4c38 b13e 80be b4be 60ff 1e3e
000000d0: ad81 e9bd 28d1 943e c7b6 17bf 350e c9bd
000000e0: 859c 203e 7aa5 0bbe 21e0 a73d 710c 14be
000000f0: 0fc8 3abf 2136 b1bd 4ec2 f43d cb8c 603d
00000100: b2b6 e53d 490f 9fbc e2e9 23be 8625 833d
00000110: 6df7 1f3d 14d0 df3d aa3b 7fbe 7719 673e
00000120: 4b75 0cbe 68b8 923e 5430 88be abc1 dc3c
00000130: 23c3 c83e 90b1 c5bc cbc5 9ebd 7683 be3d
00000140: 9949 6d3e 0b8d 223e 0070 89be b01f 4c3e
00000150: f1aa 3fbe 5db6 5e3e 3c3b f2bc b90e b1bc
00000160: 1d3b b6bd 96c0 84bd 9fc1 983e 0439 983d
00000170: 0cdc 96bd 843f 23bf e08a 953d fb93 663e
00000180: 3b97 053e b87a 80be c3dc fbbd 1bfe 12bf
00000190: c4d3 c4bd ac82 babd 549d a1be d82d 103e
000001a0: 1c49 92bc dbc4 11bf 28d8 4bbe 9706 7bbe
000001b0: dc16 7bbe d018 e63d f5f9 de3d 8dcc 3b3e
000001c0: 6a0a 9fbd 8012 8d3d 69da d2bb 44be c4be
000001d0: 4ca3 c2be e8e1 b2be 4809 dbbe a5db 453e
000001e0: 2f6f 04be 8837 a83e 6513 2ebf 0a2e 45bf
000001f0: 0400 2f3e 3337 203d 0a90 d53d 571f 37be
00000200: 0116 1dbd eeaf d43d b202 1b3d 1e2a f0be
00000210: 9a68 403e 673e f1bc 5cf6 dabd 9fdc 013d
00000220: 73b5 ecbb db77 babc 46c4 373e 5325 37be
00000230: cc8c b33d e129 7d3e 6f3c 64be 06c7 8c3c
00000240: e7be 9fbd 8be4 b63d f04d 433d 431f cc3d
00000250: a283 333e 4347 3dbf 9df0 743c f526 613d
00000260: 7e8a a8bd a72a 34bd b118 5f3d 484b a7bd
00000270: bb39 cdbc d79a 7cbd 7235 b0bd 6c4b 08be
00000280: 699e 11be 50a7 bdbe 5b83 61be ac2b 94bd
00000290: 3790 a6be 8e18 0fbe b9fc 96bc 3a59 b7be
000002a0: ee40 8e3e 9a91 cdbd 700b 96be f6b3 3bbe
000002b0: 0719 e43d 281f 32be 7a71 8fbc 4413 ecbd
000002c0: 2449 9a3c 6d2f 933e 59b7 28bf b74e 0d3d
000002d0: 870e 09bd b2a0 0b3d d35e cbbe eea7 3abe
000002e0: ec67 43be 797e 08be 5489 fd3c 147a edbd
000002f0: 963d 08be fa2a c1bd a40a 0ebf b5db 713e
00000300: 38a1 a2be eda2 b6be cae3 1d3d de1c a2be
00000310: a11e ce3e b15c 43be cdb2 b53d fb4b 96be
00000320: 13a7 73be 9b87 773e e0bd aebe 443c 96bc
00000330: 3a0b 0abf 32fc bebe d9de f93d d5cf d6be
00000340: ba21 babe 8644 c23d 52a5 d3be 4652 bbbe
00000350: 30df 21bd 7b59 aabe 6520 88be 645e e0be
00000360: 80e5 243e 3083 c6bc e321 2f3d 98e9 c7be
00000370: ce3c ddbe 9586 03bf f6fb cbbe e6b0 cabe
00000380: a2b1 63be 2391 b63e ce94 eabe 9765 29be
00000390: 7db6 31be 1034 88bd b464 17be f21b bebe
000003a0: 7e4b 6e3d 7fb3 2f3e fb47 96be 22e2 853d
000003b0: a977 d0bd 9997 adbe b8d7 98be e6d6 453e
000003c0: 2c09 25be 9457 313e f37a 63bf 5e2c 813e
000003d0: 8ec3 15bd 1cb3 48be 0a0b 363e 8ef4 733c
000003e0: f58e 29bf 1a30 6bbe f01d 903d c152 043f
000003f0: 326b 8c3d daab b3be 4867 b13d c82a f3be

4.bias f4 [160]
-0.07655586 -0.06860672 -0.066282004 0.012412498 -0.01931519 0.029579606 -0.09818166 -0.13072352
0.034914274 -0.10760711 -0.10581726 -0.11786017 -0.10904153 -0.15571003 -0.043252833 -0.04510343
0.022515545 0.026169669 -0.10792962 0.123583585 -0.26066038 0.099903785 -0.05734397 0.16304971
0.14045525 -0.04817882 0.2715397 -0.015371077 -0.037827168 -0.05815718 -0.042401604 -0.09707786
-0.11570085 -0.11716248 0.112360425 -0.21400408 -0.026327692 0.063367 -0.10932469 -0.01734888
-0.1606278 0.14495398 -0.042341974 0.056855876 0.09116683 -0.0919558 -0.096683025 -0.052794557
-0.07569683 -0.02083419 -0.08799914 0.17433651 -0.029904505 -0.19189306 0.13686526 -0.0032520287
-0.0720347 -0.2510457 -0.07813505 -0.2173471 -0.09234502 -0.011162393 -0.03101346 -0.10356742
0.08917898 -0.16651168 0.06281347 -0.29627186 -0.08005936 -0.050018646 0.101057835 -0.10396836
-0.08392327 -0.0019677845 -0.037920326 0.025882091 0.053508483 0.2622918 -0.00050396955 0.1183727
-0.12955469 -0.07366079 0.011495057 0.02475354 -0.019881958 0.15407835 0.032010682 0.10231417
-0.07493021 -0.19570485 -0.10842846 0.01240975 -0.0601148 -0.08807786 -0.1879795 -0.10138928
-0.14004461 0.076737165 0.18890034 -0.0995961 -0.08439986 -0.098551065 -0.03420723 0.005573842
0.145089 0.00685071 -0.089470364 -0.069547184 -0.13781382 0.021598222 -0.1119472 0.018603384
-0.10839616 0.071924984 -0.104953356 -0.047544356 -0.13189584 -0.10472104 -0.014218958 -0.07247358
-0.046321142 -0.1634251 -0.071825184 0.01817997 -0.18089995 -0.0788958 -0.1999939 0.2742041
-0.035808135 -0.14444841 -0.0016828659 -0.023779549 -0.09499272 0.2665767 -0.11427174 -0.04167812
0.07379568 0.22764902 0.02791034 -0.052165505 -0.11558818 0.08376807 0.014516803 -0.004498791
0.003895002 -0.06077115 -0.06525823 -0.08367583 -0.27981007 -0.16142623 -0.02840637 0.3840071
-0.051714852 0.019923674 0.20842877 -0.08673474 -0.10723628 0.011169907 0.07498882 -0.025299173
00000000: 52c9 9cbd ae81 8cbd dcbe 87bd ca5d 4b3c
00000010: e43a 9ebc ee50 f23c 7713 c9bd 63dc 05be
00000020: 4502 0f3d 1e61 dcbd b8b6 d8bd ac60 f1bd
00000030: 2a51 dfbd 7372 1fbe e229 31bd 60be 38bd
00000040: 8572 b83c c661 d63c 340a ddbd 6419 fd3d
00000050: 4775 85be 5b9a cc3d 83e1 6abd 81f6 263e
00000060: 80d3 0f3e 2857 45bd 4007 8b3e f8d6 7bbc
00000070: a9f0 1abd 3936 6ebd 4ead 2dbd c2d0 c6bd
00000080: 91f4 ecbd e2f2 efbd 391d e63d e323 5bbe
00000090: 2cad d7bc 8fc6 813d a0e5 dfbd 3d1f 8ebc
000000a0: 9d7b 24be d16e 143e c76e 2dbd b5e1 683d
000000b0: adb5 ba3d 5353 bcbd c001 c6bd 1b3f 58bd
000000c0: f106 9bbd 77ac aabc e538 b4bd 4585 323e
000000d0: 4bfa f4bc 9d7f 44be 6826 0c3e fd1f 55bb
000000e0: ee86 93bd 1089 80be 4505 a0bd 3d90 5ebe
000000f0: 631f bdbd 78e2 36bc f10f febc 281b d4bd
00000100: 78a3 b63d 0a82 2abe 59a4 803d f2b0 97be
00000110: 29f6 a3bd 5ae0 4cbd 69f7 ce3d 5ded d4bd
00000120: f7df abbd f2f5 00bb 5852 1bbd ae06 d43c
00000130: b62b 5b3d 1c4b 863e d31c 04ba 636d f23d
00000140: fca9 04be 78db 96bd c355 3c3c f0c7 ca3c
00000150: 7ddf a2bc b7c6 1d3e a21d 033d 178a d13d
00000160: 0375 99bd da66 48be be0f debd 4452 4b3c
00000170: f03a 76bd 2a62 b4bd b37d 40be 2fa5 cfbd
00000180: db67 0fbe 6028 9d3d 176f 413e 0af9 cbbd
00000190: d5d9 acbd 24d5 c9bd e11c 0cbd c7a4 b63b
000001a0: 3692 143e ec7b e03b 3d3c b7bd c16e 8ebd
000001b0: 111f 0dbe c1ee b03c 9344 e5bd 2066 983c
000001c0: cefe ddbd 684d 933d c9f1 d6bd dfbd 42bd
000001d0: b40f 07be fc77 d6bd a2f6 68bc 076d 94bd
000001e0: 3dbb 3dbd e958 27be 1519 93bd 29ee 943c
000001f0: d63d 39be 1f94 a1bd 33cb 4cbe 7b64 8c3e
00000200: 8dab 12bd 49ea 13be 9c93 dcba 54cd c2bc
00000210: 8b8b c2bd be7c 883e 4d07 eabd adb6 2abd
00000220: 3122 973d d31c 693e 3aa4 e43c 7fab 55bd
00000230: 7fb9 ecbd 988e ab3d e3d7 6d3c 986a 93bb
00000240: 4a43 7f3b 2beb 78bd 1ba6 85bd 3c5e abbd
00000250: 4443 8fbe eb4c 25be 7ab4 e8bc 949c c43e
00000260: f4d2 53bd f936 a33c 5a6e 553e fca1 b1bd
00000270: b29e dbbd fc01 373c bd93 993d 3640 cfbc

6.weight f4 [12, 160]
-0.12721738 0.7867133 -0.086128764 -0.5216582 0.30288443 -0.5528661 -0.22382616 0.01847691
-0.23158593 -0.3064928 0.20319803 -0.020261003 -0.11175898 -0.33191758 0.1329894 -0.10569445
-0.4949007 0.069920845 -0.26023218 0.036537923 -0.14016515 -0.0026655085 -0.33820328 0.09553317
-0.04537063 0.20742871 -0.13812195 0.20800753 -0.22040641 -0.48354828 0.027023507 0.12113933
0.01456574 0.04018202 -0.2867726 -0.8532379 -0.4194719 -0.25251505 -0.04446032 0.38743958
0.02580937 -0.23705073 -0.057819564 -0.25315014 -0.018114973 0.08882093 0.009172806 0.21805923
-0.055665262 0.2522803 -0.060060807 7.056788e-05 -0.11783009 -0.05012807 0.12888582 0.24196276
-0.06408948 -0.10336089 0.13470848 -0.07070419 0.0938113 0.2280786 0.040952332 -0.019831797
0.35882518 0.7261524 0.018003048 -0.06631892 0.18374395 -0.16817258 0.26976338 -0.02722891
0.15339568 -0.1108183 0.3591465 0.008329565 0.17735878 0.15672751 0.15614605 0.07527076
-0.08981501 -0.06447544 0.24290319 0.028223779 0.033521924 -0.17747535 -0.26209813 -0.0067128744
-0.54738003 0.3470545 -0.076255955 0.035706524 0.2521841 -0.09831376 -0.08634724 0.13941331
-0.09367045 -0.051448207 0.29263154 0.42282823 0.100391924 0.047990758 -0.26295504 0.36857688
-0.011739994 -0.22512569 -0.07144422 -0.6572208 -0.14164819 -0.089888506 -0.019744754 -0.55098486
0.24006216 -0.22927159 -0.135543 0.23916472 -0.08205166 -0.03744191 -0.14235027 -0.030661073
-0.8588327 -0.14954045 -0.47032484 0.31789407 0.036221948 -0.40193462 0.07408847 0.18225278
0.26614764 0.351305 -0.6181591 -0.15715694 0.055111915 0.13764484 0.052501097 0.09886056
0.12834668 -0.11079281 -0.33867398 0.11686818 0.01417825 -0.5727396 0.11862272 0.08828686
-0.44154212 -0.048748195 0.17628829 -0.106055245 -0.45676237 0.2551264 -0.0471982 0.18672821
0.14544918 0.0075212033 0.07469595 0.086624704 -0.01770146 -0.6175862 -0.14061745 0.01642412
0.47478706 0.3221542 -0.11234373 0.050108694 0.14544977 0.23065849 0.08457125 0.21673554
-0.22868481 -0.044294924 0.34621042 -0.22867823 0.21998909 0.15546651 0.05694564 -0.061886597
0.045344442 -0.12091142 -0.13721272 -0.11446597 0.18206939 0.09950931 0.02903563 0.12930146
-0.040283892 -0.12677148 0.081577756 0.26428914 -0.10724167 0.26071876 0.09404693 -0.054654233
0.020712612 0.20158055 0.25518274 0.20774898 -0.0359376 0.1816931 0.10409622 0.14825962
0.14107636 0.30853125 -0.16947924 -0.4741955 0.027678164 0.0028373636 -0.010663941 0.14383022
-0.24264263 -0.2897192 -0.012176411 -0.05756043 -0.2806423 0.051105846 0.29868183 -0.023304235
0.107201636 0.21787372 0.107957065 0.027813397 -0.17150463 0.13354075 -0.24146912 0.1655625
0.08773209 0.46847376 0.10327317 -0.03516098 0.06663227 -0.38029194 0.20132732 -0.025632534
0.19672112 0.097611785 -0.038912505 -0.09029148 0.29933238 0.10919692 0.32863653 0.0391945
0.18152118 0.032847624 0.2315736 -0.42274687 0.40587413 -0.078094944 0.29301834 -0.015888898
-0.0090790605 0.3289506 -0.15615681 0.49185073 0.25407186 -0.15328942 0.22964944 0.018217208
00000000: 4645 02be 0b66 493f 4764 b0bd 648b 05bf
00000010: ab13 9b3e a288 0dbf af32 65be e45c 973c
00000020: dd24 6dbe a0ec 9cbe 2513 503e 67fa a5bc
00000030: e4e1 e4bd 1af1 a9be 602e 083e 5576 d8bd
00000040: a063 fdbe a932 8f3d 273d 85be caa8 153d
00000050: 7487 0fbe d0af 2ebb fb28 adbe e5a6 c33d
00000060: 8ed6 39bd 3168 543e d76f 0dbe edff 543e
00000070: 38b2 61be a493 f7be 6760 dd3c e617 f83d
00000080: 24a5 6e3c e795 243d dcd3 92be cd6d 5abf
00000090: 05c5 d6be a749 81be 061c 36bd 7b5e c63e
000000a0: 2c6e d33c 6dbd 72be 35d4 6cbd e59c 81be
000000b0: da65 94bc bfe7 b53d 8949 163c eb4a 5f3e
000000c0: 4201 64bd e22a 813e 5202 76bd d8fd 9338
000000d0: e750 f1bd 1753 4dbd a5fa 033e 16c5 773e
000000e0: 5841 83bd e0ae d3bd 05f1 093e 5ccd 90bd
000000f0: 2420 c03d 708d 693e a2bd 273d 4b76 a2bc
00000100: efb7 b73e 20e5 393f 217b 933c 37d2 87bd
00000110: 6027 3c3e 6f35 2cbe 6d1e 8a3e 2a0f dfbc
00000120: c213 1d3e b4f4 e2bd 0de2 b73e ba78 083c
00000130: 8a9d 353e 2d7d 203e c0e4 1f3e 8e27 9a3d
00000140: eff0 b7bd b30b 84bd 9dbb 783e 8e35 e73c
00000150: 494e 093d 19bc 35be ba31 86be acf7 dbbb
00000160: 1921 0cbf 21b1 b13e 152c 9cbd 0141 123d
00000170: 461e 813e b958 c9bd d2d6 b0bd 5dc2 0e3e
00000180: 4bd6 bfbd 5bbb 52bd cdd3 953e f17c d83e
00000190: 489a cd3d f591 443d 0ba2 86be 1cb6 bc3e
000001a0: 1b59 40bc 5987 66be 5951 92bd 9f3f 28bf
000001b0: 390c 11be 7717 b8bd c0bf a1bc 580d 0dbf
000001c0: dbd2 753e 2cc6 6abe c9cb 0abe 99e7 743e
000001d0: b30a a8bd b05c 19bd 45c4 11be ee2c fbbc
000001e0: 76dc 5bbf 2221 19be 6bce f0be 03c3 a23e
000001f0: 775d 143d 60ca cdbe b2bb 973d 79a0 3a3e
00000200: 8144 883e 40de b33e ad3f 1ebf c0ed 20be
00000210: 08bd 613d c5f2 0c3e 640b 573d 6877 ca3d
00000220: 506d 033e 57e7 e2bd ad66 adbe 9658 ef3d
00000230: e44b 683c 109f 12bf 78f0 f23d becf b43d
00000240: cf11 e2be 30ac 47bd eb84 343e 7e33 d9bd
00000250: c2dc e9be ed9f 823e e652 41bd ae35 3f3e
00000260: a1f0 143e 6d74 f63b 31fa 983d 4b68 b13d
00000270: a702 91bc 211a 1ebf 05fe 0fbe e08b 863c
00000280: 4a17 f33e 65f1 a43e 7814 e6bd c63e 4d3d
00000290: c9f0 143e bd31 6c3e b133 ad3d ecef 5d3e
000002a0: 5a2c 6abe 986e 35bd 7e42 b13e a02a 6abe
000002b0: d244 613e 9d32 1f3e d53f 693d cd7c 7dbd
000002c0: 18bb 393d 68a0 f7bd 7e81 0cbe 226d eabd
000002d0: 6670 3a3e 8acb cb3d 21dc ed3c 9a67 043e
000002e0: b900 25bd 62d0 01be 3d12 a73d e850 873e
000002f0: 85a1 dbbd ee7c 853e ad9b c03d 1edd 5fbd
00000300: 7fad a93c 226b 4e3e 50a7 823e 26bc 543e
00000310: 4e33 13bd c20d 3a3e 6630 d53d 5fd1 173e
00000320: 5276 103e cff7 9d3e f78b 2dbe c1c9 f2be
00000330: 51bd e23c 10f3 393b cfb7 2ebc 3b48 133e
00000340: 4f77 78be 1356 94be 927f 47bc 7cc4 6bbd
00000350: 59b0 8fbe 5d54 513d d3ec 983e 86e8 bebc
00000360: 888c db3d 4a1a 5f3e 9818 dd3d ecd8 e33c
00000370: e99e 2fbe e8be 083e ae43 77be 3789 293e
00000380: e2ac b33d cbdb ef3e e280 d33d f604 10bd
00000390: 8076 883d a0b5 c2be c028 4e3e 52fb d1bc
000003a0: 4371 493e b0e8 c73d b862 1fbd bdea b8bd
000003b0: 1842 993e a3a2 df3d 0c43 a83e 698a 203d
000003c0: b0e0 393e 3b8b 063d a121 6d3e 4772 d8be
000003d0: bcce cf3e 3ef0 9fbd 8006 963e 6f29 82bc
000003e0: 57c0 14bc 376c a83e 92e7 1fbe dcd3 fb3e
000003f0: b515 823e e7f7 1cbe 3929 6b3e 413c 953c

6.bias f4 [12]
0.046693508 0.17501394 -0.39457753 0.012744533 0.0493616 -0.18591776 0.29002178 -0.10188439
-0.39331067 0.22206947 0.07854749 0.029625231
00000000: b141 3f3d db36 333e 1106 cabe 72ce 503c
00000010: 642f 4a3d 3a61 3ebe bc7d 943e c3a8 d0bd
00000020: 0460 c9be 2e66 633e 82dd a03d 9db0 f23c
