demo/envs/env_net_9.pth (torch, 240783 bytes, 8 tensors)

0.weight f4 [160, 38]
0	0xbeb94685	-0.36186615
1	0xbec50db4	-0.38487017
2	0x3e57296a	0.21011892
3	0xbb32794c	-0.0027232943
4	0x3e81d0a3	0.2535449
5	0x3e3f2ffb	0.18670647
6	0x3da63f4e	0.08117543
7	0x3dbeed52	0.09322609
8	0x3eb7ed52	0.3592325
9	0xbe0d3621	-0.1379018
10	0x3dd2c606	0.10291676
11	0x3e805c46	0.250704
12	0x3e98b983	0.29829034
13	0x3e538f8a	0.20660225
14	0x3edec29f	0.4350786
15	0x3e54c0aa	0.2077662
16	0x3efd7370	0.49502134
17	0x3f4f1b53	0.8090107
18	0xbf28ff17	-0.66014236
19	0x3d1e9477	0.038715806
20	0xbed63a46	-0.41841334
21	0x3e3af4ef	0.18257497
22	0x3e697594	0.22798759
23	0x3ed965a7	0.42460367
24	0xbe752b8b	-0.23942392
25	0x3e9c59ae	0.3053717
26	0xbe20e47c	-0.1571216
27	0xbe3c35c8	-0.18379891
28	0x3d2d6abc	0.042338118
29	0x3df8d900	0.121507645
30	0x3c88c2bc	0.01669442
31	0x3cd83ff8	0.02639769
32	0x3c6c238b	0.014412771
33	0xbe1aa243	-0.1510096
34	0xbea3719e	-0.3192262
35	0x3e77048d	0.2412283
36	0x3f10c1bc	0.56545615
37	0x3ec11fc7	0.37719557
38	0x3e359ea1	0.17736293
39	0xbe496ef3	-0.1967123
40	0x3e95b782	0.29241568
41	0x3dfcb206	0.12338643
42	0x3f1c3f6a	0.6103426
43	0x3e6ab081	0.22918893
44	0x3e6a05ea	0.22853819
45	0x3e8821f4	0.26588404
46	0x3d41f9a6	0.047357224
47	0xbd213db7	-0.039365496
48	0x3d664c52	0.05622513
49	0x3d915231	0.07095755
50	0x3e1963fc	0.14979547
51	0x3ec42dae	0.383161
52	0x3eba83f7	0.36428806
53	0xbc230b4e	-0.009951426
54	0x3ec80011	0.3906255
55	0x3e5d35ec	0.21602601
56	0x3db71a98	0.08940619
57	0xbe6e42ff	-0.23267744
58	0x3ea85895	0.32880083
59	0xbe49e0f8	-0.19714725
60	0xbee622fd	-0.4494857
61	0x3eca3d0f	0.3949971
62	0x3dfdab90	0.123862386
63	0xbe8d8c2c	-0.27646005
64	0x3e25197c	0.16123003
65	0xbda7356f	-0.081644885
66	0x3eabae7d	0.33531561
67	0x3e2824e7	0.16420327
68	0xbe9047a2	-0.28179651
69	0xbd3d0b51	-0.04615337
70	0xbe22a113	-0.15881757
71	0x3caca40b	0.021074316
72	0xbdeaecf0	-0.114709735
73	0x3dce978d	0.100875
74	0x3e221215	0.1582721
75	0x3e899a27	0.2687542
76	0x3cb4775f	0.022029577
77	0xbc862a2c	-0.016377531
78	0xbecc777b	-0.39934906
79	0xbe854233	-0.26027068
80	0xbe12f2a6	-0.14350376
81	0x3e65b7b6	0.22433361
82	0x3e0ea16c	0.13928765
83	0xbef264f6	-0.47342652
84	0x3e8586dd	0.26079455
85	0xbf1e1019	-0.61743313
86	0x3ecd74cb	0.40128168
87	0x3e8c54ed	0.27408543
88	0xbeb2feed	-0.34960118
89	0x3e849dff	0.2590179
90	0xbf62acc3	-0.88544863
91	0x3eb138b5	0.34613577
92	0x3e197519	0.14986075
93	0x3f45f50c	0.77327037
94	0xbf1af5be	-0.6053122
95	0x3e59b826	0.21261653
96	0x3e33eee4	0.17571598
97	0x3e76eb9a	0.24113312
98	0xbea4f7f7	-0.32220432
99	0x3e3eb259	0.18622722
100	0xbe764556	-0.24049887
101	0x3c1f471c	0.009721544
102	0x3e07c443	0.13258462
103	0xbedd6518	-0.4324119
104	0x3dd640d7	0.10461586
105	0x3e3e99ee	0.18613407
106	0x3ec9f6f9	0.39446238
107	0x3e9188d6	0.2842471
108	0xbedfb2c9	-0.4369109
109	0xbf747bff	-0.95501703
110	0x3ed12e26	0.4085552
111	0xbe21adc5	-0.15788944
112	0x3ea12e38	0.31480575
113	0xbf86c615	-1.05292
114	0xbed72b9c	-0.4202546
115	0x3eb0df05	0.3454515
116	0x3cacdfd7	0.021102829
117	0xbdcf5bd5	-0.101249374
118	0x3df8d27c	0.12149522
119	0x3f03d077	0.5148997
120	0x3f0802c5	0.53129226
121	0x3e886e77	0.26646778
122	0x3c653dab	0.013991754
123	0xbd156aa9	-0.036478672
124	0xbf14244b	-0.5786788
125	0xbdb238a0	-0.087022066
126	0x3e489cb0	0.19591022
127	0x3cedf00f	0.029045133
128	0xbf09fc5b	-0.5390069
129	0x3f57fb9b	0.84368294
130	0xbe5bd29c	-0.2146706
131	0x3ec0d19b	0.37659916
132	0xbe9ca7ea	-0.30596858
133	0x3e6b5395	0.22981103
134	0x3e047559	0.1293539
135	0x3e0136dc	0.12618583
136	0xbe038814	-0.12844878
137	0xbe1d7084	-0.15374953
138	0xbe0869a2	-0.13321546
139	0xbed0ac3f	-0.40756413
140	0x3f0c661f	0.54843324
141	0xbd35c4c2	-0.044377096
142	0x3eb16639	0.34648302
143	0x3e33443d	0.175065
144	0xbdf318f9	-0.118699975
145	0x3ded8bba	0.11598916
146	0x3dd4d067	0.10391312
147	0xbda5cbba	-0.080954984
148	0xbe9de065	-0.30835262
149	0x3e8722eb	0.26393828
150	0xbe75caf1	-0.24003197
151	0x3f4f4478	0.8096385
152	0xbe817ec0	-0.25292015
153	0xbee077d7	-0.4384143
154	0xbea76934	-0.3269745
155	0xbe858450	-0.2607751
156	0x3ee6ee1a	0.45103532
157	0xbeb09f65	-0.34496608
158	0xbd3666de	-0.044531696
159	0x3e4e6f8d	0.20159741
160	0xbdda2fde	-0.10653661
161	0x3e48c470	0.19606185
162	0x3e12ed4f	0.14348339
163	0xbda35e48	-0.07976967
164	0x3e8bf231	0.27333215
165	0xbd892b3b	-0.06697699
166	0xbeca63f8	-0.39529395
167	0xbec1c755	-0.3784739
168	0xbe131306	-0.14362726
169	0xbe18b42b	-0.14912479
170	0x3f219194	0.6311276
171	0xbe0188c7	-0.12649833
172	0x3ebaa05e	0.36450475
173	0xbcc7357b	-0.024317494
174	0xbe22557e	-0.15852925
175	0xbe89ab97	-0.26888725
176	0xbe677f72	-0.2260721
177	0xbea62c80	-0.32455826
178	0xbedb2382	-0.42800528
179	0xbe07ca8a	-0.13260856
180	0xbe2d09f8	-0.16898334
181	0x3d28f3a4	0.04124798
182	0x3da1e6bf	0.079053394
183	0xbe1cff93	-0.15331869
184	0x3dea8841	0.114517696
185	0x3e3e70de	0.18597743
186	0x3e9613da	0.2931202
187	0xbf1668b5	-0.5875352
188	0xbdf3773d	-0.11887977
189	0xbddfba10	-0.109241605
190	0x3eab290d	0.33429757
191	0x3e9d38f0	0.30707502
192	0xbdf12072	-0.117737666
193	0x3e235fb1	0.15954472
194	0xbda12a0a	-0.078693464
195	0x3ca4f229	0.020135002
196	0xbc8ee68d	-0.01744392
197	0xbe8ba69a	-0.27275544
198	0xbc91a3c6	-0.017778289
199	0xbc91b037	-0.017784221
200	0xbdb5c04e	-0.0887457
201	0x3e11062a	0.14162508
202	0xbebd98ab	-0.3703054
203	0x3dc553b2	0.09635104
204	0xbf226e17	-0.63449234
205	0xbd9d58fc	-0.07682988
206	0xbe18a2e2	-0.14905885
207	0xbd8b27cd	-0.06794701
208	0x3ea496cd	0.32146302
209	0xbd931d85	-0.07183365
210	0xbebd3cbf	-0.36960408
211	0x3e3e9919	0.1861309
212	0xbf236b46	-0.6383556
213	0xbdd96d91	-0.10616601
214	0x3e0e0124	0.13867623
215	0xbe2de78d	-0.16982861
216	0x3c8cb84a	0.01717772
217	0xbe78680c	-0.2425844
218	0xbf07fad0	-0.53117085
219	0x3cfc3480	0.030786753
220	0x3eb2c363	0.34914693
221	0xbe146f7b	-0.14495651
222	0x3df740bc	0.12072894
223	0x3d2bc82b	0.041938942
224	0x3d1c9a85	0.0382333
225	0xbd491cb0	-0.049099624
226	0xbee475d2	-0.4462114
227	0x3d8f0c02	0.06984712
228	0x3e81ca5f	0.2534971
229	0x3e8987ab	0.2686132
230	0xbee55e20	-0.44798374
231	0xbd2d4e8f	-0.042311247
232	0xbe7ae647	-0.24501906
233	0xbeac8b25	-0.3369991
234	0x3e01e0b4	0.12683374
235	0xbe0e7836	-0.13913044
236	0x3e09b65a	0.13448468
237	0xbeef3cd7	-0.46726105
238	0x3edc9a61	0.43086532
239	0x3e44bcbb	0.1921262
240	0xbe1ccd16	-0.15312609
241	0x3c236b38	0.009974293
242	0xbdc1ab78	-0.09456533
243	0x3df91f15	0.121641316
244	0x3edfb006	0.43688983
245	0x3f271650	0.6526842
246	0xbf28e7a0	-0.6597843
247	0xbd4340bf	-0.04766917
248	0x3efcd63e	0.49382204
249	0x3e68f613	0.2275012
250	0x3e86bec5	0.2631742
251	0x3ecbc624	0.39799607
252	0x3dfdde5a	0.12395926
253	0xbd85caf6	-0.06532852
254	0x3edf828e	0.43654293
255	0x3eb49133	0.35267028

0.bias f4 [160]
0	0xbd9008f3	-0.07032957
1	0x3dafa57a	0.08576484
2	0xbdc599b1	-0.09648455
3	0x3d2ec9ce	0.042672925
4	0xbd498c95	-0.049206335
5	0xbbc3b4e8	-0.0059724934
6	0xbcbecbe7	-0.023290588
7	0xbc91a304	-0.017777927
8	0x3dc13352	0.09433617
9	0xbe1faad2	-0.15592507
10	0xbd26a58a	-0.040685214
11	0x3d00dbc3	0.03145958
12	0xbd091a10	-0.03347212
13	0x3c86dbc3	0.016462212
14	0x3c9ec042	0.019378785
15	0xbcd3ac3d	-0.025838966
16	0x3d070774	0.032966092
17	0xbd5dce85	-0.05415203
18	0x3b0efa2a	0.002181659
19	0xbd0859e6	-0.03328886
20	0xbd29b146	-0.041428827
21	0x3c62ba19	0.013838314
22	0xbdac2013	-0.08404555
23	0xbd6b0eb8	-0.057387084
24	0xbdf005fd	-0.11719892
25	0xbd840230	-0.0644573
26	0xbceb4fb2	-0.028724525
27	0x3bda5ea3	0.0066641136
28	0xbd4cf935	-0.05004235
29	0xbc8e59d4	-0.017376818
30	0xbd54e2ba	-0.051974036
31	0xbdb6c282	-0.08923818
32	0x3ad8aed8	0.00165316
33	0xbb3728f9	-0.0027948006
34	0xbe0d18a0	-0.13778925
35	0xbd4033e8	-0.0469245
36	0xbd87f7f6	-0.06639092
37	0xbe03b7d5	-0.12863095
38	0xbd90ab05	-0.070638694
39	0xbc89c753	-0.016818678
40	0x3bc5fa72	0.0060418183
41	0x3c2bf008	0.01049424
42	0x3c451fca	0.012031505
43	0xbd39ea62	-0.04538954
44	0xbd5a5cc5	-0.05331113
45	0xbcf46dce	-0.029837515
46	0xbd03fc94	-0.0322233
47	0xbdbed37d	-0.09317682
48	0x3d79475a	0.06085906
49	0xbd8eea77	-0.06978314
50	0x3d21cc87	0.039501693
51	0xbe13e6dc	-0.14443535
52	0xbcd25cbd	-0.025678987
53	0x3dab66b7	0.08369201
54	0xbcc550cd	-0.02408638
55	0x3b8e47c0	0.0043420494
56	0xbe132310	-0.14368844
57	0xbd56633c	-0.05234073
58	0xbd002e63	-0.031294238
59	0x3d9884ca	0.074472025
60	0x3d170045	0.03686549
61	0xbdbde2c2	-0.09271766
62	0xbbc30d5c	-0.0059525203
63	0xbd531a1d	-0.051538575
64	0xbd503065	-0.050827403
65	0xbd002b87	-0.03129151
66	0xbd15d2e0	-0.03657806
67	0xbb739c46	-0.0037172004
68	0xbd9778a3	-0.073960565
69	0xbd4aec67	-0.049541857
70	0xbd000288	-0.031252414
71	0x3a894286	0.0010472096
72	0xbd3fd6d1	-0.046835724
73	0xbd1068a4	-0.035256043
74	0xbd8770ba	-0.06613298
75	0xbc81ea69	-0.015858846
76	0xbc9312ac	-0.01795324
77	0x3a9ba7b7	0.0011875544
78	0x3ca4048f	0.020021705
79	0x3d3240cc	0.043518826
80	0xbcb8ee04	-0.022574432
81	0xbdc9c990	-0.09852898
82	0xbd36e549	-0.044652257
83	0xbbd3f326	-0.0064681945
84	0xbbff6c9a	-0.0077949287
85	0xbb1a754e	-0.0023568454
86	0xbd115737	-0.035483565
87	0x3c7bc65a	0.015367115
88	0xbd692fb8	-0.056930274
89	0xbd033f79	-0.032042954
90	0x3c00acef	0.007853731
91	0x3c4b666f	0.012414559
92	0x3d98d863	0.074631475
93	0x3d93b91c	0.07213041
94	0xbd9015e5	-0.07035426
95	0xbd9a83a8	-0.07544643
96	0xbd053106	-0.032517456
97	0xbcdf0cad	-0.027227724
98	0xbd0d8229	-0.03454796
99	0x3cacebfc	0.02110862
100	0xbd3eac5d	-0.046551097
101	0x3b9b2f2c	0.004735848
102	0xbc26393c	-0.010145482
103	0x3c64bf27	0.01396159
104	0xbc97bcff	-0.018522738
105	0xbc80cf39	-0.015723811
106	0xbcc67279	-0.024224507
107	0xbcabd670	-0.020976275
108	0xbcf31122	-0.029671255
109	0xbd68ad88	-0.056806117
110	0xbc6152e4	-0.013752673
111	0x3ce33bbf	0.02773845
112	0x3cb3323c	0.02187454
113	0xbc51b44a	-0.012799332
114	0x3b17b8b2	0.0023150858
115	0xbd6ceb00	-0.0578413
116	0xbc96b58d	-0.018397117
117	0xbda8ccd4	-0.08242193
118	0xbd1fe546	-0.03903701
119	0xbd61443f	-0.054996725
120	0x3d160f2f	0.036635574
121	0xbd054faf	-0.032546695
122	0xbdbcf621	-0.09226633
123	0xbc19df83	-0.009391668
124	0xbc1aff5f	-0.009460299
125	0xbd2f2e08	-0.04276851
126	0xbd530871	-0.051521722
127	0xbc6b93de	-0.014378516
128	0x3cfb4269	0.030671315
129	0xbd3e5e8e	-0.046476893
130	0xbd85cdbb	-0.065333806
131	0xbd03efcd	-0.032211114
132	0xbbc96eb4	-0.00614723
133	0xbd088081	-0.033325676
134	0x3c9e7295	0.019341746
135	0xbd0c334a	-0.0342286
136	0xbc6a2209	-0.014290341
137	0x3c36beae	0.01115386
138	0xbaf64c3f	-0.0018791034
139	0xbc854e11	-0.016272577
140	0xbdafe864	-0.08589247
141	0xbe00a6e5	-0.12563665
142	0xbd72edbb	-0.05930875
143	0x3c3d70ae	0.011562509
144	0xbd5e9d94	-0.054349497
145	0xbd249037	-0.040176596
146	0xbd18b6af	-0.037283596
147	0x3c8653b6	0.016397338
148	0x3dbbac6e	0.09163748
149	0x3a7cd7db	0.0009645202
150	0xbbfc2ee7	-0.007696021
151	0x3dc0b5f6	0.09409706
152	0xbbd7ddf9	-0.0065877405
153	0xbcb99205	-0.022652635
154	0x3cf89c5d	0.030347997
155	0xbcdfa0ed	-0.027298415
156	0xbc444d8e	-0.011981381
157	0xbd16c2f4	-0.036807016
158	0xbd8f3fc8	-0.06994587
159	0x3da98908	0.0827809

2.weight f4 [160, 160]
0	0x3e0f4daf	0.13994478
1	0x3ded87ef	0.11598193
2	0xbd302e0c	-0.043012664
3	0xbd898114	-0.06714073
4	0xbdb3bc42	-0.08776142
5	0xbdd32208	-0.10309225
6	0x3e1e7091	0.15472628
7	0xbda14f9d	-0.07876513
8	0xbbccada1	-0.006246284
9	0x3e0717e0	0.13192701
10	0x3d18cd8f	0.03730541
11	0x3dbc2d54	0.09188333
12	0xbc4e0cbb	-0.012576277
13	0xbd065be4	-0.032802477
14	0xbd818bce	-0.06325494
15	0x3d68f16c	0.056870863
16	0xbcc88437	-0.024477107
17	0x3d13cd08	0.036084205
18	0x3d796e74	0.060896352
19	0xbdee5c2d	-0.11638675
20	0xbe510e65	-0.20415647
21	0xbd5d392a	-0.054009594
22	0xbc6bd977	-0.014395109
23	0xbdd72b03	-0.10506251
24	0xbd860265	-0.065434255
25	0xbdaee237	-0.08539241
26	0xbdaba852	-0.08381714
27	0xbd165ee9	-0.036711607
28	0x3d059517	0.032612886
29	0xbd4d1871	-0.050072137
30	0x3d097826	0.033561848
31	0xbe232300	-0.1593132
32	0xbdea6cd9	-0.11446542
33	0xbdfed710	-0.12443364
34	0xbc863bce	-0.016385939
35	0x3cdd48d4	0.027012266
36	0xbd0186d0	-0.031622708
37	0xbe552eb6	-0.208186
38	0xbe0a4ae5	-0.13505132
39	0xbb720d9c	-0.0036934381
40	0xbe3179be	-0.17331597
41	0xbd83d7e8	-0.06437665
42	0xbe5234e8	-0.20527995
43	0xbe0644bf	-0.13112162
44	0xbdf80dac	-0.12111983
45	0x3bbaf8c6	0.0057059256
46	0xbe52b3e3	-0.20576434
47	0x3dd52cac	0.10408911
48	0xbd8c18df	-0.06840681
49	0x3d9e9519	0.07743282
50	0xbe1f5983	-0.1556149
51	0x3d945bc0	0.072440624
52	0xbd3c5d37	-0.045987334
53	0xbad64250	-0.0016346667
54	0xbe5174ec	-0.20454758
55	0x3d4fb6bc	0.05071138
56	0xbdb82376	-0.08991139
57	0x3db7d101	0.08975411
58	0xbe36e6aa	-0.17861429
59	0x3c6187cc	0.013765287
60	0x3c600566	0.013673162
61	0xbe105586	-0.14095125
62	0xbdbefe57	-0.09325855
63	0xbe3931c3	-0.18085389
64	0xbd95d7b9	-0.073165365
65	0xbd9384a4	-0.072030336
66	0x3d96800e	0.07348643
67	0x3e088c2b	0.1333472
68	0x3e3233bb	0.17402546
69	0xbe49ba11	-0.19699885
70	0xbd826164	-0.06366232
71	0x3e15099a	0.14554444
72	0x3c29252f	0.010323807
73	0xbe1cc0f9	-0.15307988
74	0xbe616201	-0.22010042
75	0x3d5ce023	0.05392469
76	0x3d0ddbcf	0.034633454
77	0xbc5a7d77	-0.013335577
78	0xbdd906c9	-0.10596997
79	0x3bc29449	0.005938087
80	0xbde67dd1	-0.11254466
81	0x3e1d265d	0.15346666
82	0xbe14007c	-0.1445331
83	0x3dd76082	0.10516454
84	0xbcb8a615	-0.022540132
85	0xbdfeddc5	-0.12444643
86	0xbe4f3a07	-0.2023698
87	0xbd4ca144	-0.049958482
88	0x3adae2c4	0.0016699662
89	0x3d65385b	0.055961948
90	0x3dc01afb	0.09380146
91	0x3d3aa67c	0.045568928
92	0xbd900750	-0.07032645
93	0x3d61b169	0.055100832
94	0x3dbb5910	0.09147847
95	0xbe6f5845	-0.23373516
96	0xbd364a58	-0.044504493
97	0xbe29c8a1	-0.1658044
98	0xbdd18e00	-0.102321625
99	0x3e0919db	0.1338877
100	0xbe4292a9	-0.19001259
101	0xbe025a49	-0.12729754
102	0xbd8ffeaf	-0.07030999
103	0x3da8863f	0.082287304
104	0xbd9c7a50	-0.07640517
105	0x3e15f038	0.14642417
106	0xbe130995	-0.14359124
107	0xba32cd95	-0.0006820795
108	0xbd34adc9	-0.044111047
109	0xbdbe1869	-0.092819996
110	0x3c5ab9fb	0.013350005
111	0xbdffb697	-0.12485998
112	0x3de5385e	0.11192392
113	0xbd2cfa0a	-0.042230643
114	0x3ce01c21	0.027357163
115	0x3d048d63	0.0323614
116	0xbc6f9d1e	-0.014624862
117	0xbe4a1ba9	-0.19737114
118	0xbdfbf8bc	-0.12303302
119	0xbe0c0d90	-0.13677049
120	0xbd7a7999	-0.06115112
121	0xbe22d9fb	-0.15903465
122	0xbde69a65	-0.11259917
123	0x3dbba1ca	0.09161718
124	0xbd9749f4	-0.07387152
125	0xbe511ec3	-0.20421891
126	0x3d68bf3c	0.056823
127	0xbd7e6b28	-0.06211391
128	0xbe12e82b	-0.14346378
129	0x3c9bb3b9	0.019006597
130	0xbde2edcb	-0.11080512
131	0xbe3cd5bb	-0.18440907
132	0xbbd69d0f	-0.0065494846
133	0x3da9ad15	0.08284966
134	0xbe095a5b	-0.13413374
135	0xbd85e7fa	-0.06538387
136	0x3dddea59	0.10835714
137	0x3ca763bc	0.0204333
138	0xbdf76a93	-0.12080874
139	0xbc100200	-0.008789539
140	0xbe379e75	-0.1793154
141	0x3cbdc56d	0.023165429
142	0xbd36f117	-0.044663515
143	0xbe1710e6	-0.1475254
144	0xbe0e3882	-0.13888744
145	0xbc4df1cc	-0.012569856
146	0xbddeaee2	-0.108732
147	0xbe15ff91	-0.14648272
148	0xbe2c8e1d	-0.16851087
149	0x3badcb8c	0.0053038057
150	0x3cb15749	0.021648066
151	0xbda5892e	-0.080828056
152	0xbd8c6324	-0.06854847
153	0xbc5f22df	-0.013619154
154	0xbe133d62	-0.14378884
155	0xbd1e6c14	-0.03867729
156	0xbddf7ea4	-0.10912827
157	0xbbcbc869	-0.006218959
158	0x3dc9e06f	0.098572604
159	0xbde40fdb	-0.11135837
160	0x3c147fe7	0.009063697
161	0xbeadbae4	-0.3393165
162	0xbe88dfa5	-0.26733127
163	0x3e03f037	0.12884603
164	0xbedbaa93	-0.42903575
165	0x3e0cf7ea	0.13766447
166	0xbe956a0e	-0.29182476
167	0x3e57f883	0.21090893
168	0xbeab4ccf	-0.33457038
169	0x3e02159a	0.12703553
170	0x3e373f62	0.17895272
171	0x3e6e72ec	0.23286027
172	0xbe9f74c9	-0.31143788
173	0x3e958b47	0.29207823
174	0xbe71d8f1	-0.23617913
175	0x3e731c9d	0.23741384
176	0xbdaefaa2	-0.08543898
177	0xbf301384	-0.6877978
178	0x3ec18a0b	0.3780063
179	0xbf136fe9	-0.57592636
180	0x3ef0c370	0.47024107
181	0xbed035c0	-0.40666008
182	0x3db22aae	0.08699547
183	0x3f00eb0a	0.5035864
184	0x3c6d8676	0.01449739
185	0xbf2b2f9b	-0.66869515
186	0x3e2741b2	0.16333655
187	0x3e60f858	0.21969736
188	0x3dd0981a	0.10185261
189	0xbd788e0e	-0.06068235
190	0xbd7c010b	-0.061524432
191	0xbe13fc5d	-0.14451738
192	0xbe84274c	-0.2581123
193	0xbcfe1cae	-0.031019535
194	0xbee19c51	-0.44064572
195	0x3e1e33a2	0.15449384
196	0x3d70ce94	0.05879076
197	0x3e94816b	0.29004988
198	0xbea1d821	-0.31610206
199	0x3e53a9c0	0.20670223
200	0x3e469483	0.1939259
201	0xbde7c56c	-0.11316952
202	0x3f064fe8	0.5246568
203	0x3ed749b7	0.42048427
204	0xbe6251c2	-0.221015
205	0xbdc8a6ac	-0.09797415
206	0xbeb095d7	-0.3448932
207	0xbea03aed	-0.31294957
208	0x3cc8a7d4	0.02449409
209	0xbd795a95	-0.0608774
210	0xb918eb07	-0.00014583404
211	0x3e482a3b	0.1954736
212	0x3e14bbf9	0.14524831
213	0xbd90e6ef	-0.07075297
214	0xbea3de02	-0.32005316
215	0x3e92831d	0.28615656
216	0x3ed6d6e7	0.41960832
217	0xbe2a9b8c	-0.16660899
218	0xbe30389e	-0.17209098
219	0xbef77989	-0.4833491
220	0x3df0f19e	0.11764835
221	0xbd8a9e4b	-0.06768473
222	0xbeb3d9ee	-0.35127205
223	0x3c800370	0.01562664
224	0x3e8362c7	0.256613
225	0xbe072fb5	-0.13201793
226	0xbd635e56	-0.055509888
227	0x3ed5e415	0.41775575
228	0xbcab9f35	-0.02094994
229	0xbe5a43cf	-0.2131493
230	0x3ec70837	0.38873455
231	0xbe313994	-0.1730712
232	0xbdb7f374	-0.08981982
233	0x3ea1984b	0.31561503
234	0xbe8776c4	-0.26457798
235	0x3dbc59e9	0.091968365
236	0xbf6801c3	-0.9062769
237	0xbe2c5173	-0.16827945
238	0x3ccc511b	0.024941018
239	0x3bb007c5	0.00537202
240	0xbe60f77f	-0.21969412
241	0x3ea55630	0.32292318
242	0xbda81c33	-0.082085036
243	0x3e6c903e	0.23101899
244	0x3db447ca	0.08802755
245	0x3e5dccbd	0.21660133
246	0xbeaacb46	-0.3335821
247	0xbe6a77d8	-0.2289728
248	0xbea211a3	-0.3165408
249	0x3e0a5dd0	0.13512349
250	0x3ea598ec	0.32343233
251	0xbe5a3263	-0.21308284
252	0x3e360afd	0.17777629
253	0x3d30c4cd	0.043156434
254	0xbe8356dd	-0.2565221
255	0xbe9f5718	-0.31121135

2.bias f4 [160]
0	0xbd6e95c2	-0.05824829
1	0x3ba3eb65	0.0050024264
2	0xbe097b5c	-0.13425964
3	0xbe21dba6	-0.15806445
4	0xbd620fa6	-0.055190705
5	0xbe2914f9	-0.16511907
6	0xbd53f66a	-0.05174867
7	0xbdf61f80	-0.12017727
8	0x3d56a03a	0.052398898
9	0x3e021951	0.1270497
10	0x3d4b2016	0.049591146
11	0x3d141802	0.036155708
12	0xbd37ee03	-0.04490472
13	0xbd493f2e	-0.04913252
14	0xbbde8560	-0.006790802
15	0x3cc3dd1f	0.02390915
16	0xbd8fc446	-0.07019858
17	0xbe04d77b	-0.12972824
18	0xbd4df347	-0.050280835
19	0x3e10d9c9	0.14145578
20	0x3e7906ce	0.24319002
21	0xbd553bd4	-0.05205901
22	0xbd15911c	-0.03651534
23	0xbdc6d186	-0.09707932
24	0x3ceab9eb	0.028653106
25	0x3d8fc7a5	0.07020501
26	0x3d65cd84	0.056104198
27	0xbd0113b1	-0.03151292
28	0x3c3bf4e9	0.011471965
29	0xbcfb9e19	-0.030715035
30	0x3db88649	0.09009988
31	0x3e65ccb3	0.22441368
32	0xbaed4369	-0.0018101755
33	0xbd107b08	-0.03527358
34	0x3dfdf15c	0.12399551
35	0x3dd39d2d	0.10332713
36	0xbc12a2ed	-0.008949977
37	0xbc505954	-0.01271661
38	0x3dafc796	0.0858299
39	0x3cc1c50a	0.023653526
40	0x3d163fd5	0.03668197
41	0x3cdc9045	0.026924262
42	0xbdce4bf6	-0.10073082
43	0xbe52cd2d	-0.20586081
44	0xbd99f94c	-0.07518253
45	0xbd049f97	-0.03237876
46	0xbc4980e6	-0.012298798
47	0xbdc99359	-0.098425575
48	0xbdaff510	-0.08591664
49	0xbd8b7325	-0.068090715
50	0xbd9a3297	-0.075291805
51	0x3d1ac0d2	0.037781544
52	0xbd95598a	-0.07292469
53	0xbe2fe5c2	-0.1717749
54	0xbda56996	-0.080767795
55	0x3d787a9e	0.06066381
56	0x3dad13ca	0.0845104
57	0x3d068fd0	0.032851994
58	0xbdde9d69	-0.10869867
59	0xbdd2e39d	-0.1029732
60	0xbd944b90	-0.07240975
61	0xbe1faa67	-0.15592347
62	0xbddbf652	-0.10740341
63	0x3e6ef193	0.23334341
64	0xbd96e41d	-0.07367728
65	0x3e56a2b8	0.2096051
66	0x3d521307	0.051287677
67	0xbddf7607	-0.10911184
68	0xbce4317f	-0.027855633
69	0xbdc651c9	-0.09683568
70	0xbccbf91e	-0.024899062
71	0x3de6b422	0.11264826
72	0xbd672527	-0.056431916
73	0x3cd149ad	0.025547827
74	0xbd86c6d2	-0.06580891
75	0xbe49884e	-0.19680902
76	0xbe433a68	-0.19065249
77	0x3cabeb9e	0.020986374
78	0xbd7c9c92	-0.061672755
79	0xbd6e1fb8	-0.058135718
80	0x3db7b189	0.08969409
81	0xbdf1f819	-0.11814899
82	0xbe49a0bc	-0.19690222
83	0x3e3d713d	0.18500228
84	0xbe000baa	-0.1250445
85	0xbeb77c4f	-0.35837027
86	0x3da837ab	0.08213743
87	0x3d3ceccc	0.046124265
88	0xbe600dd7	-0.2188028
89	0xbc89f268	-0.016839221
90	0xbe2be4ca	-0.16786495
91	0xbd04f896	-0.032463633
92	0xbd134b0e	-0.03596025
93	0xbce55fd3	-0.027999794
94	0x3c9fd2f4	0.01950977
95	0xbe1c46d4	-0.15261394
96	0x3d03c4e7	0.032170203
97	0xbd94171b	-0.072309695
98	0x3dd246f7	0.10267442
99	0x3dc9a511	0.09845937
100	0xbe365d9e	-0.1780915
101	0x3b9b9db3	0.004749024
102	0xbcfd6040	-0.030929685
103	0xbcd13f32	-0.02554283
104	0xbdef4e3c	-0.11684844
105	0x3d8082eb	0.062749706
106	0xbe20d957	-0.15707909
107	0x3d7cff05	0.061766643
108	0xbd615a09	-0.055017505
109	0xbda444c2	-0.08020927
110	0x3e55ee9a	0.208918
111	0xbd4749e9	-0.04865447
112	0xbd698755	-0.05701383
113	0xbd380d1b	-0.044934373
114	0xbd2a1534	-0.041524127
115	0xbd88aee0	-0.0667398
116	0x3e8fd322	0.2809077
117	0xbe85d14f	-0.26136252
118	0xbda870a7	-0.08224612
119	0x3cd217db	0.02564614
120	0x3d41b454	0.047291115
121	0x3d2268f9	0.03965089
122	0x3d221401	0.03956986
123	0xbd88eda2	-0.0668595
124	0xbd53125f	-0.051531192
125	0xbe0b0fe8	-0.13580287
126	0xbd479105	-0.048722286
127	0x3e73d7b5	0.23812754
128	0xbd8e53d3	-0.06949582
129	0xbd702c4d	-0.058636
130	0xbd2804d1	-0.04102022
131	0xbe2f0bc0	-0.17094326
132	0x3d087f14	0.033324316
133	0x3dcf3aaf	0.10118615
134	0x3e0397d6	0.1285089
135	0xbdfcea72	-0.123494044
136	0x3d91d23f	0.071201794
137	0x3d56ae87	0.052412536
138	0xbdcf5127	-0.101229005
139	0xbd2f6cd0	-0.04282838
140	0x3d8d49b2	0.06898822
141	0x3dca93f9	0.09891505
142	0x3e077bb5	0.13230784
143	0xbd5c8958	-0.05384192
144	0xbd89bbaf	-0.06725251
145	0xbd25c4a0	-0.04047072
146	0xbda57be6	-0.080802724
147	0x3d6500f5	0.055909116
148	0x3df4a5f9	0.11945719
149	0x3db2c68e	0.087292776
150	0x3cffc97c	0.031224005
151	0x3dfb20a2	0.122620836
152	0x3e4d03d4	0.20020992
153	0x3d3202fd	0.04345988
154	0xbe56f032	-0.20990065
155	0xbe2c8b16	-0.16849932
156	0x3bc91e88	0.006137673
157	0xbdb623be	-0.08893536
158	0x3e085af9	0.13315953
159	0x3d3cb0c9	0.046067033

4.weight f4 [160, 160]
0	0x3ddb2709	0.10700805
1	0xbeee2c5e	-0.46518224
2	0x3de2b3a4	0.1106942
3	0xbe3bdd99	-0.18346252
4	0x3e0d4de6	0.13799247
5	0xbf074d71	-0.5285254
6	0xbdeba593	-0.1150619
7	0xbd70ca53	-0.0587867
8	0x3dd3c6ae	0.103406295
9	0xbe24d4bd	-0.16096778
10	0xbeb43dc3	-0.3520337
11	0xbded499a	-0.11586304
12	0x3dcf4014	0.10119644
13	0x3e847bb6	0.25875634
14	0xbe0ba5aa	-0.13637415
15	0x3eb4108f	0.35168883
16	0x3b18c0b1	0.0023308212
17	0xbe2baffc	-0.16766351
18	0x3cd63b42	0.026151303
19	0xbcdc5a69	-0.02689858
20	0xbeb41f71	-0.35180238
21	0x3db1c834	0.08680764
22	0x3ea754af	0.32681796
23	0x3e9dfdac	0.308576
24	0xbe23d29f	-0.15998314
25	0x3da8370e	0.08213626
26	0x3d7789d1	0.060434166
27	0xbea121de	-0.3147115
28	0x3e84a961	0.25910476
29	0x3e4e4ba8	0.20146048
30	0xbed61fb0	-0.4182105
31	0x38d9802c	0.0001037124
32	0x3e0f1590	0.13973069
33	0xbf928148	-1.1445704
34	0xbdbd2b1b	-0.09236737
35	0xbed39149	-0.4132178
36	0xbe9b88af	-0.3037772
37	0xbe4e3a27	-0.20139371
38	0x3ce0266c	0.027362071
39	0x3e410790	0.18850541
40	0xbf55ef40	-0.8356819
41	0xbe319de7	-0.17345391
42	0x3e96bf04	0.29442608
43	0xbe18571b	-0.14876978
44	0x3bd1c779	0.006401953
45	0x3e05352c	0.13008565
46	0xbe870bbc	-0.2637614
47	0xbfa1e3da	-1.264766
48	0x3ed17512	0.4090963
49	0x3bb29b52	0.0054506445
50	0xbdac602f	-0.08416783
51	0xbda5aed7	-0.08089989
52	0x3dfd56b4	0.12370053
53	0xbf13c0f1	-0.5771628
54	0xbdb32f57	-0.08749264
55	0x3e093bf0	0.1340177
56	0x3e714b66	0.23563918
57	0xbf022e27	-0.5085167
58	0x3d3e8f43	0.046523344
59	0xbc25cf7a	-0.010120267
60	0x3ebe67c3	0.3718854
61	0xbe61f9cd	-0.22067948
62	0x3dfe1300	0.12405968
63	0xbee0ff43	-0.4394475
64	0xbf0d28f0	-0.5514059
65	0xbebcad6b	-0.36851057
66	0xbdc9a64b	-0.09846171
67	0x3e80dfd7	0.25170776
68	0x3e37015e	0.17871615
69	0x3ee36011	0.4440923
70	0x3e670099	0.22558822
71	0xbe1cb302	-0.15302661
72	0x3deb3458	0.11484593
73	0xbd6f0e09	-0.058362994
74	0xbf29f0f6	-0.663833
75	0x3d625808	0.055259734
76	0xbf027cfa	-0.5097195
77	0xbea473bc	-0.32119548
78	0x3e150932	0.14554289
79	0x3da315ed	0.079631664
80	0x3e7e9acd	0.2486374
81	0x3e34c758	0.17654169
82	0x3f398662	0.72470677
83	0xbe391067	-0.18072663
84	0xbe402b4f	-0.18766521
85	0x3eb33f2f	0.35009143
86	0xbedd3dab	-0.4321111
87	0xbd67f7d1	-0.05663282
88	0xbe0dd1e9	-0.13849606
89	0xbe1f13f0	-0.1553495
90	0x3e3af9e2	0.18259385
91	0xbd817c10	-0.06322491
92	0xbd7ed740	-0.062216997
93	0xbe152868	-0.14566195
94	0xbdb8240c	-0.089912504
95	0x3c00dfe3	0.007865879
96	0xbe905583	-0.2819024
97	0x3da4b5e1	0.08042503
98	0xbe5be48c	-0.21473902
99	0xbe70ef38	-0.23528755
100	0x3d25c21e	0.040468328
101	0xbf00d4f7	-0.5032496
102	0xbdf5ac17	-0.11995714
103	0xbd5edbf1	-0.05440897
104	0x3e43c149	0.19116701
105	0xbe4d0306	-0.20020685
106	0xbda31c0c	-0.07964334
107	0x3e274305	0.1633416
108	0xbc532783	-0.012887838
109	0xbd97e9cd	-0.07417641
110	0xbf88334d	-1.0640656
111	0xbcd89cec	-0.026442014
112	0x3d86119f	0.0654633
113	0xbe58876c	-0.2114541
114	0xbec08022	-0.37597758
115	0x3e984ec3	0.2974759
116	0xbf1ea7b8	-0.6197467
117	0xbedf9ac1	-0.43672755
118	0x3e7885d4	0.24269801
119	0x3e5f74b5	0.21821864
120	0x3e95ae9d	0.29234782
121	0x3ae0d8f8	0.0017154505
122	0xbe334600	-0.17507172
123	0x3e8940c3	0.26807222
124	0x3e01cb9b	0.12675326
125	0xbe9a8b76	-0.30184525
126	0xbdf63945	-0.12022642
127	0x3eee428e	0.46535152
128	0xbdfc28e2	-0.12312485
129	0x3da32b0d	0.07967196
130	0xbda5fa12	-0.08104338
131	0x3f19af52	0.6003314
132	0x3d0683e7	0.032840636
133	0xbdc984bb	-0.098397695
134	0x3e465dca	0.19371715
135	0xbea9367f	-0.3304939
136	0x3dba48da	0.090959266
137	0x3e228a7b	0.15873139
138	0x3df3f89f	0.11912655
139	0xbe4b7a6d	-0.1987092
140	0x3e470549	0.1943561
141	0xbe9638d6	-0.29340237
142	0x3e3cd033	0.18438797
143	0xbe221273	-0.1582735
144	0x3e024c0f	0.12724327
145	0xbe40505a	-0.18780652
146	0xbe38a16f	-0.18030332
147	0x3ee42414	0.44558775
148	0x3e5dbe61	0.21654655
149	0xbd39fd99	-0.045407865
150	0x3e77e0f2	0.24206904
151	0xbe97b00a	-0.29626495
152	0xbc262e25	-0.010142838
153	0xbe2f432e	-0.17115471
154	0xbece3ae5	-0.40279308
155	0x3d883505	0.06650738
156	0x3e5e5fa9	0.21716179
157	0xbada2d64	-0.0016645608
158	0x3dc29c7b	0.095025025
159	0xbdd2f1de	-0.10300039
160	0x3daa9725	0.0832961
161	0xbb2ee327	-0.0026685686
162	0x3e203b8f	0.1564772
163	0x3d8918e1	0.066941984
164	0xbdb2bc66	-0.087273404
165	0x3cbdf71e	0.023189124
166	0xbcd723aa	-0.026262123
167	0x3d6b2666	0.057409666
168	0x3e169afa	0.14707556
169	0x3eb0722f	0.34462115
170	0x3de1ffcc	0.110351175
171	0x3ebd9d01	0.37033847
172	0xbc9fe843	-0.01951993
173	0x3d985fc8	0.07440144
174	0xbe0fe9ae	-0.14053985
175	0xbcfe8700	-0.031070232
176	0xbdac599d	-0.0841553
177	0xbdbf0272	-0.09326638
178	0x3e2ca90d	0.16861363
179	0x3e8dee19	0.27720717
180	0x3f026d75	0.5094827
181	0xbd50afd0	-0.050948918
182	0x3e0fb8cd	0.1403534
183	0x3d362aec	0.044474527
184	0x3eafb784	0.343197
185	0x3f490fb0	0.7853956
186	0x3eeed756	0.46648663
187	0xbd68b1ef	-0.056810316
188	0x3c8024f6	0.015642624
189	0xbde40939	-0.111345716
190	0xbdd29087	-0.10281473
191	0x3ef0f814	0.4706427
192	0x3dc00253	0.09375443
193	0x3e579075	0.210512
194	0x3e8c4dad	0.27403012
195	0x3e95cdb6	0.29258507
196	0xbca4dee4	-0.020125814
197	0x3eb6c154	0.35694373
198	0x3da7294f	0.08162176
199	0x3e828397	0.2549102
200	0xbcf510dc	-0.029915266
201	0xbdaa5154	-0.08316293
202	0xbe8d32d6	-0.27577847
203	0xbec9957e	-0.39371866
204	0x3c4a6203	0.012352469
205	0xbc9d06e5	-0.019168327
206	0x3ea5aafd	0.32357016
207	0xbed24fd0	-0.41076517
208	0xbea09bad	-0.3136877
209	0x3e260835	0.16214068
210	0x3cf461cc	0.02983179
211	0x3e267762	0.16256478
212	0xbce8459f	-0.02835351
213	0x3dfdcc40	0.12392473
214	0xbe2b9f2d	-0.1675994
215	0x3efb33ad	0.49062863
216	0x3e145f55	0.14489491
217	0x3f00cfc6	0.5031704
218	0xbd6eaac0	-0.05826831
219	0xbe84a41a	-0.2590645
220	0xbdb1fb90	-0.0869056
221	0x3b16c7ed	0.0023007349
222	0xbe283e96	-0.16430125
223	0x3f3dea00	0.7418518
224	0x3d52aa95	0.05143221
225	0x3e8be640	0.27324104
226	0x3e0920d8	0.13391435
227	0xbed6a265	-0.41920772
228	0xbe9c5c75	-0.3053929
229	0xbe0610ff	-0.13092421
230	0x3dab1b55	0.083548225
231	0x3eccd2d0	0.40004587
232	0xbd25f9f5	-0.04052158
233	0xbaca6cae	-0.0015443766
234	0x3f2c9a0e	0.6742257
235	0xbea9f552	-0.33194977
236	0xbc887e29	-0.01666172
237	0x3e54df7e	0.2078838
238	0x3d85c227	0.06531172
239	0xbcfd2a32	-0.03090391
240	0x3ed16dfb	0.4090422
241	0x3e07f952	0.13278702
242	0xbe99d545	-0.30045524
243	0x3f223f6c	0.63378024
244	0x3eff7a64	0.49898064
245	0xbe83b62e	-0.2572493
246	0x3e58bf9f	0.21166848
247	0x3f043dcf	0.5165681
248	0x3da9dd47	0.082941584
249	0x3d5a7974	0.053338483
250	0xbe94e385	-0.29079834
251	0x3e006d2b	0.12541644
252	0x3e32c479	0.17457761
253	0xbe981506	-0.2970354
254	0x3da0d95b	0.07853957
255	0xbea6e77a	-0.32598478

4.bias f4 [160]
0	0xbe1e98f2	-0.15488032
1	0x3e923b8a	0.2856105
2	0xbe58883a	-0.21145716
3	0xbd352215	-0.044221956
4	0xbd556651	-0.05209953
5	0xbe9cbf3c	-0.3061465
6	0xbdeeb0ea	-0.116548374
7	0x3cd67479	0.026178585
8	0xbcf5e19f	-0.030014811
9	0xbd05e561	-0.032689456
10	0x3d8c1e7e	0.068417534
11	0x3e020bc2	0.12699798
12	0x3dea78c9	0.11448819
13	0xbd199182	-0.037492283
14	0x3df236ba	0.118268445
15	0xbc1ca7d0	-0.009561494
16	0xbd242887	-0.040077712
17	0x3e210a89	0.15726675
18	0xbbc55d7b	-0.0060231066
19	0xbdb16655	-0.086620964
20	0xbdac456d	-0.084116794
21	0xbe03f7e7	-0.12887536
22	0xbe0a4b81	-0.13505365
23	0x3d3b2711	0.045691554
24	0x3e5a0e95	0.21294625
25	0xbda93c76	-0.08263485
26	0xbd6bf704	-0.05760862
27	0x3e979201	0.2960358
28	0xbd96754e	-0.07346593
29	0x3c9ed7ae	0.019389953
30	0xbe20ae8a	-0.15691581
31	0x3c89ef6f	0.016837804
32	0xbe15cbb1	-0.14628483
33	0xbe98a9c7	-0.2981703
34	0xbe048c68	-0.12944186
35	0xbd800223	-0.062504075
36	0xbd962db2	-0.073329344
37	0xbe29c68c	-0.16579646
38	0x3c98225c	0.018571071
39	0xbdaadb32	-0.083425894
40	0xbd1c8974	-0.038217023
41	0xbe50902a	-0.20367494
42	0xbcc905e0	-0.024538934
43	0xbb4bdf45	-0.003110842
44	0xbe4a57a9	-0.19760002
45	0xbda8c71e	-0.082411036
46	0xbe0c68b5	-0.13711818
47	0xbd2a1f40	-0.04153371
48	0x3e7624b5	0.2403744
49	0xbda46451	-0.08026946
50	0xbdbc46e2	-0.09193207
51	0xbd81630b	-0.06317719
52	0xbddf2b51	-0.10896934
53	0x3d96f5f6	0.07371132
54	0x3d809d88	0.06280047
55	0xbe3c2845	-0.18374737
56	0xbe191ff6	-0.14953598
57	0xbdd609d8	-0.10451096
58	0xbe53b5d3	-0.20674829
59	0xbe6187b1	-0.22024418
60	0xbd8d7e88	-0.069088995
61	0x3c15d4ed	0.009145004
62	0x3c9131b9	0.017723905
63	0xbd108005	-0.03527834
64	0xbdb9f2b2	-0.090794936
65	0xbdc542c9	-0.09631879
66	0xbde10eca	-0.10989149
67	0x3e2dc600	0.16970062
68	0xbd3bf391	-0.04588658
69	0xbd931492	-0.07181658
70	0xbe22b3c4	-0.15888888
71	0x3d7269e1	0.059183005
72	0xbe46ea55	-0.19425328
73	0x3d468202	0.04846383
74	0xbdc4df2d	-0.0961288
75	0x3d459dcb	0.048246186
76	0xbdf16158	-0.11786145
77	0x3ed399e7	0.41328356
78	0x3d73ca04	0.05951883
79	0x3dc19b4d	0.094534494
80	0x3e204c15	0.15654023
81	0xbe256407	-0.16151439
82	0xbe00b1a4	-0.12567765
83	0xbda04d8a	-0.078272894
84	0xbdfebd7b	-0.12438484
85	0x3d8c78ba	0.06858964
86	0xbd94af2d	-0.07259975
87	0xbd4d00ba	-0.05004952
88	0xbe3a6362	-0.18201974
89	0xbdb7d30b	-0.089758
90	0xbe1f0e7c	-0.15532869
91	0xbd8f27fa	-0.06990047
92	0x3e1beaf6	0.15226349
93	0x3da4ab4d	0.080404855
94	0x3db3be5d	0.08776543
95	0xba0cb069	-0.00053668633
96	0xbe939d29	-0.2883084
97	0xbd985bb6	-0.074393675
98	0xbe0c4500	-0.13698196
99	0x3eab43f3	0.3345028
100	0x3e634a46	0.22196302
101	0xbe1e64cf	-0.15468143
102	0x3bf03ef1	0.007331722
103	0x3cfd29ea	0.030903775
104	0xbe03d099	-0.12872542
105	0xbd8b4e42	-0.06802036
106	0xbc0a48e3	-0.008440229
107	0xbd1f2050	-0.038849175
108	0xbda9c784	-0.08290008
109	0x3e263a53	0.16233186
110	0xbe052235	-0.1300133
111	0xbc5a739d	-0.013333228
112	0xbe462311	-0.19349314
113	0xbe01ff12	-0.12694958
114	0xbde463d7	-0.111518554
115	0xbd43bab1	-0.047785465
116	0x3e2fac38	0.1715554
117	0x3e1eca20	0.15506792
118	0xbe2b7da1	-0.16747142
119	0xbe5b2dea	-0.21404234
120	0xbd8fc6f0	-0.07020366
121	0xbd867fa2	-0.06567313
122	0xbd55b73d	-0.052176703
123	0xbeaf2ed8	-0.34215426
124	0x3c9177f1	0.017757388
125	0xbe7bec25	-0.246018
126	0xbdfd3a40	-0.12364626
127	0x3e2fc1e3	0.17163806
128	0x3a07ff62	0.00051878963
129	0x3e6e92dd	0.23298211
130	0xbd4b3c2f	-0.049617942
131	0xbdd6453d	-0.10462425
132	0xbce1c72e	-0.027560797
133	0xbdcfd8bb	-0.1014876
134	0xbe9ff17e	-0.3123893
135	0xbd9e6aa1	-0.077351816
136	0xbe292cc0	-0.16520977
137	0x3e048550	0.1294148
138	0xbe0f6865	-0.14004667
139	0xbbdc5f4f	-0.006725229
140	0xbe04e5f3	-0.12978344
141	0xbdc1a442	-0.09455158
142	0xbd0f8525	-0.035039086
143	0xbdf8d26b	-0.12149509
144	0x3d4edb8f	0.050502356
145	0x3d943f4f	0.07238638
146	0x3d2776ce	0.040884785
147	0xbd92e01e	-0.07171653
148	0x3d5758ca	0.05257491
149	0x3c7954f6	0.01521801
150	0x3db617fc	0.088912934
151	0xbc8a2a6f	-0.016865937
152	0xbc6b60e7	-0.014366365
153	0xbdb55666	-0.0885437
154	0xba13039d	-0.00056081434
155	0xbe30b376	-0.17255959
156	0xbe3e5084	-0.18585402
157	0xbd5c6554	-0.05380757
158	0x3cd394ec	0.025827847
159	0x3db5d038	0.08877605

6.weight f4 [12, 160]
0	0xbbca617d	-0.0061761723
1	0x3c49765e	0.012296287
2	0x3d57cc21	0.052684907
3	0x3d0ba5fa	0.034093834
4	0x3d37e6f0	0.044897974
5	0x3cb3ce50	0.021948963
6	0x3d96f494	0.07370868
7	0xbdc2f7a9	-0.09519894
8	0xbd7708f8	-0.060311288
9	0x3e21ab36	0.15787968
10	0xbe410106	-0.18848047
11	0xbd5d59ab	-0.054040592
12	0xbdf20a9a	-0.11818428
13	0xbe1e6de2	-0.15471604
14	0xbe7c4c3b	-0.24638455
15	0xbd086f00	-0.033308983
16	0x3d68ef24	0.056868687
17	0xbe010dcf	-0.12602924
18	0x3e94f592	0.29093605
19	0xbe0becd0	-0.13664556
20	0xbde05d10	-0.1095525
21	0xbeabade5	-0.33531108
22	0x3e228c8a	0.15873924
23	0xbe0aa424	-0.13539177
24	0x3d77bc34	0.06048222
25	0xbe05e9ba	-0.13077441
26	0x3e0e035e	0.13868472
27	0xbe70ee04	-0.23528296
28	0x3d10acb2	0.035320945
29	0xbdb9ac8e	-0.09066115
30	0xbe9103b6	-0.28323144
31	0x3ebe709b	0.37195286
32	0xbeee6d41	-0.4656773
33	0x3dc2461b	0.09486028
34	0xbeb13d14	-0.3461691
35	0x3be0ef0b	0.0068644336
36	0x3e21db5b	0.15806334
37	0xbe641a18	-0.22275579
38	0xbe1a9f6a	-0.15099874
39	0xbd255b7c	-0.04037045
40	0xbe6470f4	-0.22308713
41	0xbd60b022	-0.054855473
42	0xbde0773f	-0.109602444
43	0xbec4c73e	-0.3843326
44	0x3e13d8d0	0.14438176
45	0xbdd2945f	-0.10282206
46	0xbc31b1d5	-0.010845621
47	0xbcc39a3e	-0.02387726
48	0xbe614743	-0.2199984
49	0x3e021224	0.12702233
50	0xbe134dba	-0.14385119
51	0xbe57a14f	-0.21057628
52	0xbc913089	-0.017723339
53	0xbd8b7835	-0.06810037
54	0xbe12d8f7	-0.14340578
55	0x3e271953	0.16318254
56	0xbefb6c0f	-0.4910588
57	0xbece46e3	-0.40288457
58	0x3e04ceae	0.12969467
59	0xbe877509	-0.26456478
60	0xbd0a042e	-0.033695392
61	0x3ef925ae	0.4866156
62	0xbe8ccc7e	-0.27499765
63	0x3cc57d68	0.02410765
64	0xbbd3315b	-0.0064450926
65	0x3de2a216	0.11066072
66	0x3e099440	0.13435459
67	0xbde08ad5	-0.1096398
68	0xbe0f7274	-0.14008504
69	0xbd76184a	-0.060081758
70	0x3d545854	0.05184205
71	0x3eee669c	0.4656266
72	0x3e4cf10d	0.20013829
73	0xbe3b1f9a	-0.18273774
74	0x3db1e12c	0.08685526
75	0xbeb37b71	-0.35055116
76	0x3c5ecb36	0.013598254
77	0xbe52e508	-0.20595181
78	0xbdbfc4ae	-0.093636855
79	0x3dfda7ea	0.12385543
80	0x3b9f50de	0.004861935
81	0xbc4694c7	-0.012120432
82	0xbeb107ca	-0.34576255
83	0x3cf1f609	0.029536264
84	0x3ec08e50	0.37608576
85	0xbe0e979f	-0.13925026
86	0x3e920e24	0.28526413
87	0x3c9234fb	0.017847529
88	0x3e0ff586	0.14058504
89	0xbe96342b	-0.29336676
90	0x3ddcf5d1	0.10789073
91	0xbd83139a	-0.06400223
92	0x3d560d8f	0.052259024
93	0x3e41e840	0.18936253
94	0x3dc42dd9	0.09579057
95	0x3dc38114	0.09546104
96	0x3e1dc7de	0.15408275
97	0xbe7ad651	-0.24495818
98	0x3d578400	0.05261612
99	0xbe81411d	-0.2524499
100	0xbe4f4700	-0.20241928
101	0xbe0771e1	-0.13227035
102	0xbe27e622	-0.16396382
103	0xbe13f3ce	-0.14448473
104	0x3cd99c71	0.026563855
105	0xbd3e7a44	-0.04650332
106	0x3e8e1e5d	0.2775754
107	0xbd287159	-0.04112372
108	0xbe5280d3	-0.20556955
109	0xbe5e2e6a	-0.21697393
110	0x3ef36dc7	0.4754469
111	0xbb9b92ac	-0.0047477093
112	0x3e811de3	0.25218114
113	0x3da6bcbb	0.08141466
114	0xbe9847d3	-0.29742298
115	0xbe08a5f9	-0.13344564
116	0xbe3aba71	-0.18235184
117	0xbdd3afb2	-0.103362456
118	0xbe37b00c	-0.1793825
119	0xbe61d097	-0.22052227
120	0x3d2bf08b	0.041977447
121	0x3e338a43	0.17533211
122	0xbc81b863	-0.015834993
123	0x3d91a9f0	0.07112491
124	0xbe2a0907	-0.16605006
125	0xbe267d51	-0.16258742
126	0xbe84bc06	-0.259247
127	0x3d4c0668	0.049810797
128	0xbe9e902a	-0.30969363
129	0xbe77ca4c	-0.24198264
130	0xbe04f458	-0.12983835
131	0x3bb6e475	0.0055814334
132	0xbe015008	-0.12628186
133	0xbecf7ce0	-0.4052496
134	0x3c871004	0.016487129
135	0x3bf08472	0.0073400075
136	0xbdb59e75	-0.08868114
137	0x3d991114	0.074739605
138	0x3e4148ca	0.18875423
139	0x3e0abf98	0.1354965
140	0xbe41c06f	-0.18921064
141	0x3e3091da	0.17243138
142	0x3dbf8fe0	0.09353614
143	0xbe41fb0b	-0.18943422
144	0x3c80579e	0.01566678
145	0xbdca19b1	-0.098681815
146	0xbe9416f9	-0.28923777
147	0xbefa4a4d	-0.48884812
148	0xbdf6c448	-0.120491564
149	0x3d4fa2b8	0.05069229
150	0xbe8bafcd	-0.27282563
151	0xbe95c592	-0.29252297
152	0xbe0e8f3d	-0.13921829
153	0xbd2e96bd	-0.042624224
154	0xbe8f5208	-0.27992272
155	0x3e67608b	0.22595422
156	0x3ddcbbed	0.107780315
157	0x3e50b85a	0.20382825
158	0xbe34173c	-0.17586988
159	0xbec845e0	-0.3911581
160	0x3f128b49	0.5724378
161	0xbf1dd89f	-0.6165866
162	0x3c1e98b3	0.009679961
163	0x3e8b273c	0.2717837
164	0xbf132cdb	-0.5749032
165	0x3e8d996f	0.27656123
166	0xbeb3fb78	-0.35152793
167	0xbe100290	-0.14063478
168	0x3e241913	0.1602519
169	0x3e5356d1	0.20638587
170	0xbe8d2856	-0.27569836
171	0xbe0f7cb0	-0.14012408
172	0xbe604553	-0.21901445
173	0xbd902008	-0.070373595
174	0xbe2700a6	-0.16308841
175	0x3d667e39	0.05627272
176	0xbead294a	-0.33820564
177	0x3bfa8a2c	0.007645866
178	0x3e8e05ee	0.277389
179	0x3d34fe34	0.04418774
180	0xbcb8d6ab	-0.0225633
181	0xbe623906	-0.22092065
182	0xbe9b6c89	-0.30356243
183	0xbf08350c	-0.53205943
184	0xbf024ba1	-0.5089665
185	0xbdaaed6b	-0.08346065
186	0x3e9c7a5f	0.30562112
187	0xbee125b6	-0.43974084
188	0x3bad2035	0.0052833804
189	0x3d81046e	0.06299673
190	0xbed63cd4	-0.41843283
191	0x3eac4873	0.33649024
192	0xbe6aa366	-0.22913894
193	0xbe061547	-0.13094054
194	0xbdef714e	-0.11691533
195	0xbde944b3	-0.113900565
196	0x3d807ac0	0.06273413
197	0x3e183074	0.14862233
198	0xbe32ccc2	-0.17460921
199	0xbe1a283e	-0.15054414
200	0xbdb10d43	-0.086451076
201	0x3de1c46a	0.11023791
202	0x3f14bd91	0.58101755
203	0xbd73a4e5	-0.059483428
204	0xbdb352c3	-0.0875602
205	0x3e42df05	0.19030388
206	0x3dbd218f	0.092349164
207	0xbe430515	-0.19044907
208	0xbed7f179	-0.42176417
209	0xbe4fa25e	-0.20276782
210	0xbcc4a030	-0.024002165
211	0x3eaf7a17	0.34272835
212	0xbbb49a86	-0.0055115847
213	0xbe2627a3	-0.16226058
214	0xbe484e7f	-0.19561194
215	0x3e06ab7e	0.13151357
216	0xbe07a48a	-0.1324636
217	0xbe735f5e	-0.23766848
218	0x3e033bf9	0.12815847
219	0x3ec621ce	0.38697666
220	0x3dc5e16c	0.096621364
221	0x3e5a58fa	0.21323004
222	0xbecb2d4d	-0.39683
223	0xbe193581	-0.14961816
224	0x3e032f2e	0.12810966
225	0x3c804b2a	0.015660841
226	0x3e127810	0.14303613
227	0xbf0c0530	-0.54695415
228	0xbe7d9a0a	-0.24765792
229	0x3e977157	0.2957866
230	0x3e64d3a7	0.22346364
231	0x3ea33be0	0.31881618
232	0x3e382875	0.17984183
233	0xbe4d2660	-0.2003417
234	0xbd1ea90c	-0.038735434
235	0xbe6bd588	-0.23030674
236	0xbc8de9ae	-0.017323341
237	0xbf171bc5	-0.5902675
238	0xbede066a	-0.4336427
239	0x3e0be54d	0.1366169
240	0xbef426e1	-0.47685912
241	0xbcbff861	-0.023433866
242	0x3d1abc67	0.03777733
243	0xbd800308	-0.06250578
244	0x3f1ea14e	0.6196488
245	0xbe67044a	-0.2256023
246	0x3e6ab8c4	0.22922045
247	0x3dc26536	0.09491961
248	0x3ddadc91	0.10686601
249	0x3f000770	0.5001135
250	0xbe0e38d7	-0.1388887
251	0xbf0af6a8	-0.5428262
252	0xbee57274	-0.44813883
253	0xbe2ee908	-0.17081082
254	0xbe97acc9	-0.29624012
255	0xbe0c688a	-0.13711753

6.bias f4 [12]
0	0xbe8a8638	-0.27055526
1	0xbeb44b5a	-0.3521374
2	0xbd9e78f7	-0.07737916
3	0xbd52b74e	-0.051444344
4	0x3e136a2e	0.14395973
5	0x3cbd29ff	0.023091314
6	0x3e428a43	0.18998055
7	0xbc706d7e	-0.0146745425
8	0xbe51f355	-0.2050298
9	0x3e605b49	0.21909823
10	0x3c600d66	0.013675069
11	0x3e900125	0.28125873
