demo/envs/env_net_0.pth (torch, 240783 bytes, 8 tensors)

0.weight f4 [160, 38]
00000000: fff0 2a3e 7bbe 313e 5dc0 c63c e1fb cd3e
00000010: 8670 e6be 1046 843e c37a 863e 99d3 ec3d
00000020: d4ff f1bd fe50 8dbd 0898 743c 13aa a93d
00000030: 58ad 5e3d 3024 a5bd f955 2e3d 1172 d33e
00000040: db5c a3ba 5ba6 8e3e d9b1 28bf 4937 1e3e
00000050: 769c ce3e 2ab5 18be c79d f6bd c329 2a3f
00000060: 6865 2abd 61c1 d93d f770 0ebf a6f7 263f
00000070: fca4 c5be bf53 25bd 5421 aebd 2c3b 4bbe
00000080: 4597 43be 6040 a03d 2c7a 683e b44e 37bd
00000090: 0baa 9abe 20d4 8d3e ce5b 52be 7ade 64be
000000a0: fc0a 99bd ec7d 493e c8b6 9ebb 6c18 d8bd
000000b0: 3767 d4bd 81fa 963d e054 b9be 7a36 7a3e
000000c0: cfb3 c03c 9f3a d7bd 61a8 7a3e 7448 79be
000000d0: ae21 173f 5880 97be f8bd b33e 0862 8b3e
000000e0: d0d8 12bd 41be e43c 0b82 743d 6719 203c
000000f0: 70fa d5be c1ff 3e3e d2e0 0f3d 7865 8b3e
00000100: 1eca 3abf 73eb f03e 4d15 a43e 2c80 603e
00000110: b23d 1c3e 197d 13be 41ef fc3e 2a7e 19bf
00000120: 9225 ca3e c04a f3be b72a 90bd 710c 00bf
00000130: 56f9 b53e d368 9ebd db83 69be 9d46 21be
00000140: ee12 40bf 9b28 873e dfb6 293e 6080 a63d
00000150: a7f8 0fbd cef4 04be 269e 1b3e d2ae 1abe
00000160: 2388 8a3e f5c6 98be 6320 aebe 3b04 93bd
00000170: 9797 e8bd 5ee9 ccbd b39a 813e 1cdb 453e
00000180: 3494 073f fa1d 4dbe 861c 313f e57b 1fbe
00000190: 1e7d 713e 8ca5 3f3b c599 5abe 84bf 1abe
000001a0: f8e3 51be 658e d0bd 65ee dbbc 59cb a2bd
000001b0: a954 c3be 1969 15bf e381 d6be 16df 1fbf
000001c0: 891c 033d c4a1 53be 95f2 94be 58dc c03e
000001d0: acfa 583d 9f05 3fbd 7289 b3be ea94 9bbd
000001e0: 9fd6 e13d d1f1 a73e 8321 47bd 392d 343e
000001f0: 9ddb 243d 7190 80be 97b6 f1be 86a7 ffbc
00000200: 908e c4be c85a 143e b3e5 2cbf 1cce 843e
00000210: 507d c4be e7d6 3fbe afc9 09bf c804 8d3d
00000220: 7edd 013f e89a f5be 9aba 8fbd a980 e93e
00000230: 1276 b7bc 487c 5c3e a94b 11bd ff1f 25be
00000240: 52c4 bebc a386 3b3e 9106 c7bc b230 de3e
00000250: 8fb9 9b3e 9d03 60be 708e 21bf eae0 b3bd
00000260: 5e6c b63e a26b 1dbf 421d 973e ab7f 203e
00000270: d774 823e 9206 fe3d b24f b73e e4d5 2cbe
00000280: 3ba6 b9be 89eb 943e b974 84be 7f24 123f
00000290: 53b0 04be 60f8 583e db3b 323e d444 5cbe
000002a0: be2f 19be 8434 1cbc 8bba 643e 980f 04be
000002b0: 4754 0b3f 43b2 ce3c 7a4f b5be 0909 803d
000002c0: 54e0 0e3d 3c49 e6bd c9d6 f4be 05a1 22be
000002d0: 613c 59bd 8bee 923b 9ac1 07bf 9f08 02be
000002e0: 2198 963e e0c7 f1bd 9a74 be3d 4fd2 c2be
000002f0: 394a f13e 1f1a e0be 975a 89be 4528 92be
00000300: 8450 ebbe 3dca 273e 86c4 15bf 37f6 2e3e
00000310: 0448 303e 5af7 4a3e 75d4 b1be 7dc1 7e3d
00000320: 7632 80bd 7ea1 40be df54 513d 7287 b93c
00000330: b62e e23e 40bc 2a3e 2066 2cbe f475 1cbd
00000340: 6b14 c8be a3ec 923c 50ad 823e 833a ab3d
00000350: 596f 19be 377f 0fbf c0df c03d ce70 e8be
00000360: f697 d8bd fbe6 883d 94e0 03be d3be c0bd
00000370: 70bd 1ebe ad90 a3be 5b75 383c 6843 60be
00000380: ba32 793e 356c 59be 296d 493e 1f0b 113e
00000390: eb88 90be 672a 853d f7f7 90bd 0177 753e
000003a0: bde3 b73d 5e14 fe3d 808e 2cbd 1525 c3be
000003b0: 052a 223f 10d3 1dbe 2636 6b3e 9ba8 f8be
000003c0: 1feb 76be 7cc3 473e 2626 0ebc ebcc e63e
000003d0: 78ab 643e 6a6e 503f ecac 863f 69bb 3b3d
000003e0: 0e50 c53e bc07 6e3d 57a9 56be 1a1e cebb
000003f0: e1a4 19be 0c70 02be 709d 7cbb 4945 f8bc
0.16693495 0.17357819 0.024261648 0.4023123 -0.45007724 0.25834703 0.26265535 0.115637966
-0.118163735 -0.06900214 0.014928825 0.08284392 0.054364532 -0.08063543 0.04256246 0.41297963
-0.0012463586 0.27861294 -0.65896374 0.15450777 0.40353745 -0.14912859 -0.120418124 0.66469973
-0.041600615 0.10632587 -0.5564112 0.6522163 -0.38602436 -0.04036307 -0.085024506 -0.19846791
-0.19100673 0.078247786 0.22702855 -0.04475279 -0.30207857 0.277009 -0.20542833 -0.22350493
-0.07472798 0.19676942 -0.0048435666 -0.10551533 -0.10371249 0.073719986 -0.36197567 0.24434844
0.02352324 -0.10509228 0.24478294 -0.24344045 0.59035766 -0.29590106 0.35105872 0.2722323
-0.0358513 0.027922751 0.05969433 0.009771681 -0.4179263 0.1865225 0.035126515 0.27225852
-0.72964656 0.47054633 0.320475 0.21923894 0.1525791 -0.1440319 0.49401286 -0.59958136
0.3948179 -0.47517967 -0.07039397 -0.50018984 0.3554179 -0.077348374 -0.22804205 -0.15749593
-0.75028884 0.26398167 0.16573666 0.08129954 -0.035149243 -0.1298401 0.15197048 -0.15105751
0.2705699 -0.29839292 -0.34009084 -0.07178541 -0.113570385 -0.10005449 0.2531334 0.19321865
0.52960515 -0.20030966 0.6918415 -0.15574606 0.23582885 0.002924296 -0.21347721 -0.1511212
-0.2049712 -0.101834096 -0.026847074 -0.07948942 -0.38150528 -0.5836349 -0.4189597 -0.6244978
0.032009635 -0.20667177 -0.29091325 0.3766811 0.052973434 -0.04663622 -0.350658 -0.075967625
0.11027264 0.3280168 -0.048615944 0.17595376 0.040248502 -0.251102 -0.47209617 -0.031207811
-0.38390017 0.14487755 -0.67537993 0.259385 -0.38376856 -0.18734322 -0.5382337 0.068856776
0.50728595 -0.47969747 -0.07018013 0.45605972 -0.022395167 0.21531785 -0.035472546 -0.16125487
-0.023286972 0.18313079 -0.024295123 0.43396527 0.30415007 -0.21876378 -0.6310797 -0.08783133
0.35629553 -0.6149236 0.2951451 0.15673701 0.25479767 0.12403597 0.3580299 -0.16878468
-0.36259636 0.2908595 -0.25870302 0.5708694 -0.12957887 0.21188498 0.17405646 -0.21510631
-0.14959618 -0.009534005 0.22336785 -0.12896574 0.5442547 0.025231486 -0.35412198 0.06251723
0.034881905 -0.11244437 -0.47820118 -0.15881737 -0.053036097 0.004484003 -0.5302979 -0.12698601
0.2941294 -0.11805701 0.09299584 -0.38051078 0.4712694 -0.4376993 -0.26826927 -0.28546348
-0.45959866 0.16385742 -0.58502996 0.17086111 0.17214972 0.1982092 -0.34732404 0.062196244
-0.06259625 -0.18811604 0.05110633 0.022647593 0.44176263 0.16673374 -0.16835833 -0.038198426
-0.39078078 0.017935103 0.25522852 0.083607696 -0.14983882 -0.5605349 0.09417677 -0.45398563
-0.10575859 0.06684681 -0.12878639 -0.09411397 -0.15501952 -0.31946316 0.0112584485 -0.21900713
0.24335757 -0.21232684 0.19670548 0.14164399 -0.2822946 0.06502228 -0.070785455 0.23971178
0.089789845 0.124062285 -0.042128086 -0.3811423 0.63345367 -0.15412545 0.22969875 -0.48566136
-0.24113129 0.19508165 -0.0086760875 0.45078215 0.22331035 0.8141848 1.0521522 0.045833025
0.3853764 0.058112845 -0.20963036 -0.0062902095 -0.15004303 -0.12738055 -0.0038545989 -0.030306475

0.bias f4 [160]
00000000: b85d 4fbb b8c5 98bd 07de abbc 68e9 a43c
00000010: 19c6 eb3d 3dcf 8ebd 02cb 3abe dd26 9cbd
00000020: 045a b83d 5207 07be 0346 b1bd 6787 df3c
00000030: 2eab 0bbd c0dd 33bd 5b48 8fbd 9414 79bd
00000040: 3370 793d 4f40 abbd 4cad babd f817 3dbd
00000050: e3b6 aabd ebd4 9f3c c101 29bb cec5 e4bd
00000060: 1043 873c 393f aebd cc5b acbb c86f 8dbd
00000070: fcfa 343c 8a64 16bd b3d7 7abd 17ba 22be
00000080: 444f ccbc e431 54bd d825 3bbe ff5d 4bbc
00000090: d85f 8ebd 3c2e 2f3c af05 94bd 443f e4bd
000000a0: 58d8 e0bb 33e0 86bd a087 75bd 50a2 dbbd
000000b0: 6242 97bd 95bd 1dbe 2b54 85bd b22c 07bd
000000c0: b6b8 30be 53a0 87bd 2ec3 acbd 8734 84bd
000000d0: 61b5 dabd c3b1 4c3c cbba 3dbb c76a 7d3d
000000e0: 024f dbbc 34ff d63c 760a 99bd 1ad1 23bd
000000f0: 0eab 9bbd 0cc7 e6bd 9205 fabc 382c a4bc
00000100: d623 1f3b fb47 713c 36a2 ef3c d621 b5bd
00000110: 5679 ac3c 4a67 41bd a096 353d fd6d 24bd
00000120: 2bbb c8bd e150 ef3c 1c3a f9bc d1a0 193d
00000130: 69c2 ba3b 5a16 83bd 430e 523d 7b77 e2bc
00000140: 73c2 e63c 85ac 2fbc 2801 35bd 9e5e c03c
00000150: f5bd 3abd f684 adbd 7bd6 22bb f64a c93d
00000160: 868c 0f3d 1560 8dbd f2da 7ebd 8881 92bd
00000170: ac88 a63d 72d6 5d3d c771 eabd 0121 48bd
00000180: b1ba d5bd 103b 2fbd 3d5b 843d 528e f7ba
00000190: 1f52 b2bd 7e33 57bd 8a59 90bd d6b3 213d
000001a0: 9a94 acbd def0 67bd b164 aabc 6db9 29bc
000001b0: 732d 6ebd 200a 91bd c18d fdbd 00d9 e53d
000001c0: 7756 86bd eac7 c7bd bb5f fb3c 176b e6b9
000001d0: e4ff bebc d538 bdbd 9986 943d 7a5e 47bd
000001e0: 048f 00be f265 e23a 48e7 09bc 72c2 51bd
000001f0: 6369 06bd 9981 2f3d 2a7d aabd ea11 843c
00000200: 2dee 5dbd f31c 863d f0f0 22bd 2788 6fbd
00000210: c6b7 003c f102 763d ad67 0fbe ec02 2cbd
00000220: 3a7d 59bd ce1b 4c3d 1e01 8abd b961 4b3c
00000230: 66ec 60bd 1de3 efbd e448 e5bb 29ff f53d
00000240: 8989 b2bb 5dfe a6bc 5d42 34bd 4768 84bd
00000250: 32b2 40bd ff0b a5bd 8ffc 9b3d 5ad2 5bbd
00000260: f9df 13bb adc6 96bd 5fe2 cebd 9d0e c1bd
00000270: 9632 8d3c 903f c43c d9f9 fc3c 1408 acbc
-0.0031641554 -0.07459587 -0.020979894 0.020130828 0.115123935 -0.06973121 -0.18241504 -0.076246
0.09001544 -0.13186386 -0.08655932 0.027286245 -0.034098797 -0.04391265 -0.069962226 -0.06081064
0.060898017 -0.08361875 -0.09115085 -0.046165437 -0.08335664 0.019510707 -0.00257884 -0.11170541
0.01651147 -0.085081525 -0.0052599665 -0.06906086 0.011046167 -0.036716975 -0.061240863 -0.158913
-0.02494014 -0.051805392 -0.18276155 -0.012412547 -0.069518745 0.0106921755 -0.072276466 -0.111448795
-0.0068617277 -0.06585731 -0.059943795 -0.10724318 -0.073857084 -0.15404351 -0.065101944 -0.03300161
-0.17257962 -0.06622376 -0.08435665 -0.06455331 -0.106791265 0.012493554 -0.0028950449 0.06186941
-0.026771072 0.026244737 -0.074726984 -0.039994337 -0.076009855 -0.11268434 -0.030520234 -0.020040616
0.0024282834 0.014726634 0.029252153 -0.08844344 0.021053951 -0.047217645 0.0443331 -0.040143955
-0.098013245 0.02921337 -0.030423217 0.037506882 0.005699445 -0.064007476 0.051283132 -0.027644863
0.028168892 -0.010722284 -0.044190556 0.023482617 -0.045591313 -0.08472626 -0.0024847079 0.09828751
0.035046123 -0.06903092 -0.06222052 -0.071536124 0.08131537 0.05415959 -0.114474826 -0.0488596
-0.10435999 -0.042780936 0.06462715 -0.0018887019 -0.087070696 -0.05253934 -0.07048328 0.039478146
-0.08426781 -0.056626193 -0.020799967 -0.01035915 -0.058148813 -0.07082009 -0.12380553 0.1122303
-0.065594606 -0.097549275 0.030685296 -0.00043948807 -0.023315378 -0.092393555 0.07252235 -0.048674084
-0.12554556 0.0017272814 -0.008416958 -0.051210828 -0.03281535 0.042848203 -0.083246544 0.016121823
-0.05418222 0.065484904 -0.039780557 -0.058479454 0.007856315 0.0600614 -0.14004393 -0.041994974
-0.05309794 0.049831204 -0.06738494 0.012413436 -0.054912947 -0.1171324 -0.0069972146 0.120115586
-0.0054485244 -0.020384962 -0.0440086 -0.06465202 -0.04704494 -0.08058929 0.07616531 -0.053667404
-0.0022563918 -0.07362113 -0.101017706 -0.094266154 0.017236035 0.02395609 0.030880855 -0.020999946

2.weight f4 [160, 160]
00000000: 1c92 83be 407c eabd b764 88be 13f6 5a3e
00000010: 517d 5bbf 8db7 b3be dcf4 e7be 9467 563e
00000020: 71f9 2bbf 55d5 233e 165c 36be c26b 6abe
00000030: 09da 37be 2a1b 973e c1d3 d63d 3ecc 603e
00000040: 3eb1 713e ccc0 25be a7b5 c53d a8ac 67bc
00000050: 484b d3bd 4ee8 803c d889 80bd 9df5 0dbf
00000060: 0a29 cbbe d0ff 0f3d 341f 08bf c704 523e
00000070: 31d0 e53d c66b 16bc 8bb2 043e 0b11 95be
00000080: eff9 d53d a570 5c3e a5c7 09bd bc85 2bbf
00000090: a3cb 73be 3819 37bf b97e 0a3e 11bb 4abe
000000a0: 6ff8 11be 3ee9 523e adbd 39bf 8ae0 5abe
000000b0: 84f6 29be 9997 f6be 228e 91be 70cd 2ebe
000000c0: 3d99 fdbe 0d61 463d 8e31 803e 76ea babc
000000d0: f988 61bd e55e 92be f441 233c e7d2 883e
000000e0: 9003 ffbd dcc5 443e 4fbf 813e ee86 8bbe
000000f0: 8d0f 93be df96 40be 1db8 0ebf 2fba 5bbd
00000100: 4407 8bbe 2ff8 c33d 3f56 9cbe 511c 12be
00000110: 214d ac3e a7f9 7bbe cda1 193d 0d62 93be
00000120: e56a a13d e6ba 983c fc3a a5be 3b64 983e
00000130: 0829 5e3d faeb 7abd e66d a9be 88d8 863e
00000140: a731 9a3d 7ed3 88bd ba1e 4dbb 8034 c03d
00000150: afd6 07bf 6eda db3d 41c9 743e 4295 32bf
00000160: ba75 b1bc 141a 753e 8c64 35be ac50 ccbe
00000170: 36cd fcbe c0f9 10bf 913e 9b3e b563 023e
00000180: 27b9 4dbd 01b4 213e 3a9b 023e e51f 49bf
00000190: 1cd1 65be 5f8e a1bc 2a46 963e 4d54 4b3e
000001a0: 8dcd 38be a4d2 203e 72b0 87be 99ae d5be
000001b0: aa1e 8fbe d4fc 4cbf 0aec 0ebf 9bbd 27bf
000001c0: f5f3 bc3e c534 3b3e 5727 3f3e 3332 65be
000001d0: ef81 22be 369e e83c ee28 19bf acfa 93bd
000001e0: 6078 3d3e 1c7b 83be eade 09bf 7c03 383e
000001f0: 500f 57bf fae6 a8be d9ca 2d3d 2202 ff3c
00000200: 040a 88bf 9b75 973e 2029 5e3a f495 0dbf
00000210: 934a d23b 9fb0 203e ef21 a6be 30c1 41be
00000220: 5d87 95bd e7e1 2dbe 7428 9339 a7b6 803e
00000230: c413 9d3d 66f8 5dbe 69ec 2cbe 412f 2ebf
00000240: 7ef0 3ebe e0cf 91bd 5dc4 3c3e c044 24be
00000250: 4389 1b3e 8176 7bbd 14d1 5dbd a8fc 33be
00000260: 05ca 69bd 566f 9d3e 1207 8fbe 5afd b6be
00000270: dba1 973e b2e3 b13e a745 02bd 265b 12bd
00000280: 5d99 0f3e 2761 ffbd 26ce 2a3d 7baf aebe
00000290: 3b62 b53e 54fd aa3d 8fcc 8bbe 30a0 48bd
000002a0: 015a 093e 4d4d 9bbe 55d1 b2be e6a3 903e
000002b0: b873 6fbe be31 adbe 899d 8439 b951 c5be
000002c0: 8691 90be 1d8a a3be 34eb 3bbd 5c7f 3e3e
000002d0: 2405 16be 73c7 e6be 5713 2ebe e720 9dbe
000002e0: 5f38 553e ad77 f93c dcd7 c83d 05fb 41be
000002f0: bd39 29be b934 843e a82f e5bd 5b45 50be
00000300: f0d5 87be 07b8 093e 4a4c cbbe 8165 7e3d
00000310: 9063 30bc 2e8f 9b3e bcdd acbe 6866 e8be
00000320: f50b 79be 823d 9cbd 3c9a d6be e3b2 883d
00000330: d5ca 25be 00fc 4bbe bdcb b33d b82d a23c
00000340: b8cd 48be e0c2 b0bd 6a6b 84be 5dab 413e
00000350: 552e d2bd 732b 063e 7984 66be 486b 673e
00000360: cb2d e43d 2065 b9be 4abb 07be 77e6 a93e
00000370: 97b6 ccbd 3a76 e23d bacc b9be cfc8 903e
00000380: 4e6c 2cbd 019a 4ebd cf5f 783e 5007 3bbe
00000390: 1b77 38be 1526 823b ec6b ecbb a34f 9bbd
000003a0: c56f 96be a513 40bd 3601 22bc cdd0 80be
000003b0: abb0 36bf 8507 02be 6342 583d 18ae 99be
000003c0: 467b d9be a2e2 a3bd 3d24 39be 4653 84be
000003d0: 6aff afbd c439 a6be 2482 70be 810c a23e
000003e0: 1652 cebe d888 85be f5c2 07be 791d 09be
000003f0: 23e4 853e 6e67 0e3e 8a82 50be 3e6b 213e
-0.2569741 -0.1144948 -0.2663934 0.21382932 -0.8573809 -0.35100976 -0.45304 0.2093795
-0.6717749 0.15999348 -0.17808565 -0.22892669 -0.17954268 0.29512912 0.104896076 0.21952912
0.23602769 -0.16186827 0.09653788 -0.014140286 -0.10317093 0.015735772 -0.062762916 -0.554529
-0.39679748 0.03515607 -0.5317261 0.20509635 0.1122135 -0.009180969 0.12958734 -0.29114565
0.10448062 0.21527345 -0.03363766 -0.6700094 -0.2380815 -0.71522856 0.13524903 -0.19797923
-0.14254926 0.20596787 -0.7255505 -0.21374717 -0.16597944 -0.48162535 -0.2842875 -0.17070556
-0.49530974 0.0484324 0.25037807 -0.022816878 -0.055062268 -0.28588024 0.009964455 0.26723406
-0.12451851 0.19216102 0.2534127 -0.2725138 -0.28722802 -0.18807553 -0.55749685 -0.053644355
-0.2715398 0.09568822 -0.3053455 -0.14268614 0.33652595 -0.24606954 0.03750782 -0.28785744
0.07881717 0.018643808 -0.32271564 0.2976397 0.05423835 -0.0612602 -0.33091658 0.26337075
0.07529002 -0.06680964 -0.0031298832 0.093850136 -0.53061956 0.107350215 0.23904897 -0.69759
-0.021662582 0.2393573 -0.17714137 -0.39905298 -0.49375314 -0.5663109 0.30321172 0.12733348
-0.050225403 0.15791322 0.12754527 -0.7856429 -0.2244305 -0.019721208 0.29350406 0.19856377
-0.18047161 0.15705353 -0.26501805 -0.4173477 -0.27953082 -0.80073285 -0.5582892 -0.6552369
0.36904874 0.18281849 0.1866735 -0.2238243 -0.15869878 0.028395753 -0.5982808 -0.07225546
0.1850295 -0.25679862 -0.53855765 0.17970079 -0.8400774 -0.3298872 0.04242978 0.031128947
-1.0628057 0.29581913 0.0008474756 -0.55306935 0.0064175813 0.15692376 -0.32447764 -0.18921351
-0.07301209 -0.16980706 0.00028068165 0.25139353 0.076697856 -0.21676788 -0.16887058 -0.68040854
-0.18646428 -0.07119727 0.18434282 -0.16041851 0.1518908 -0.06139231 -0.05415447 -0.1757685
-0.057077426 0.30749005 -0.27935082 -0.35740167 0.29615673 0.3474403 -0.031804707 -0.035731457
0.14023347 -0.12469702 0.041700505 -0.34118256 0.35426506 0.083491 -0.27304503 -0.04898089
0.1341324 -0.30332413 -0.34925333 0.28250045 -0.23383987 -0.33827013 0.00025294375 -0.38538912
-0.28236026 -0.3194131 -0.045878604 0.18603271 -0.14650398 -0.45074043 -0.16999565 -0.30689165
0.20822285 0.030452574 0.09806797 -0.18943413 -0.16525932 0.25821474 -0.1119073 -0.20338957
-0.2653041 0.13449107 -0.3970664 0.06210852 -0.010765925 0.30382675 -0.3376292 -0.4539063
-0.24320967 -0.07628919 -0.41914546 0.06674745 -0.16190656 -0.19920349 0.08779094 0.019797191
-0.19609725 -0.086309195 -0.258632 0.18913026 -0.102627434 0.13102512 -0.22511472 0.22599518
0.11141547 -0.36209965 -0.13255039 0.33183643 -0.09995764 0.11057706 -0.36289006 0.28278205
-0.042095475 -0.05043984 0.24255298 -0.18264508 -0.18014185 0.003971825 -0.0072150137 -0.07583549
-0.29382148 -0.046893734 -0.009887984 -0.25159302 -0.71363324 -0.12698181 0.052797686 -0.30015635
-0.42476863 -0.08002211 -0.1808023 -0.25844783 -0.08593638 -0.32465947 -0.23487145 0.31650165
-0.40297002 -0.26080966 -0.13257964 -0.13390149 0.26150617 0.13906643 -0.20362297 0.15763566

2.bias f4 [160]
00000000: 5f08 a0bd ff23 d93d 8ae4 01be 7e6d ea3d
00000010: 0408 edbd 7746 efbd 5dd0 46be dcf6 5e3c
00000020: 2456 3abe 4f4b 38bd 0519 dcbb a6a3 34bd
00000030: a3b7 e63c 6388 893d d132 62be 4f7d bdbe
00000040: e958 ac3b 7bf3 13be 8923 7fbd 48ea d1b9
00000050: bb6f 9ebd 4946 79be e262 63bc 0a7a cdbc
00000060: 4a95 acbd 52e3 eabd b207 c83d 04e2 90bd
00000070: 4ca1 26be fafd 26be aea0 0a3d 8056 81bd
00000080: 46af e8bd 420b 6a3d 4464 c23d d876 20bd
00000090: 015f adbc e302 393d 355a 87bd 8ab1 21be
000000a0: 166d 99bd 62c5 2cbd fd98 4dbe e7ae eebd
000000b0: 5aca 52bd e0c0 03be a9bd af3d 7d56 593d
000000c0: b0ec 5fbe 4a4b 2d39 ef0d 25bd b970 793d
000000d0: 777c 353d a04f 93bd a4a9 853d 393f 98bd
000000e0: 8177 7abe b9fb 01bc ab6e 1fbe ec14 913d
000000f0: de71 07be c161 42bc a17a 83bc 4cdb dc3d
00000100: 319a b93b c285 793c e368 bb3d 36a2 91bd
00000110: 058d 9f3c b2c4 10bd 78eb 823d f988 c43d
00000120: 4a54 8b3c 4823 5bbd 3869 a4bd 54ce 53bc
00000130: d028 2ebe 15fd 2d3e f854 04be 1f1a 52bd
00000140: 32d7 a0bd bcfe 433d 2d0f 193e 4970 183d
00000150: 6038 9cbc 5a3d 38bc 1a9a 85bc 13a6 cabd
00000160: 04ab 10bc ebc6 0dbd 7adc 09bd 1f25 b0bc
00000170: 5d75 4ebe 0880 e4bd a17d d83d b4df 32be
00000180: 55c4 ebbc 7570 19bd cddd 6ebe c902 79bd
00000190: 31dc 2bbe aea9 34be 0581 72bd ed68 08bc
000001a0: 1db3 afbd 7612 acbd 9f32 dc3d 8f5e 0ebe
000001b0: 9dc6 8f3d 9bf0 edbd fdc4 b4bd 0b2c 033e
000001c0: 1482 20be b0eb 6dbe 66b9 97be a2bb e83c
000001d0: 8293 3f3d 152e 74bd 4c98 5abc bbc1 f6bd
000001e0: 55dc 7abd 81e5 bfbc 6476 44be 5d20 48bd
000001f0: b733 80be 16bf 48bd b71a f83d 1917 2e3e
00000200: 4ab4 60be 7bbf 3cbe c552 a7bb 4690 fabd
00000210: d7aa f03d 5adf 163d 6c82 a3bd c0d8 54be
00000220: 8f61 ba3d 217e b73c 87d6 a43d b398 41be
00000230: b427 0c3e b5b3 38be 8629 a23d 5f34 abbd
00000240: b278 35be eeac 4ebd 44ed 2abe c3e2 e1bc
00000250: deef 6c3d 227a 0abe 2676 18bd bc1d 00be
00000260: 371c 03be 8a5a d9bd c4c7 4ebd 0326 15bd
00000270: f3d9 833c 0134 15bd 69c4 febd 1446 4dbd
-0.07814097 0.10602569 -0.12684837 0.11446665 -0.115737945 -0.11683362 -0.19415422 0.013608661
-0.18196923 -0.044993695 -0.0067168497 -0.04410138 0.028163737 0.06715467 -0.22089697 -0.37009665
0.0052596224 -0.14448349 -0.06228975 -0.0004003814 -0.07736155 -0.24343218 -0.013878556 -0.025082607
-0.08426912 -0.11469139 0.09767093 -0.07074359 -0.16272467 -0.16307822 0.033844642 -0.06315327
-0.11361556 0.057139643 0.094917804 -0.03917584 -0.021163465 0.04516877 -0.066090025 -0.15790382
-0.074915096 -0.042180426 -0.20077892 -0.11654454 -0.05146251 -0.12866545 0.08581097 0.053060997
-0.21867633 0.00016526613 -0.04029649 0.060898516 0.044308152 -0.07192922 0.06526497 -0.07433934
-0.2445965 -0.0079335505 -0.1556956 0.07084069 -0.1322703 -0.011864127 -0.016049685 0.10784015
0.005664133 0.015229644 0.09150865 -0.071110174 0.019476423 -0.035343833 0.06392568 0.09596438
0.017007966 -0.053500444 -0.080278814 -0.01292761 -0.17007756 0.16991074 -0.12923038 -0.051294442
-0.07853545 0.047850356 0.14947195 0.03721646 -0.01906985 -0.011245096 -0.016308833 -0.098949574
-0.008829836 -0.03461353 -0.03365753 -0.021502076 -0.20161958 -0.111572325 0.10570837 -0.17468148
-0.028780142 -0.037460763 -0.23326798 -0.06079367 -0.16783215 -0.17642853 -0.059205074 -0.0083257975
-0.08579085 -0.08401959 0.10751843 -0.13903259 0.07020304 -0.116181575 -0.08826635 0.1280977
-0.15674621 -0.23234439 -0.29633635 0.028409783 0.046771534 -0.05961426 -0.0133419745 -0.1204867
-0.06124528 -0.023424866 -0.19185787 -0.04885899 -0.25039455 -0.04901036 0.121144705 0.17000999
-0.21943775 -0.18432419 -0.0051063024 -0.12234549 0.11751335 0.0368341 -0.079838604 -0.20785809
0.09100639 0.02239901 0.0804873 -0.18905906 0.1368702 -0.18037303 0.07918076 -0.08359598
-0.17721823 -0.050457887 -0.16692072 -0.027573949 0.057845943 -0.13523152 -0.03722205 -0.12511343
-0.12803732 -0.10612972 -0.05048348 -0.036413204 0.016095137 -0.036426548 -0.12439806 -0.05011566

4.weight f4 [160, 160]
00000000: 2eac c8bd d3c8 a23e 1c1c cbbe 1c58 cf3d
00000010: 8383 123e 1250 84bf 0e09 9ebd 965f 5abe
00000020: 39ae 0bbe 4fe5 02bd 7b70 ddbe d508 cdbd
00000030: dda4 67bf 0573 b33d 7442 c3bf cd97 843c
00000040: 2579 b4bd d035 1c3e 8d20 d43d 6706 9c3e
00000050: 8f39 843d 53cc debe b4db 8f3d 0d70 d3be
00000060: 93ac 07be b0f6 cabe d49f 61be d8a0 19be
00000070: de74 2cbe b551 a2bf 8a36 89be 2fb2 bc3d
00000080: 8692 cebe 532e aabe 7293 bdbe 328e 08bf
00000090: cb00 59bd 193e 0abf f6c7 e9bd f429 133d
000000a0: 8ad0 2abe c0b0 0fbe 25b7 d9be 06bb 31bf
000000b0: f1f1 0fbe e80e a8bf 68d1 cdbe 9031 38bf
000000c0: d0d8 42be 0c44 afbe df52 66be 6ba4 6bbe
000000d0: fa3f e43b 5e22 2e3e a4f4 09bf ed60 1ebe
000000e0: 2690 77bf 1732 07bf d4a0 803d 0bb7 153e
000000f0: fd86 f1bd 9ff2 b33c ec3f 933e 55ab 44bd
00000100: fef4 473e bdf1 c33e 2cb4 b23e d8f9 35bf
00000110: d662 913e cdf1 bebe f9ee 523d 391b cdbd
00000120: e05c e63e fd50 253c 0740 703c 0b11 803a
00000130: ede1 71be e115 4fbc 6ab4 f5bd 9af7 a73d
00000140: e9d7 13be ed26 643e d257 ae3d 35f8 aabe
00000150: 42db 073e 2c27 8dbe ebee 033e e532 2bbe
00000160: adcc 0e3f 1d4c 073e 76e2 003e 3a19 64be
00000170: 0010 81be ab62 023e 0829 673e b208 aa3c
00000180: 5b6c 2c3e 4387 2a3e 2ac3 98bf 6bf2 6f3d
00000190: e0c4 a3be 787a a3be b611 7bbd 2d8a 4ebe
000001a0: 6e65 253e 9ef4 c3bd 01ca fc3d 7cc4 6ebf
000001b0: 7a36 693d d444 4dbf 4f0e 1fbf a570 9b3e
000001c0: efce 0abf 302f 77bf fa6b f1bf ca6e c7bd
000001d0: bd5d e5be 26d1 f039 a8df 79be 1b5f 593d
000001e0: bb79 babe d2c7 97bc f009 6f3e 8a06 153e
000001f0: 9982 8abc 4ee3 2b3e fc02 6ebe aa08 803e
00000200: 71a9 b4be aa5e c93d 0662 32bf 9a81 66be
00000210: 7a05 363e 4ed9 45bf 7267 2f3e 2153 78bc
00000220: 34a2 bbbe 9a33 fbbe 3fae b2be 99fb 12bf
00000230: ff6d 24be a5db 17be 0fd5 853e ad32 35bd
00000240: f27a fa3d 4bdf 6bbe 7b3f 253e 45ca 663e
00000250: 7085 163f fcc7 943e 9c1b 79bd 855c 51bd
00000260: 7364 4bbf 7b96 2ebd a7d3 30be 97b4 fabe
00000270: 442f aebd fe0a f63d ae2d 8dbd b0da 22bd
00000280: c237 453e 3315 adbe eec3 1a3e 386d a1bd
00000290: abda 663e a961 483e b9da 053e cb3a 76bd
000002a0: 3a4f f43d 3123 45be 554d c1be 0af1 62be
000002b0: 0465 b2be 1748 3fbe 3174 02bd e392 f23c
000002c0: f432 1ebe 5a61 023e 3861 3ebe 360f 703e
000002d0: 874a 42ba eb32 7bbe d9e6 a4bd 3a7b 99bd
000002e0: 2277 3b3e 5742 8e3c 927e 86be 1c2b d83d
000002f0: 399b 10be 4818 44be c06b d13d b59d 42be
00000300: 9d8c 17be 8500 793d a80a 9abe 3ea8 4cbe
00000310: 6a02 33bd a7e5 a2be 3434 61bc 9a5a 7fbd
00000320: 7717 85be 1bcc dcbd ea7f 35be 860c 813e
00000330: 2b79 7e3d 6286 a3bd 09d2 babe 4a64 fdbe
00000340: 229b 403c 5da0 fbbd 517d 90be 2bbb 16bd
00000350: 40b3 963c ccdb 66bc ca5c 4d3d d8df 47bd
00000360: 2d4f 3abf c93a 03bf 140f 3fbe d29b 93bc
00000370: 44b2 213e 9fb9 033e 5584 5b3c b2b5 b1be
00000380: 2a9b 29bd 0a31 be3d 69da b8be f1bc 31bf
00000390: 1285 963c a658 46be b821 cc3d cbe8 4b3e
000003a0: 058a 57be 4755 143e 76ed a4bd b222 e73c
000003b0: 2b1e a33e 74e2 d13c 1670 2c3c 40a3 313e
000003c0: 499c 6bbe eaa5 1b3e 3463 bdbd ee3f cabe
000003d0: 227a 46bd 2450 0cbf 77fc b2be a550 8cbe
000003e0: e7bc 0abd 1c92 613d 7d71 babd 8f36 1c3e
000003f0: 338c 0e3e 9232 be3c 2df0 a5be e96c d83c
-0.09798466 0.31793842 -0.39669883 0.101242274 0.1430798 -1.0336936 -0.07716571 -0.21325526
-0.1364068 -0.031956967 -0.43249878 -0.1001145 -0.90485936 0.087621726 -1.5254655 0.016185666
-0.08812169 0.15254903 0.10357771 0.30473635 0.06456291 -0.43515262 0.07024327 -0.41296425
-0.13249426 -0.39641333 -0.22033626 -0.15002763 -0.16841456 -1.2681185 -0.26799423 0.09213673
-0.40346164 -0.33238468 -0.37026554 -0.5334197 -0.05297927 -0.54001004 -0.11415093 0.03592868
-0.16681114 -0.14032269 -0.4252254 -0.69426 -0.14057137 -1.3129549 -0.40198827 -0.71950626
-0.1902802 -0.34231603 -0.2249255 -0.23011939 0.0069656344 0.17005298 -0.53888917 -0.15466662
-0.9670433 -0.52810806 0.062806755 0.14620607 -0.11793325 0.021966277 0.28759706 -0.048014957
0.19527051 0.3827037 0.34903085 -0.71084356 0.28395718 -0.37293854 0.051497433 -0.10014958
0.44992733 0.01009011 0.014663703 0.0009770704 -0.2362134 -0.012639494 -0.11997302 0.08201523
-0.14437832 0.22280474 0.08512844 -0.33392492 0.13267234 -0.27568948 0.12884109 -0.16718633
0.5578106 0.13212629 0.12586388 -0.22275248 -0.2520752 0.12732951 0.22574246 0.0207561
0.1683821 0.16653161 -1.1934559 0.058580797 -0.3198614 -0.31929374 -0.061296187 -0.20169897
0.16151974 -0.095681414 0.12343217 -0.9326856 0.05693672 -0.8018315 -0.6213121 0.30359378
-0.54222006 -0.9655638 -1.8861077 -0.09737928 -0.4479808 0.00045932195 -0.24401724 0.053069215
-0.36420998 -0.018527899 0.23343635 0.14553276 -0.016907977 0.16785929 -0.23243326 0.2500661
-0.35285524 0.09832509 -0.6968082 -0.22510377 0.17775527 -0.77284706 0.17129305 -0.015156538
-0.3664719 -0.49062806 -0.34898564 -0.5741516 -0.16057585 -0.14829881 0.26139113 -0.04423778
0.12230481 -0.23034398 0.16137497 0.22538097 0.5879736 0.29058826 -0.060817346 -0.051113624
-0.7945015 -0.042623978 -0.17268239 -0.48965904 -0.08505109 0.12013815 -0.06893478 -0.039759338
0.19259551 -0.33805236 0.15113804 -0.0788216 0.22544353 0.19568504 0.13071717 -0.060114663
0.11929174 -0.19251706 -0.37754312 -0.22162262 -0.34842694 -0.18679844 -0.03184909 0.029611057
-0.15449125 0.12732449 -0.18591774 0.23443303 -0.0007411618 -0.24531142 -0.08051843 -0.07494207
0.18307164 0.017365618 -0.2626844 0.105550975 -0.14121713 -0.19149888 0.1022563 -0.19005473
-0.14799733 0.06079151 -0.30086255 -0.19986054 -0.043703474 -0.31815836 -0.013745356 -0.062342264
-0.25994465 -0.107811175 -0.17724577 0.25204867 0.062127274 -0.07984616 -0.3648837 -0.49490577
0.011755737 -0.12286446 -0.2822061 -0.03679959 0.01839602 -0.01409049 0.05013732 -0.04879746
-0.7277706 -0.51261574 -0.18658096 -0.018018637 0.15790659 0.12863778 0.01339825 -0.34708935
-0.04140774 0.09286697 -0.36104134 -0.69428927 0.018374 -0.19369754 0.09967369 0.19913022
-0.21048744 0.14485656 -0.080531046 0.028214786 0.31858954 0.025620677 0.01052477 0.17347431
-0.23008837 0.1520001 -0.09247437 -0.395019 -0.04845632 -0.54809785 -0.3495824 -0.27405277
-0.033871558 0.05507098 -0.091036774 0.15255187 0.1392067 0.023217473 -0.32409802 0.02641912

4.bias f4 [160]
00000000: 9785 4e3b c091 a0bd 854f 2ebc 3a33 44bd
00000010: 4491 2a3d 8d74 553d d2ce d1bd eb91 19be
00000020: 5611 5dbe 8db9 f13d 7bef 4bbd d040 c6be
00000030: 1d41 f8bd c5fd bebd c9df f9bd b9fa 95bd
00000040: 42e6 7e3e 9fe3 98be dfa3 70ba ce0f 1b3c
00000050: 30ce 06be eb12 41be 9c66 f1be 55d1 43be
00000060: 1488 c6be e821 e23d ee66 6abe df4e 0abe
00000070: 2cdb e5bd 22ca 923e 8cf3 d3bd 2ba8 61be
00000080: c611 afbd 78de 4cbe 08f9 3ebd 17d5 013d
00000090: b2d5 86be 65dd 8f3e 794a ebbd 387c 3c3e
000000a0: 1f7c ccbd 7458 593c 368d 593d 86d3 a53d
000000b0: 7a9e 10be 8072 b23e 630f 89bd 9081 3cbd
000000c0: f77e c1bd 0566 94be 2fe4 50be 825a 91bd
000000d0: aca5 08be 4fad 9cbe b7aa 2dbe 2aba e1bd
000000e0: 6514 c53d a8b2 81bc 602d b0bd 8000 8ebd
000000f0: 0fb0 39be 0a30 46bd af80 6bbe d26d 8abe
00000100: 5efb afbd 5b8e 5fbe 2434 96be a0fd 413d
00000110: 6b61 4bbd 14db 653e a9dc 93be acbc d3bd
00000120: 6d5c b5bd eb85 95be f3fd 1d3e 5f5a c23b
00000130: 3b33 9bbd 5254 fdbd 83c3 78bc a87f 5ebd
00000140: ca28 27be 8295 34be 2b35 82be fa88 3bbd
00000150: 1a57 5c3e ca44 e9bd 241c a6bd c085 09bc
00000160: d24f c0be a8ec 83be a986 b2bd fb8d 7cbe
00000170: 492c 3bbe ea68 13be 8362 20be 0693 d13c
00000180: 2471 0f3c 9040 3cbd ea4f bd3d f007 a9bc
00000190: f1ec 8cbe a0b1 b9bd 39cb a8bd 84d5 f4bd
000001a0: 32ad d8bd 796f 59bd 44c3 723d 3c12 583e
000001b0: 579a 613e 346d 5bbe c274 b7bd 624a 3dbd
000001c0: 7070 7f3e 6b21 dd3d f42e b4bd ba67 88be
000001d0: 3009 aebc 61ec 93be b70c 313d 19a8 2bbe
000001e0: c3f8 3d3e 64e1 5dbe 747d 5abe 4360 00be
000001f0: f958 8fbe 0406 a7bd 6e4f 9ebd e6f0 b13b
00000200: 3c6e 88bd 9eb7 b6bd 432f 95bd e79e 27be
00000210: 2f2e d2bd 2762 c6be a5b5 2c3d 746e 82bd
00000220: 2a2d edbe 760c e8bd e56c 79be e41b a7bd
00000230: 6de5 4d3e a2ef 5dbd 32ad 97bd 4cdd 70bc
00000240: 2e00 4c3d c061 c1bd 245b 97be b44d 91be
00000250: cf0d 40bd e685 273e 310c 87be cee2 3cbe
00000260: 142a cfbe 5d9e 6b3d 5b74 843e 4093 79be
00000270: 80fe 8abd a9c8 643c d6c3 963b 6d4a 51bc
0.0031512731 -0.078402996 -0.010639076 -0.047900416 0.041642442 0.052113105 -0.10244526 -0.1499707
-0.21588644 0.11802969 -0.049788933 -0.38721323 -0.121217944 -0.093257464 -0.12200887 -0.07323212
0.24892524 -0.2986116 -0.0009179692 0.009464217 -0.13164592 -0.18854873 -0.47148597 -0.19122823
-0.38775694 0.11041623 -0.22890827 -0.1350665 -0.11223444 0.2866984 -0.10349187 -0.22036807
-0.08548312 -0.2000674 -0.046624213 0.03169736 -0.26334912 0.28098598 -0.11488814 0.1840676
-0.09984612 0.013265718 0.053113185 0.080969855 -0.14122954 0.34852982 -0.06692388 -0.046021998
-0.09448045 -0.28984085 -0.20399545 -0.07097341 -0.13344449 -0.30600974 -0.16959654 -0.11021836
0.096230306 -0.01583226 -0.086024046 -0.06933689 -0.18133567 -0.048385657 -0.22998308 -0.2703691
-0.08592866 -0.21831648 -0.29336655 0.047361016 -0.049653452 0.22446853 -0.28879288 -0.10338721
-0.088555194 -0.29203734 0.15428905 0.005931183 -0.07578131 -0.123695984 -0.015183332 -0.05432096
-0.16324154 -0.17635158 -0.2543119 -0.045784928 0.21517602 -0.113900736 -0.08110836 -0.008393705
-0.37560898 -0.25766492 -0.08717091 -0.24663536 -0.18278612 -0.1439549 -0.15662579 0.025582802
0.008755002 -0.04596001 0.09243758 -0.020633668 -0.27524522 -0.090670824 -0.08241887 -0.119547874
-0.105799094 -0.053084824 0.05926825 0.21100706 0.22031532 -0.21428376 -0.08957817 -0.046213515
0.24945235 0.107973896 -0.08798018 -0.26641637 -0.021244615 -0.2889128 0.043225016 -0.16763343
0.18551926 -0.21668011 -0.21336919 -0.12536721 -0.27997568 -0.08155444 -0.07729994 0.0054303287
-0.066616505 -0.08921741 -0.07284405 -0.1636921 -0.10262715 -0.3874676 0.042165417 -0.063687235
-0.4632352 -0.11330502 -0.24357946 -0.081596166 0.2010705 -0.05418361 -0.07406081 -0.014701199
0.04980486 -0.094424725 -0.29561722 -0.28379595 -0.04688817 0.16359672 -0.2637649 -0.18445894
-0.4046179 0.057524074 0.25870022 -0.24372578 -0.06786823 0.013963857 0.004600982 -0.012774092

6.weight f4 [12, 160]
00000000: 41c1 f13c 6a43 6dbd 4327 39bc e0ec 523e
00000010: 57a7 fdbd 1819 7fbe 9d53 a83d 219e d9be
00000020: d640 0d3f b1bf dd3d f135 003e e8b1 043e
00000030: 57aa 98be aa02 ccbd 9537 17be be13 acbd
00000040: 84de 17bd a31b 4f3e c96f c6be 56ee 5abc
00000050: 8af4 5a3c 694e 813c f162 153e 58eb 81be
00000060: 9f96 12be 4d2f 993c 9e39 533e 7d31 57bc
00000070: 6461 17be 0d83 633e cb2e f3be dd2d bebd
00000080: 3a54 393d 9364 04bf 4702 ce3b 77b8 78bb
00000090: 52e4 763e 193a ffbc e118 463e b156 c2bd
000000a0: 1743 cfbe 5652 9e3c 0cd3 79bd f8aa dabd
000000b0: 0157 88bd f6c5 a9bd a7e8 08be 17a8 5c3e
000000c0: 2b9a f0bc 3b75 0abe 97c8 3bbd da1d 6dbd
000000d0: 49ed c7bd e9e4 693e 6b09 25be a6af a9be
000000e0: 46cf 343e 97f8 b1bd d888 e83d 928c bd3c
000000f0: 55fa e4bd e3e2 3ebe 9af9 cdbd 4ba7 91be
00000100: 582d 683d 2ec2 a0be a2d8 66bd 64e3 a1bd
00000110: d11e 38bd b55b 4b3e 184a 62bc 7f70 dabd
00000120: 48da 25bf 5777 a83d 77f9 02be cc26 893e
00000130: c56f 02bf 5b42 02be 50db c93d 4c24 09be
00000140: 1f92 113e 9a49 03bd c47f d83e 9bf3 d13e
00000150: aedd 063c d2d2 1a3e 62cd 163e ccc5 01be
00000160: 2dfb b8be 847b b03d 249f 873d f12e 95be
00000170: c704 613d 6f12 d93e 4a0e 7fbe eab6 bf3e
00000180: cda8 dcbd 46c9 013d 6abf a13e 903d a4bd
00000190: 6e77 9a3e ec0d 673d bdd5 f13d ebbf 45be
000001a0: cc81 0fbd 0d58 453e 96e0 f53d 7038 e7bd
000001b0: 94a6 193e 33fb abbd 59a4 a5be a91d c23c
000001c0: 35f5 003c b847 093e 55f3 613d fdc0 5e3d
000001d0: 8287 f73c 7991 ce3d b423 6a3e 3ea0 e4bd
000001e0: cd05 743d 4e4a 213e 64c4 373e 1999 9f3d
000001f0: 9220 eabd 4952 8bbe ac84 9dbe 8e40 aebd
00000200: 400c bb3d 2fa8 38be 992e 3cbc fc12 753e
00000210: bcef 3c3d a592 e13d bb91 9e3c de44 bdbd
00000220: 5328 84be cd6d d63e 8a45 b73d f431 4bbe
00000230: 089c 9b3d eb73 1d3e 7f52 f2bd bcd2 dabc
00000240: ec30 d8bd 03af a2bd f4a3 933e 1e84 57be
00000250: a015 e3bd 47a0 7c3d d832 613e eeb0 76be
00000260: 5815 e73d 88b7 16be 01c5 f13d e6c2 4cbb
00000270: a2b0 f33d 8925 8fbd ea5b 0e3e 9cd0 7bbe
00000280: 3f35 37be c0dd c7be 0ba9 47be a49d 98be
00000290: 90d1 8ebe c0c0 84bd e7eb 68be cde6 ef3d
000002a0: f57d 853e f8c5 25bf 7879 163e 6f43 6a3e
000002b0: b434 74be f2c8 633d 6a74 013f 3a11 abbd
000002c0: 17a4 963d fb8f 8e3d 20ec f23d 2916 09be
000002d0: e5aa 953d 532c 0ebe 3a68 41bd 2ca8 243e
000002e0: 3ea0 ea3c e5a8 88be 8fd6 5dbc 0dd7 afbd
000002f0: 9855 3e3e 24e6 4cbe cf7c 4fbe 4518 453e
00000300: 2165 3cbd 24d3 033e 262a 89be d524 8dbd
00000310: 15dc 9fbb 1b49 62be 297d fbbd 8f8f afbe
00000320: bcbe 73be a359 d13e 62fc 55be b0f1 ebbd
00000330: fbe5 8b3d 8206 8fbe 0920 73bd 49d8 b0be
00000340: 6c6e e3ba b051 023e 99a8 883e e19b f4bd
00000350: 8bc7 0c3f 404a c13e 692d 51bd d078 7f3e
00000360: 40c9 86be f72a 69be df96 57bd 2b6a 4dbe
00000370: 7dbc e1bd 918a 40be 1711 c43e eeed 92bd
00000380: defc ccbd a1d6 c4bd 20da 6d3e 1f0f bbbe
00000390: cf2f 6b3d 4de4 9abe bcd7 8e3d 57cb 38be
000003a0: 27af 133d 96b3 3cbc e87f 91be 2e06 01be
000003b0: a713 b93d 6b1e aa3e f264 f0be ba3f a0be
000003c0: ec89 7abe c773 68bc b46d 683e 6d65 3dba
000003d0: b56e 18be 3ed9 553e 1bce 7d3d dc78 50bc
000003e0: 9ded 01be 7d17 cbbd 1e98 9cbd d949 00bf
000003f0: 29af e3bc f060 103f 4ac1 b53d 7ebf c4be
0.029511096 -0.05792562 -0.011300865 0.20598173 -0.12385433 -0.24911916 0.08219073 -0.42503455
0.55177057 0.10827578 0.12520577 0.12958491 -0.2981746 -0.09961446 -0.14767297 -0.08402203
-0.03707744 0.20225386 -0.3875716 -0.013362488 0.013363967 0.01578446 0.14588524 -0.25374866
-0.1431527 0.018699313 0.20627448 -0.0131343575 -0.14783245 0.2221796 -0.47496638 -0.092860915
0.04524634 -0.51715964 0.0062868926 -0.0037951746 0.24110535 -0.031155633 0.19345428 -0.09489191
-0.40480873 0.01932637 -0.060992286 -0.10677141 -0.0665722 -0.08289711 -0.1337 0.21548496
-0.029370388 -0.13521282 -0.045845594 -0.057889797 -0.097620554 0.22841229 -0.16116874 -0.33141822
0.17657194 -0.08689993 0.11354226 0.023138318 -0.111805595 -0.18641238 -0.10057373 -0.28447947
0.05668387 -0.31398147 -0.05635894 -0.079046994 -0.044951264 0.19859202 -0.013811611 -0.10665988
-0.64786196 0.08225887 -0.12790476 0.26787412 -0.50951797 -0.12720625 0.09856284 -0.13392752
0.14215897 -0.032052614 0.42284977 0.4100617 0.0082315635 0.15119484 0.14726785 -0.1267311
-0.36129132 0.08617309 0.066221505 -0.29137376 0.054936197 0.42396876 -0.24907795 0.3744424
-0.10774384 0.03168609 0.3159135 -0.080195546 0.30169243 0.05640976 0.118083455 -0.19311492
-0.035035893 0.1927187 0.12005727 -0.112900615 0.15004951 -0.08397522 -0.3235195 0.023695784
0.007870962 0.13406265 0.0551637 0.054383267 0.030215982 0.100863405 0.22865182 -0.11163376
0.059575845 0.15751001 0.17946011 0.07792873 -0.114319935 -0.27211216 -0.30765283 -0.085084066
0.09133196 -0.18032907 -0.011485719 0.23933023 0.046127066 0.11014298 0.0193566 -0.09241651
-0.25812015 0.41880646 0.089488104 -0.19843274 0.0759812 0.1537625 -0.11832141 -0.026711814
-0.10556206 -0.07943537 0.28836024 -0.21046492 -0.11088109 0.06167629 0.21992052 -0.24090931
0.11283368 -0.14718449 0.11805154 -0.0031244098 0.118989244 -0.06989581 0.1390225 -0.24591297
-0.17891406 -0.3903637 -0.19498079 -0.2980777 -0.27894258 -0.06482077 -0.2274624 0.11713944
0.2607266 -0.647552 0.14694774 0.22877286 -0.2384823 0.05561156 0.5056826 -0.08352895
0.073555164 0.06961056 0.118614435 -0.1338736 0.07307986 -0.13884096 -0.04721854 0.16079777
0.028640863 -0.26691356 -0.013539924 -0.085859396 0.18587339 -0.20009667 -0.20262454 0.1924754
-0.04599488 0.12873513 -0.2678997 -0.06891791 -0.0048785307 -0.220982 -0.12279732 -0.34289214
-0.23803228 0.408887 -0.20897058 -0.115207076 0.06830975 -0.27934653 -0.059356723 -0.34540012
-0.0017351634 0.12726474 0.2669113 -0.11943794 0.5499198 0.3775196 -0.051068697 0.2494843
-0.26325417 -0.22770296 -0.052634116 -0.20060031 -0.110222794 -0.18802859 0.3829429 -0.07174288
-0.10009168 -0.0961125 0.2322774 -0.36534974 0.05741864 -0.30252305 0.06974742 -0.18046318
0.03605571 -0.011517426 -0.28417897 -0.12600014 0.090369515 0.33226332 -0.46952015 -0.3129862
-0.24466676 -0.01418776 0.22698098 -0.00072248915 -0.14885981 0.20883653 0.061964136 -0.012724128
-0.12688299 -0.099165894 -0.076462016 -0.5011268 -0.027793484 0.56397915 0.088747576 -0.38427347

6.bias f4 [12]
00000000: 13cc d8bc 9797 10be eaba 9fbe f881 83be
00000010: 7a3d 82bd 67fc 86be 864b 383e b75d 2bbe
00000020: 122a 513e baff 5bbe 555b 493e 7e88 8d3d
-0.026464498 -0.14120327 -0.31197292 -0.25685096 -0.06359382 -0.26364443 0.1799756 -0.16734968
0.20426205 -0.2148427 0.19663747 0.069107994
