demo/envs/env_net_6.pth (torch, 240783 bytes, 8 tensors)

0.weight f4 [160, 38]
0	0x3d32c9ee	0.043649606
1	0xbf05dd1e	-0.52290523
2	0xbe93dc14	-0.28878844
3	0x3e42f5bc	0.19039053
4	0xbe8b6f15	-0.27233186
5	0xbcaca37b	-0.021074047
6	0x3d8066bb	0.06269594
7	0x3eadbf38	0.3393495
8	0xbec22ab0	-0.37923193
9	0x3dffe8d9	0.12495584
10	0x3de3a966	0.111162946
11	0x3eb3d2b6	0.35121697
12	0xbdcd824c	-0.10034618
13	0xbf3682ec	-0.7129352
14	0xbea17a0d	-0.3153843
15	0x3f33e567	0.70271915
16	0x3f078790	0.52941227
17	0xbe5ac1ce	-0.21362993
18	0x3c959101	0.01825762
19	0x3cc66955	0.024220148
20	0xbcc3383c	-0.023830526
21	0x3e2a0b58	0.1660589
22	0x3eb82021	0.35962012
23	0xbe8aa4fd	-0.27079
24	0x3b2070ad	0.0024481222
25	0x3d96e286	0.07367425
26	0xbbaa88c7	-0.0052042934
27	0xbd78776b	-0.06066076
28	0xbd0e5936	-0.034753047
29	0xbdec396f	-0.11534392
30	0xbf27f3b1	-0.6560622
31	0x3e44b733	0.1921051
32	0x3f01d5e4	0.50716996
33	0xbe4221be	-0.18958184
34	0x3d9ed5fa	0.077556565
35	0xbf1f7cfa	-0.62300074
36	0x3e128803	0.14309697
37	0xbf24ed07	-0.64424175
38	0x3e75191f	0.23935364
39	0x3dddb049	0.10824639
40	0x3deb2369	0.11481363
41	0x3dfad552	0.12247719
42	0xbf152bf2	-0.5827018
43	0xbe441179	-0.1914729
44	0xbc9f5387	-0.019449009
45	0xbed72136	-0.42017525
46	0xbdd445e8	-0.10364896
47	0x3cd8a4f8	0.02644585
48	0xbed3e0a1	-0.41382316
49	0x3d6f0310	0.05835253
50	0x3d7e7c07	0.06213
51	0x3e8f9f4f	0.2805123
52	0x3ec24339	0.37941912
53	0xbed59659	-0.4171627
54	0xbe6dd400	-0.23225403
55	0xbe6fa8f0	-0.23404288
56	0xbe66ff7b	-0.22558396
57	0xbe25eb0d	-0.16202946
58	0x3e9583f6	0.2920224
59	0xbdca0fb5	-0.09866277
60	0x3e57d7b4	0.21078378
61	0xbe731d90	-0.23741746
62	0x3e123b52	0.14280441
63	0x3dc86b85	0.09786133
64	0xbe459647	-0.19295608
65	0x3e8e9216	0.2784583
66	0xbdf9c748	-0.12196213
67	0xbe575bc1	-0.21031095
68	0x3f21b8c0	0.6317253
69	0xbe7ef944	-0.24899775
70	0x3ea77868	0.3270905
71	0x3f232252	0.63724244
72	0xbe826aee	-0.25472206
73	0xbf4b524a	-0.7942244
74	0xbed2b34c	-0.41152418
75	0x3f0c4848	0.5479779
76	0xbdd5adc5	-0.104335345
77	0x3ec892cc	0.39174497
78	0x3e0bbfca	0.1364738
79	0xbdc83496	-0.09775655
80	0xbd4ada71	-0.04952473
81	0x3e5b6e07	0.21428691
82	0x3e34443a	0.17604151
83	0xbc6a359b	-0.014295007
84	0x3e735599	0.23763122
85	0xbe3b9fe4	-0.18322712
86	0xbee24cb4	-0.44199145
87	0x3f0a5ff3	0.54052657
88	0x3c415a5d	0.011801329
89	0xbd31424c	-0.043276116
90	0xbcefe666	-0.029284667
91	0xbe80f641	-0.25187877
92	0x3f12b676	0.57309663
93	0x3e545740	0.20736408
94	0xbc1ebd0d	-0.009688628
95	0x3e468c5e	0.19389483
96	0x3e6ff223	0.23432212
97	0xbd42042f	-0.04736727
98	0xbe9b62a9	-0.3034871
99	0x3e0caf97	0.13738857
100	0x3e3958a5	0.18100221
101	0xbe98ed22	-0.29868418
102	0xbdfcd712	-0.12345709
103	0x3df3faf4	0.119131
104	0xbe5a0360	-0.2129035
105	0xbdc61463	-0.09671857
106	0xbbc2af19	-0.0059412834
107	0xbed23375	-0.41054884
108	0xbdf6e6e9	-0.12055761
109	0xbe82e7b1	-0.25567392
110	0xbefb216c	-0.49048936
111	0x3ee8cffd	0.45471182
112	0xbeec4507	-0.46146414
113	0xbde6990b	-0.112596594
114	0xbe37e20b	-0.17957322
115	0xbc3dc6a8	-0.011583008
116	0x3dd8fa28	0.105945885
117	0x3e875d39	0.2643831
118	0xbf2aa58d	-0.6665886
119	0xbe0bff59	-0.13671626
120	0xbd89b50d	-0.06723986
121	0xbed1743d	-0.40908995
122	0xbdc3179e	-0.09525989
123	0x3f057d0e	0.52143943
124	0xbebaa704	-0.36455548
125	0x3f05e0b3	0.5229599
126	0x3f36f18c	0.7146232
127	0x3ec7784a	0.3895896
128	0xbe1533de	-0.14570567
129	0xbec54fe9	-0.3853753
130	0x3ebec84a	0.37262183
131	0x3f16f3b2	0.589656
132	0x3e7e541b	0.24836771
133	0x3d3ea3b7	0.04654285
134	0x3ea72fcc	0.32653654
135	0x3da46f27	0.08029013
136	0xbe890cb4	-0.26767504
137	0xbdedb8ca	-0.11607511
138	0xbe0c618c	-0.13709086
139	0x3e79f435	0.24409564
140	0xbe9c41bd	-0.30518904
141	0x3f246315	0.6421369
142	0x3e165737	0.14681707
143	0xbdb4f521	-0.08835817
144	0x3eaa9d8c	0.33323324
145	0xbeeb143c	-0.45913875
146	0x3cea8e67	0.028632356
147	0x3eaa0e34	0.3321396
148	0xbe1dc2cb	-0.15406339
149	0xbc82a123	-0.015945977
150	0xbdc4ddc4	-0.09612611
151	0x3ebaa7c6	0.36456126
152	0xbe62e6e7	-0.22158395
153	0x3d07ea07	0.03318217
154	0x3e4cbf70	0.19994903
155	0xbe5fa4e1	-0.2184024
156	0xbeae95ff	-0.34098813
157	0xbe3c7ef6	-0.18407807
158	0x3e87bf66	0.26513213
159	0xbead2882	-0.33819968
160	0xbe1c2491	-0.15248324
161	0xbe2acd8b	-0.16679971
162	0x3e78ed60	0.24309301
163	0x3ea8e87b	0.3298987
164	0xbef2087f	-0.47272107
165	0x3f2471f4	0.6423638
166	0x3ddf86e5	0.10914401
167	0xbf1c45aa	-0.610438
168	0x3e9f5475	0.31119123
169	0x3eacd79e	0.33758253
170	0xbf4ce86e	-0.8004216
171	0xbe73787c	-0.2377643
172	0xbeacdd00	-0.3376236
173	0x3d1d428c	0.038393542
174	0x3e9a2d3a	0.3011263
175	0x3cb537b0	0.02212128
176	0xbc6ebfd9	-0.014572107
177	0x3f1901c8	0.5976834
178	0x3df91062	0.12161328
179	0xbe95f741	-0.29290202
180	0x3e6d7865	0.23190458
181	0x3e4b2e20	0.19841814
182	0xbdda54c5	-0.106607
183	0x3ce9f1d8	0.028557703
184	0x3c312801	0.01081276
185	0x3f11a619	0.5689407
186	0x3e987856	0.2977931
187	0xbee601fd	-0.44923392
188	0x3da8f53d	0.082499005
189	0x3ed82f5c	0.42223632
190	0xbdba7e82	-0.09106161
191	0xbe977c44	-0.29586995
192	0xbeba5a42	-0.36396986
193	0x3ea63bef	0.324676
194	0x3e888f6a	0.26671916
195	0x3e7f7c8f	0.24949859
196	0xbf2e55bf	-0.6809959
197	0xbea83427	-0.3285229
198	0xbdba042c	-0.09082827
199	0xbc2ed12c	-0.010669988
200	0x3f14797d	0.57997876
201	0xbe7db904	-0.24777609
202	0xbd2efcce	-0.042721562
203	0x3ebb5b8e	0.36593288
204	0xbc21dd92	-0.009879487
205	0x3edc9156	0.43079633
206	0x3eada120	0.3391199
207	0xbe408e52	-0.18804291
208	0xbf2c6435	-0.67340404
209	0x3d4b37f9	0.049613927
210	0x3e41ce2a	0.18926302
211	0xbcabbcd5	-0.020964066
212	0xbe055cb0	-0.13023639
213	0xbf1e70d6	-0.61890924
214	0x3e223654	0.15841037
215	0x3de99f51	0.1140734
216	0xbeada90e	-0.3391804
217	0xbc43a0e9	-0.011940219
218	0xbdfb0174	-0.122561365
219	0x3e5c4c17	0.21513401
220	0x3eaf8568	0.34281468
221	0x3f0f3c48	0.55951357
222	0x3ede11bd	0.43372908
223	0xbf1602f2	-0.58598244
224	0x3c57bc89	0.013167509
225	0x3f165a02	0.5873109
226	0xbf62a815	-0.8853772
227	0x3e41d983	0.1893063
228	0x3ded5337	0.115881376
229	0xbf1186e6	-0.56846464
230	0xbed3494c	-0.4126686
231	0x3eb7b321	0.35878852
232	0xbf4e896d	-0.80678445
233	0x3de6b3a6	0.11264734
234	0xbe108855	-0.14114507
235	0x3e1f8437	0.1557778
236	0xbd9027f9	-0.07038874
237	0x3edbfa91	0.42964604
238	0xbe42adbe	-0.1901159
239	0x3e04fbb8	0.12986648
240	0xbd1bf87c	-0.03807877
241	0xbefc552c	-0.4928373
242	0xbe04d1b8	-0.12970626
243	0x3ec2ca61	0.38045028
244	0x3e62dbba	0.22154132
245	0x3e123fdb	0.14282171
246	0x3edf6e30	0.43638754
247	0xbe5319fd	-0.20615382
248	0xbec90aac	-0.39265954
249	0x3e432af3	0.19059353
250	0xbdb3cfa9	-0.087798424
251	0xbe23b782	-0.15987971
252	0x3e359574	0.17732793
253	0x3daa2141	0.08307124
254	0xbe906c5e	-0.28207678
255	0xbdc75687	-0.09733301

0.bias f4 [160]
0	0x3d7088d3	0.058724236
1	0xbdb0c96e	-0.0863217
2	0xbd802516	-0.062570736
3	0xbc845818	-0.016155288
4	0xbe06c60a	-0.13161483
5	0x3c6f61da	0.014610732
6	0x3ddf2a7e	0.108967766
7	0x3c68e8cd	0.01421566
8	0xbc167c6e	-0.00918494
9	0x3c6953d8	0.014241181
10	0xbd3f4ab9	-0.04670212
11	0x3d531576	0.05153414
12	0x3d128719	0.03577337
13	0xbcd94707	-0.026523126
14	0xbd921b8f	-0.07134163
15	0xbda404cf	-0.0800873
16	0xbdd5c780	-0.10438442
17	0xbd441636	-0.047872745
18	0x3da43feb	0.08020004
19	0xbcc5485a	-0.024082351
20	0xbd1a72a1	-0.037706975
21	0xbd35519e	-0.04426729
22	0x3b4fb1bf	0.0031691638
23	0xbdd3a384	-0.103339225
24	0xbd2c7cff	-0.042111393
25	0xbd67700e	-0.056503348
26	0xbd1f6e64	-0.038923636
27	0x3c106c39	0.008814865
28	0x3c999282	0.018746618
29	0xbd61d558	-0.0551351
30	0xbd8167a4	-0.06318596
31	0x3d847883	0.06468298
32	0x3da185c1	0.0788684
33	0xbab05072	-0.0013451709
34	0xbbc5d245	-0.006037029
35	0x3ccee6f1	0.025256606
36	0xbd274dc1	-0.040845636
37	0xbd89809e	-0.06713985
38	0xbdab333b	-0.08359381
39	0x3d532d95	0.051557142
40	0x3db478b8	0.08812088
41	0xbc816fdb	-0.015800407
42	0x3d67e987	0.056619193
43	0x3d882c75	0.066491045
44	0xbd8c4227	-0.06848555
45	0xbd073e32	-0.0330183
46	0xbcab7f45	-0.02093471
47	0xbd2f5f3e	-0.04281544
48	0x3ca2a69b	0.019854834
49	0x3d8d4aa7	0.068990044
50	0xbd8ae9f0	-0.06782901
51	0xbc6196fe	-0.0137689095
52	0x3cc78bf0	0.02435872
53	0xbcb34a08	-0.021885887
54	0xbdacc5e0	-0.08436179
55	0x3b94b729	0.004538436
56	0xbd82a5cc	-0.063792795
57	0xbdff7ba3	-0.12474754
58	0xbc4bcdd7	-0.012439213
59	0xbcc9a568	-0.024615005
60	0x3bb989c8	0.0056621768
61	0xbdf44a88	-0.11928278
62	0xbcd4c055	-0.025970617
63	0xbcc3bec6	-0.023894679
64	0xbd306d53	-0.04307301
65	0xbda9a424	-0.082832605
66	0x3d9ed6e8	0.07755834
67	0xbd804bd6	-0.062644646
68	0xbda02ab0	-0.07820642
69	0x3cf08d9a	0.029364396
70	0xbcc7b311	-0.024377378
71	0xbd5f8bb2	-0.054576583
72	0xbc06c18b	-0.008224855
73	0x3cd32f42	0.02577937
74	0x3d0b0e08	0.033948928
75	0xbd90c345	-0.07068495
76	0xbdd47a93	-0.10374942
77	0xbd738037	-0.059448447
78	0x3c353b2e	0.011061473
79	0xbcffce3d	-0.031226272
80	0xbd322745	-0.04349448
81	0xbd9eb3f5	-0.07749168
82	0xbdc35528	-0.09537727
83	0xbd2ecf1e	-0.04267799
84	0xbd0f3a42	-0.03496767
85	0x3c0e971e	0.008703021
86	0xbb517f7a	-0.003196685
87	0x3c5e1a46	0.013556069
88	0xbda5b2de	-0.08090757
89	0x3b8db98d	0.004325098
90	0x3d8824e5	0.06647662
91	0x3ca5acc8	0.02022399
92	0x3c1d97de	0.0096187275
93	0xbd41ac3a	-0.04728339
94	0xbc70aaca	-0.014689157
95	0xbdef740c	-0.11692056
96	0x3cc99026	0.024604868
97	0xbd40bb87	-0.04705384
98	0xbc91c23a	-0.01779281
99	0x3bfef99e	0.0077812215
100	0xbd038d00	-0.03211689
101	0xbe1aa5b3	-0.15102272
102	0xbd841ac0	-0.06450415
103	0x3d0b9d3e	0.034085505
104	0xbd91ac2c	-0.07112917
105	0xbdad7e59	-0.084713645
106	0xbdc2c7b3	-0.09510746
107	0x3cd74c69	0.026281552
108	0xbdced30d	-0.100988485
109	0x3ca43ccc	0.020048521
110	0x3cae547d	0.021280522
111	0xbcb04ca0	-0.021520913
112	0x3cc84cc2	0.024450663
113	0xbd34bd7b	-0.044126015
114	0x3d12d712	0.03584964
115	0xbcaea65c	-0.02131956
116	0x3c676424	0.0141229965
117	0xbcc7a235	-0.024369339
118	0xbc18cbaa	-0.009325901
119	0x3c8dae73	0.017295098
120	0x3d9af0f3	0.07565489
121	0xbd430b2d	-0.04761808
122	0x3c66312d	0.01404981
123	0xbd2eeba7	-0.042705204
124	0x3d18382f	0.037162956
125	0x3cd5cf1c	0.026099734
126	0x3d2f42a3	0.04278816
127	0xbcd857ae	-0.026408996
128	0xbcfe7f17	-0.03106646
129	0xbd7b832e	-0.0614044
130	0x3ba67ed8	0.005081039
131	0xbcebb989	-0.028774993
132	0x3d2facbf	0.042889353
133	0xbd3f622d	-0.046724487
134	0xbce9bf5e	-0.028533634
135	0xbdd203fe	-0.10254668
136	0xbd6f2817	-0.058387842
137	0xbd5fe0a2	-0.054657586
138	0x3c8615bd	0.016367787
139	0xbd945b32	-0.072439566
140	0xbc81437e	-0.015779253
141	0xbe22523f	-0.15851687
142	0xbbe93132	-0.0071164602
143	0xbda7917c	-0.08182046
144	0xbc524c50	-0.012835577
145	0xbc736ca3	-0.014857444
146	0xbe006d43	-0.1254168
147	0xbbf2c23f	-0.00740841
148	0xbe1db674	-0.15401632
149	0xbdd8a4dc	-0.105783194
150	0xbc575d8e	-0.013144864
151	0xbba402ad	-0.005005202
152	0x3cec06a3	0.028811758
153	0xbd04a77b	-0.032386284
154	0xbe10cd07	-0.14140712
155	0xbd7b517d	-0.06135701
156	0xbc01bf02	-0.007919075
157	0xbccf0a14	-0.02527336
158	0xbcaeb81d	-0.021328026
159	0x3ccbfc54	0.024900593

2.weight f4 [160, 160]
0	0xbf638a93	-0.8888332
1	0xbf83a106	-1.0283515
2	0x3e7aed16	0.24504504
3	0x3d1f9707	0.03896239
4	0xbe27c65b	-0.1638426
5	0x3e318c4c	0.17338675
6	0xbf08ba4e	-0.5340928
7	0x3cd723b0	0.026262134
8	0xbe4df697	-0.20113598
9	0xbe9ecc53	-0.31015262
10	0xbef59692	-0.4796644
11	0x3e935dd0	0.2878251
12	0x3eda8a5a	0.4268368
13	0x3e911ba9	0.28341416
14	0xbedb1ae5	-0.42793956
15	0xbdcbeb70	-0.099570155
16	0xbe76852d	-0.2407424
17	0xbf8d7d66	-1.1053894
18	0xbe105d2a	-0.1409804
19	0xbd3644c7	-0.044499185
20	0x3e92456f	0.285686
21	0xbecd4663	-0.40092763
22	0x3eb6e630	0.35722494
23	0x3e995971	0.2995105
24	0xbee9b8e7	-0.45648882
25	0x3dc5374a	0.09629686
26	0xbedd3e4c	-0.4321159
27	0x3eb901c0	0.36134148
28	0xbe24b880	-0.16086006
29	0x3e88d47a	0.26724607
30	0xbe83599b	-0.256543
31	0x3e17b721	0.14815952
32	0xbf741522	-0.95344746
33	0x3e8c95e8	0.2745812
34	0x3d5d5516	0.054036222
35	0xbdd3665b	-0.10322257
36	0xbed58626	-0.4170391
37	0xbe1a9021	-0.15094043
38	0xbe6a0b8c	-0.22855967
39	0x3e53d1aa	0.20685449
40	0xbe746f3e	-0.2387056
41	0xbf5f7635	-0.87289745
42	0x3ddf9927	0.10917883
43	0xbd78fdbe	-0.060788862
44	0x3e566362	0.20936349
45	0xbe047afe	-0.12937543
46	0x3dc3f3f1	0.095680125
47	0x3e3187f6	0.17337021
48	0xbea6e378	-0.3259542
49	0x3ebb7002	0.36608893
50	0x3eec214c	0.46119153
51	0x3ea34d78	0.3189504
52	0x3cc69097	0.024238868
53	0x3e63cb3f	0.22245501
54	0x3e2a960a	0.16658798
55	0xbeb05ee7	-0.34447405
56	0xbf05c7aa	-0.5225779
57	0xbe824758	-0.25445056
58	0x3cd27d56	0.02569453
59	0xbf129e8d	-0.5727318
60	0x3e1b35f6	0.15157303
61	0xbf47610e	-0.7788247
62	0x3de5f2e7	0.112279706
63	0x3ebd697a	0.36994535
64	0xbf54527f	-0.8293838
65	0xbf08a644	-0.533787
66	0x3f1c9058	0.6115775
67	0xbed60f74	-0.41808665
68	0xbe764e3d	-0.24053283
69	0xbf322c51	-0.6959887
70	0xbf2221bb	-0.6333272
71	0x3ed84905	0.4224321
72	0xbe6c8f83	-0.2310162
73	0xbd9cede3	-0.07662561
74	0xbe140630	-0.14455485
75	0xbf2b9c35	-0.6703523
76	0xbebe7e65	-0.37205806
77	0xbc70a066	-0.0146866795
78	0xbf2a90b5	-0.66627055
79	0xbe871c02	-0.26388556
80	0x3d5b515d	0.05354439
81	0xbf44055e	-0.7657069
82	0xbf00defb	-0.5034024
83	0xbede6207	-0.43434164
84	0x3ce488bb	0.02789723
85	0x3e351b54	0.17686206
86	0xbe8bb48b	-0.2728618
87	0xbd266d9c	-0.040631875
88	0xbe372334	-0.17884523
89	0x3cc8d697	0.024516387
90	0xbd0bdb13	-0.034144472
91	0xbd7b28ee	-0.06131833
92	0xbe681e75	-0.22667868
93	0xbeca13eb	-0.3946832
94	0x3e8f55e8	0.2799523
95	0x3e8de4c0	0.27713585
96	0xbc6bd413	-0.014393824
97	0xbccbe6f5	-0.024890402
98	0xbde8bde7	-0.11364346
99	0xbe87dc2d	-0.26535168
100	0x3d19998b	0.037499946
101	0x3e2d0a48	0.16898453
102	0xbe5e3cf8	-0.21702945
103	0xbe3c817b	-0.18408768
104	0xbf80c41c	-1.0059848
105	0x3e13dd23	0.14439826
106	0x3deeb411	0.11655439
107	0xbf478183	-0.77931994
108	0x3e135e27	0.14391385
109	0xbcb68d7d	-0.022284264
110	0x3e24b0f6	0.1608313
111	0xbe2a12f0	-0.16608787
112	0xbd0376a0	-0.03209555
113	0x3be4e016	0.006984721
114	0xbe5af053	-0.21380739
115	0xbf31e230	-0.6948576
116	0x3e65db2a	0.22446886
117	0x3ea03de9	0.31297234
118	0x3e97b55a	0.29630548
119	0xbe22b05b	-0.15887587
120	0xbf017640	-0.5057106
121	0x3e41065d	0.18850084
122	0x3e2c5d9f	0.16832589
123	0x3e619ab4	0.22031671
124	0xbdd5ef9d	-0.10446093
125	0xbe8b5d7e	-0.27219766
126	0x3e223e49	0.15844072
127	0x3d1b776d	0.03795569
128	0x3e44ee21	0.19231464
129	0xbca04508	-0.019564167
130	0xbef50951	-0.4785867
131	0xbf4aa779	-0.79161793
132	0x3edf2ada	0.4358738
133	0x3dce89fe	0.10084914
134	0x39d5660f	0.00040702565
135	0xbbedd6d2	-0.0072582746
136	0xbf678e0d	-0.9045113
137	0x3dabc38b	0.08386906
138	0xbe0602f6	-0.13087067
139	0x3da3c7ad	0.079970695
140	0xbe728c48	-0.23686326
141	0xbda3aff0	-0.07992542
142	0x3d4ed594	0.050496653
143	0xbf1e6567	-0.6187348
144	0x3da6b90a	0.08140762
145	0x3ee775fa	0.45207196
146	0xbeeb1874	-0.45917094
147	0xbc7b3525	-0.015332495
148	0xbd842e00	-0.06454086
149	0xbe3eb945	-0.18625362
150	0x3dbf412c	0.093386024
151	0x3e9434fd	0.28946677
152	0x3e019929	0.12656082
153	0xbf233720	-0.6375599
154	0xbebae273	-0.36500892
155	0x3e7dccd7	0.24785171
156	0x3ece995c	0.4035138
157	0x3d6abe68	0.05731049
158	0xbf054e95	-0.5207303
159	0x3e09195e	0.13388583
160	0xbd6f90a1	-0.05848754
161	0x3ef4b506	0.4779436
162	0xbc8b0d5a	-0.01697414
163	0x3ecbf83d	0.39837828
164	0x3e621027	0.22076474
165	0xbdbb11ad	-0.09134231
166	0xbc84e5f0	-0.016222924
167	0x3dc45540	0.09586573
168	0x3ebed975	0.37275282
169	0x3e8e6820	0.27813816
170	0x3db8a6ce	0.090161905
171	0x3ea08da7	0.31358072
172	0xbe173c72	-0.14769152
173	0x3e800937	0.2500703
174	0xbceb5ba8	-0.028730229
175	0x3be2f54b	0.006926214
176	0x3e06eb1e	0.13175628
177	0x3d834fd0	0.064117074
178	0xbe5d1699	-0.21590652
179	0xbdf6d8e4	-0.12053087
180	0x3e020c5e	0.1270003
181	0xbd4c6881	-0.04990435
182	0x3e1de9bc	0.15421194
183	0xbf0c2eb7	-0.5475878
184	0x3e6c7126	0.23090038
185	0xbbf16432	-0.0073666805
186	0x3de3b971	0.111193545
187	0xbee502bc	-0.4472865
188	0x3e8b8a98	0.27254176
189	0x3dcbf434	0.099586874
190	0xbf8b7443	-1.0894855
191	0x3d26ae35	0.04069348
192	0x3de2b833	0.110702895
193	0xbe81443f	-0.2524738
194	0x3eba1c4d	0.36349717
195	0xbece856f	-0.40336177
196	0xbe5709fb	-0.20999901
197	0x3e3e6c0d	0.18595906
198	0x3e01208b	0.1261007
199	0xbe27106f	-0.16314863
200	0xbd001226	-0.031267308
201	0xbe6d4f14	-0.23174697
202	0xbeb14f8c	-0.34631002
203	0xbdab8928	-0.0837577
204	0xbe0b134c	-0.1358158
205	0xbe035bd7	-0.12828003
206	0xbead898f	-0.3389401
207	0x3ede3ad4	0.43404257
208	0x3c55dd48	0.013053246
209	0xbeb263d9	-0.34841803
210	0xbd3d6acb	-0.046244424
211	0xbd7036b7	-0.05864593
212	0x3df29562	0.11844899
213	0xbed34ec4	-0.4127103
214	0xbddcec61	-0.10787273
215	0xbeacaa65	-0.3372375
216	0xbe8ecf08	-0.27892327
217	0xbe052563	-0.13002543
218	0xbeb433c2	-0.35195738
219	0x3c3908b4	0.011293579
220	0xbe200cba	-0.15629855
221	0xbe9d0e1b	-0.30674824
222	0xbdf7a39a	-0.120917514
223	0xbe9380b6	-0.28809136
224	0x3e90a339	0.2824953
225	0xbb731824	-0.0037093246
226	0xbe772720	-0.24136019
227	0x3e7dfffc	0.24804682
228	0x3e90404b	0.28174052
229	0x3ec205a6	0.37894934
230	0xbe48dbbf	-0.19615076
231	0xbeed6eea	-0.46373683
232	0x3e9917a8	0.2990086
233	0xbe1ee13a	-0.15515605
234	0x3e1082f8	0.1411246
235	0xbb30ec8c	-0.0026996462
236	0x3e7a6c70	0.24455428
237	0xbd87c1b8	-0.06628746
238	0xbde7a8c9	-0.1131149
239	0xbcc8b63f	-0.024500964
240	0x3e4c1ee9	0.19933666
241	0xbe5dda51	-0.21665312
242	0xbddcf241	-0.10788394
243	0x3d37694d	0.044778157
244	0x3e6a1790	0.22860551
245	0x3bb5ecbd	0.005551903
246	0xbe97bb58	-0.2963512
247	0xbf324f32	-0.6965209
248	0xbe56735d	-0.20942445
249	0x3de54abd	0.11195896
250	0x3dc543dd	0.096320845
251	0xbe8c3bbb	-0.2738932
252	0x3e2d42c1	0.16919996
253	0xbe9335d5	-0.28752008
254	0xbee0f40c	-0.43936193
255	0x3e32e97d	0.17471881

2.bias f4 [160]
0	0xbc76cc2c	-0.015063327
1	0x3db548b6	0.08851759
2	0xbc10a64d	-0.008828712
3	0x3dc532ab	0.09628805
4	0x3c5b9111	0.013401286
5	0x3e08f871	0.13376023
6	0x3d97130b	0.07376679
7	0xbd6a9d95	-0.05727919
8	0x3caac1a8	0.020844296
9	0x3d22bd2a	0.039731182
10	0xbd577257	-0.052599277
11	0xbcc45658	-0.023966953
12	0xbd9c912b	-0.07644876
13	0xbcd739ca	-0.026272673
14	0xbd755647	-0.059896734
15	0xbcf0eaa8	-0.029408768
16	0x3db6b375	0.089209475
17	0x3d687def	0.056760725
18	0x3db4f526	0.08835821
19	0x3e018ba8	0.12650931
20	0x3d9b4d59	0.07583112
21	0xbd21e196	-0.039521776
22	0xbc99cd32	-0.018774603
23	0xbdb6b62a	-0.08921464
24	0xbe519bfb	-0.20469658
25	0x3ded391e	0.1158316
26	0xbe5d48fd	-0.21609874
27	0x3d542e32	0.051801868
28	0x3dd0b0eb	0.101899944
29	0x3dfecb14	0.12441078
30	0x3e121014	0.14263946
31	0xbad27183	-0.0016055558
32	0xbd5ef837	-0.054435935
33	0xba98f612	-0.0011670014
34	0xbdd09e19	-0.10186405
35	0x3e1a914e	0.15094492
36	0xbc86139f	-0.016366778
37	0x3e2550d8	0.1614412
38	0xbd44f416	-0.04808434
39	0x3cf3d440	0.029764295
40	0x3db249cb	0.08705481
41	0xbdbc20fe	-0.0918598
42	0x3d839664	0.06425169
43	0xbd99d1fd	-0.07510755
44	0xbd4fac45	-0.0507014
45	0x3da42a1f	0.080158465
46	0x3dc33321	0.095312364
47	0x3dd63471	0.10459221
48	0xbd44451b	-0.047917467
49	0xbd82ad4b	-0.06380709
50	0x3dcce2ad	0.100041725
51	0xbc696dda	-0.014247382
52	0x3d176881	0.036964897
53	0xbe2b9f0c	-0.1675989
54	0x3b39aeaf	0.002833288
55	0x3dabdedb	0.08392116
56	0xbba93294	-0.0051635
57	0x3d1fe833	0.0390398
58	0xbd9f21b6	-0.07770102
59	0xbd1ceed7	-0.038313713
60	0xbe481afc	-0.19541544
61	0x3e378ef9	0.17925633
62	0x3c771d9f	0.015082746
63	0xbe14a822	-0.14517263
64	0xbddd3a46	-0.108021304
65	0x3e1c6ed6	0.15276656
66	0x3d93b41d	0.07212088
67	0xbd62fd02	-0.05541707
68	0x3dc29cc0	0.09502554
69	0xbe0fdcd4	-0.14049083
70	0xbe07ba00	-0.13254547
71	0x3db3f360	0.087866545
72	0xbd9f9a51	-0.077931054
73	0x3da921bc	0.082583874
74	0xbe44362a	-0.19161287
75	0xbcfa6d5d	-0.030569727
76	0xbe165bab	-0.14683406
77	0xbe16af15	-0.14715226
78	0xbd496db3	-0.049176883
79	0x3e4a2a15	0.19742616
80	0xbd24fa78	-0.040277928
81	0x3cfaea7e	0.030629393
82	0x3d0d31e6	0.034471415
83	0x3d99ae09	0.07503898
84	0xbd31698c	-0.043313548
85	0xbc72cec8	-0.014819808
86	0x3e29385b	0.16525404
87	0x3cd3d36c	0.02585765
88	0x3e196943	0.1498156
89	0x3db9fdca	0.090816095
90	0xbd992242	-0.07477237
91	0xbdea8a29	-0.11452133
92	0x3cf088b7	0.029362066
93	0xbd068391	-0.032840315
94	0xbd82afeb	-0.0638121
95	0xbd98239b	-0.07428666
96	0x3b889f31	0.0041693677
97	0xbd81d474	-0.0633935
98	0xbd0aa27c	-0.033846363
99	0x3dcb8bb3	0.09938755
100	0x3d1fc400	0.03900528
101	0xbd9cc6b5	-0.07655088
102	0xbd454d57	-0.04816946
103	0x3cedc4d9	0.029024528
104	0xbdc52abb	-0.09627291
105	0x3cd8c253	0.026459849
106	0xbd9c8eae	-0.076444015
107	0x3db2251b	0.086984836
108	0x3d1e2553	0.038609814
109	0x3cfd58f5	0.030926207
110	0x3d8dbb3f	0.0692048
111	0xbd0a6f61	-0.033797625
112	0x3d669bd7	0.056300964
113	0x3dfc392a	0.12315591
114	0xbe2b71c5	-0.16742618
115	0xbd6424af	-0.055699047
116	0xbdca5a4b	-0.09880503
117	0xbd398d57	-0.045300808
118	0x3d3950e7	0.04524317
119	0xbe1c3470	-0.15254378
120	0xbd4ef4fa	-0.050526597
121	0xbd19cc62	-0.03754843
122	0xbe19b426	-0.15010127
123	0xbd5a2367	-0.05325642
124	0xbd4308d1	-0.04761583
125	0xbd95c8d3	-0.07313695
126	0x3db251c5	0.087070026
127	0xbd079a42	-0.033106096
128	0xbd8b38c3	-0.06797936
129	0xbc4b67e4	-0.012414906
130	0x3c9b5a7e	0.018964048
131	0x3d58a6b9	0.052893374
132	0xbd2f83b5	-0.042850215
133	0xbd4823b5	-0.048862178
134	0xbcc6f126	-0.02428491
135	0xbbc28176	-0.005935843
136	0x3d57ff06	0.052733444
137	0xbe008d7e	-0.12553975
138	0xbd8c7563	-0.06858327
139	0x3db71758	0.08939999
140	0xbd381783	-0.044944298
141	0x3d434414	0.047672346
142	0xbd5283ef	-0.051395353
143	0x3cf7dec1	0.030257585
144	0x3e19c9e3	0.1501842
145	0xbe571eeb	-0.21007888
146	0xbd0b67a1	-0.034034375
147	0x3e3047e0	0.17214918
148	0x3e00e0db	0.12585776
149	0x3c213b3d	0.009840784
150	0xbcaaeeb3	-0.020865774
151	0xbe358d8d	-0.17729779
152	0xbac5f546	-0.0015103004
153	0x3d715e5b	0.058927875
154	0x3e3cf844	0.18454081
155	0x3e16fcc3	0.14744858
156	0x3e387563	0.1801353
157	0xbd6a2de3	-0.057172667
158	0xbcc798f5	-0.024364928
159	0x3c1cdb98	0.00957384

4.weight f4 [160, 160]
0	0xbd79e06c	-0.06100504
1	0xbe6200fd	-0.2207069
2	0xbf3ee196	-0.74562967
3	0x3e34b071	0.17645432
4	0xbeb0468c	-0.34428823
5	0x3cb551e7	0.02213378
6	0x3cf12c36	0.029440027
7	0x3e6062e2	0.21912721
8	0xbef4bf0b	-0.47802004
9	0xbf0d06fb	-0.55088776
10	0x3e3b307c	0.18280214
11	0x3e298949	0.16556276
12	0x3e7fc95f	0.2497916
13	0xbec574cd	-0.38565674
14	0x3d9ccb6a	0.07655986
15	0xbdb19d77	-0.08672612
16	0x3e796c9e	0.2435784
17	0x3ddd55cb	0.10807379
18	0xbd8b98a4	-0.06816223
19	0xbe35c0e0	-0.17749357
20	0xbc7953d6	-0.015217742
21	0xbebfdac4	-0.37471592
22	0xbedac629	-0.4272931
23	0xbec10239	-0.37697008
24	0x3c2356c7	0.00996942
25	0x3cf7b9d5	0.030239979
26	0xbe959ecf	-0.29222724
27	0xbb22dc44	-0.0024850527
28	0xbec81309	-0.39077023
29	0x3d112443	0.035434972
30	0xbeb3b75c	-0.3510083
31	0xbb58ed8d	-0.0033100576
32	0x3e14a980	0.14517784
33	0x3f0b8ee3	0.545149
34	0xbe1a56ab	-0.15072124
35	0x3e9dcfd2	0.30822617
36	0xbe98b6c1	-0.2982693
37	0xbd8b8f8c	-0.06814489
38	0x3d426e88	0.047468692
39	0xbe6bb649	-0.23018755
40	0x38886600	6.503984e-05
41	0x3eb93932	0.3617645
42	0xbd284f68	-0.041091353
43	0xbdf107a7	-0.11769038
44	0xbe5d57c5	-0.21615513
45	0xbe36e514	-0.17860824
46	0xbdec93fd	-0.11551664
47	0xbe88f5f3	-0.26750144
48	0x3e438765	0.19094618
49	0xbee8431f	-0.4536371
50	0xbe94f190	-0.29090548
51	0xba92f7d1	-0.0011212771
52	0xbdb6498a	-0.08900745
53	0xbc06269a	-0.008187914
54	0x3e825307	0.2545397
55	0xbd344320	-0.044009328
56	0x3e662fe1	0.22479202
57	0x3e464e0d	0.19365712
58	0x3dd2894b	0.10280093
59	0xbec48f61	-0.3839064
60	0x3c63db49	0.013907262
61	0xbba73de3	-0.005103813
62	0xbdfdfd9a	-0.12401886
63	0x3d69ad65	0.057050128
64	0x3f001ebc	0.50046897
65	0x3e97b4bb	0.29630074
66	0x3da55e44	0.0807462
67	0xbea20f7e	-0.31652445
68	0x3e56f5e4	0.20992237
69	0x3e339881	0.17538644
70	0xbebbfa3e	-0.36714357
71	0x3e599075	0.21246512
72	0xbdfa9c16	-0.12236802
73	0xbdaa5885	-0.08317665
74	0xbdd41139	-0.103548475
75	0x3e517659	0.20455302
76	0xbf03fda9	-0.5155893
77	0x3eb7414b	0.35792002
78	0xbdcdf133	-0.10055771
79	0x3e8f9b40	0.28048134
80	0xbf0a339e	-0.5398501
81	0xbd813464	-0.06308821
82	0x3d8425d2	0.06452526
83	0x3d91a330	0.07111204
84	0xbd89b183	-0.06723311
85	0xbe4e4b8c	-0.20146006
86	0xbe78ede6	-0.24309501
87	0xbe3e5580	-0.18587303
88	0xbe671dda	-0.22569981
89	0x3f20eddb	0.6286294
90	0xbea60938	-0.32428908
91	0xbf34cb62	-0.7062284
92	0x3ec10dc0	0.37705803
93	0xbe89611b	-0.26831898
94	0xbe493c11	-0.1965182
95	0xbf07cc91	-0.5304652
96	0x3e4fa04a	0.20275989
97	0x3ec0947e	0.3761329
98	0x3e70f27e	0.23530003
99	0x3e84b26f	0.25917384
100	0x3ed64269	0.41847542
101	0x3bac17fa	0.0052518817
102	0x3dbe37a3	0.092879556
103	0x3e97484b	0.29547343
104	0xbdfbcd6d	-0.12295041
105	0x3d3457bc	0.044028983
106	0xbd993919	-0.07481594
107	0xbd9b96e1	-0.07597137
108	0xbe0ed859	-0.13949718
109	0xbe7d92f9	-0.24763097
110	0x3c0c1df7	0.008552066
111	0xbf053565	-0.520346
112	0x3d13b37e	0.03605985
113	0x3e3871ec	0.18012208
114	0xbeb847c1	-0.35992244
115	0x3e794c4e	0.24345514
116	0x3e657fee	0.22412083
117	0xbe45759f	-0.1928315
118	0xbe68c75a	-0.22732297
119	0x3e809184	0.2511102
120	0x3d91eaa4	0.07124832
121	0x3e414322	0.18873265
122	0xbd1bf64c	-0.038076684
123	0xbdf2930b	-0.118444525
124	0x3da3a91e	0.07991241
125	0x3e020a4f	0.12699245
126	0xbeee44f3	-0.4653698
127	0xbd7a13dc	-0.061054096
128	0xbe2b5439	-0.16731347
129	0x3db7a5dd	0.08967183
130	0xbe347901	-0.17624284
131	0xbe43abe2	-0.19108537
132	0xbec64c26	-0.38729972
133	0xbe239949	-0.15976442
134	0xbd1cf50c	-0.038319632
135	0xbef303e4	-0.47463906
136	0xbe2e481a	-0.17019692
137	0xbf868823	-1.0510296
138	0x3e06c59e	0.13161322
139	0x3d51949a	0.051167108
140	0x3dd7af8e	0.10531531
141	0x3cd7c95f	0.026341138
142	0x3da4009b	0.08007928
143	0x3df6b526	0.1204627
144	0xbd472fea	-0.04862968
145	0x3e8829f7	0.26594517
146	0xbdccc5a1	-0.09998632
147	0x3d30f0cf	0.043198403
148	0x3d901833	0.07035866
149	0x3ba45654	0.005015174
150	0x3e7e4747	0.24831878
151	0xbdfbac76	-0.12288754
152	0xbe8ae31e	-0.27126402
153	0x3f16d82e	0.58923614
154	0xbd846264	-0.06464079
155	0xbca17580	-0.019709349
156	0xbcee17a9	-0.029064016
157	0xbdb4dd49	-0.08831269
158	0xbd0cee9a	-0.034407236
159	0x3df19ece	0.11797868
160	0xbfb1145a	-1.3834336
161	0xbd2cf8e4	-0.042229548
162	0xbdb2d6d6	-0.08732383
163	0x3e8e3d98	0.27781367
164	0x3e67e179	0.22644605
165	0xbeb88983	-0.36042413
166	0xbc8eb24c	-0.017419003
167	0xbe0662a0	-0.1312356
168	0xbdcaf660	-0.099102736
169	0xbd788adf	-0.060679313
170	0xbb08df54	-0.0020885067
171	0xbd74d795	-0.059775908
172	0xbe0f57ad	-0.1399829
173	0x3eb2e34d	0.34939042
174	0xbdf1de1d	-0.11809943
175	0xbde98427	-0.11402159
176	0xbdb997a4	-0.09062126
177	0x3df51f79	0.119688936
178	0x3d1cab08	0.038249046
179	0xbe94cbeb	-0.29061827
180	0xbf27bd07	-0.6552281
181	0x3e8b330f	0.27187392
182	0x3e33907e	0.17535588
183	0xbe06279a	-0.13101044
184	0xbec00a4d	-0.3750786
185	0xbe8310e6	-0.2559883
186	0x3b17136e	0.0023052352
187	0x3d8629e3	0.06550958
188	0xbf28608f	-0.65772337
189	0xbdfea07e	-0.12432955
190	0xbd0ab96a	-0.03386823
191	0xbe94e6f0	-0.2908244
192	0xbe236390	-0.15955949
193	0xbeed2c7f	-0.4632301
194	0x3db0ab64	0.0862644
195	0x3e979f66	0.296138
196	0xbe16a15d	-0.14709993
197	0xbe7455cd	-0.23860855
198	0x3dc491f4	0.09598151
199	0xbf073370	-0.5281286
200	0xbefb887a	-0.4912756
201	0x3dec9c33	0.1155323
202	0xbdd5f8c1	-0.10447837
203	0x3cb6a6a5	0.02229626
204	0x3e5aef87	0.21380435
205	0x3d1da016	0.038482748
206	0xbd09adcc	-0.03361301
207	0x3e77e0bd	0.24206825
208	0x3d9e615b	0.07733413
209	0x3e9240b7	0.28564999
210	0xbf31e8a2	-0.69495595
211	0xbe7a785b	-0.24459974
212	0xbd483ad6	-0.048884235
213	0x3dc35d34	0.095392615
214	0xbe8f160b	-0.27946505
215	0xbda3b336	-0.07993166
216	0xbdfd855a	-0.123789504
217	0x3ed58c9e	0.41708845
218	0xbc033e45	-0.008010452
219	0x3e89772f	0.26848742
220	0x3e06036e	0.13087246
221	0x3e7010ca	0.23443905
222	0x3ee97da3	0.45603666
223	0x3e836aff	0.2566757
224	0x3e630d5c	0.22173065
225	0xbe0598c6	-0.1304656
226	0xbdc5f2a2	-0.09665419
227	0xbf4724ef	-0.7779073
228	0xbf7925e4	-0.9732344
229	0x3ddf3921	0.10899568
230	0x3ee1724a	0.44032508
231	0x3e49ca19	0.19706
232	0x3ea28c24	0.31747544
233	0x3e606080	0.21911812
234	0x3e81e42a	0.25369388
235	0x3dd63d38	0.10460895
236	0x3d84d22a	0.06485398
237	0x3e46c594	0.19411308
238	0xbe14b7c7	-0.1452323
239	0xbce92a59	-0.028462576
240	0x3e9c1700	0.30486298
241	0x3d750911	0.0598231
242	0xbe6820fc	-0.22668833
243	0xbf6388df	-0.88880724
244	0xbdb66291	-0.08905519
245	0x3e702051	0.23449828
246	0xbda00242	-0.07812931
247	0xbec6853a	-0.3877352
248	0x3dfebba3	0.124381326
249	0x3da0f30e	0.07858859
250	0x3e6b7632	0.22994307
251	0x3e12da5d	0.14341111
252	0x3ebdd2e8	0.3707497
253	0x3e091617	0.13387333
254	0x3e0c3425	0.13691767
255	0xbd9aa341	-0.075506695

4.bias f4 [160]
0	0xbde347ed	-0.11097703
1	0xbe2a0a87	-0.16605578
2	0x3dcffeed	0.10156045
3	0xbd0ebda9	-0.034848843
4	0xbdd89ec1	-0.10577155
5	0xbbd838e5	-0.006598579
6	0xbc8a00ce	-0.016846087
7	0xbd8b64f0	-0.06806362
8	0x3d09eb43	0.03367163
9	0xbe5e9dab	-0.21739833
10	0xbd2ac9c2	-0.041696317
11	0xbdb702e9	-0.08936102
12	0xbe22f207	-0.15912639
13	0xbe13f5cf	-0.14449237
14	0x3e0b227e	0.13587376
15	0xbda2e478	-0.07953733
16	0xbe3758b0	-0.17904925
17	0xbdc5a3b4	-0.096503645
18	0xbd76905f	-0.060196277
19	0xbe104013	-0.14086942
20	0x3df267ad	0.11836181
21	0xbd86f05c	-0.06588814
22	0xbdcb4495	-0.0992519
23	0xbd0b3e75	-0.03399511
24	0x3e5b5c9f	0.21422051
25	0x3cfd38f9	0.030910956
26	0xba2ced29	-0.0006596619
27	0x3c3c0db1	0.011477874
28	0x3b3a24dc	0.0028403318
29	0x3dc78e94	0.097439915
30	0x3b8a9826	0.0042295633
31	0x3d3a1f7a	0.045440175
32	0xbe562acd	-0.20914765
33	0x3cae6498	0.021288201
34	0x3d2d4aec	0.04230778
35	0x3e6da73b	0.23208325
36	0xbe79ca5c	-0.243936
37	0x3b99b065	0.0046902173
38	0x3c333f8f	0.0109404465
39	0x3d878b6a	0.06618388
40	0x3b8efbd5	0.004363517
41	0xbbad120d	-0.005281693
42	0x3beeda8d	0.007289237
43	0xbd889e13	-0.06670775
44	0xbe182db5	-0.14861186
45	0x3dbccdf8	0.09218973
46	0xbe6a9c4b	-0.22911184
47	0xbe51813d	-0.20459457
48	0xbc83e9e4	-0.016102739
49	0x3e2a5f54	0.16637927
50	0xbbe9f92f	-0.0071403007
51	0x3e05d09a	0.13067856
52	0xbe82af83	-0.2552453
53	0x3eba50c2	0.36389738
54	0xbcac4035	-0.02102671
55	0x3da2b941	0.07945491
56	0xbe18df49	-0.14928927
57	0xbd14c830	-0.036323726
58	0x3dd681b7	0.1047396
59	0x3e6b8607	0.23000346
60	0xbb15edd5	-0.0022877355
61	0xbdfa904f	-0.12234556
62	0xbd2aa6b3	-0.041662883
63	0xbdd64656	-0.10462634
64	0xbd8e4f4b	-0.06948718
65	0xbd45566a	-0.048178114
66	0x3dcd06f3	0.10011091
67	0x3e38a8cb	0.1803314
68	0x3d85be1d	0.06530402
69	0xbda4cae0	-0.08046508
70	0xbdc7ca61	-0.097553976
71	0xbe40a763	-0.18813853
72	0xbc837ca0	-0.016050637
73	0x3d74a008	0.05972293
74	0xbdb2a680	-0.087231636
75	0xbd38a3a2	-0.045077927
76	0xbdc65bd1	-0.09685481
77	0xbdca9edb	-0.098935805
78	0x3e8424e5	0.25809398
79	0x3e7866e0	0.24257994
80	0x3df87f65	0.121336736
81	0x3e43c0e8	0.19116557
82	0xbd72fdb1	-0.05932397
83	0x3aa8e10d	0.0012884453
84	0xbcebd890	-0.028789788
85	0x3b188823	0.0023274503
86	0xbd09b975	-0.03362413
87	0xbe49d871	-0.19711472
88	0xbb75100f	-0.0037393605
89	0xbca13af6	-0.019681435
90	0xbe2c21bf	-0.16809748
91	0xbbce6416	-0.0062985523
92	0x3e605312	0.21906689
93	0xbe8b83bc	-0.27248943
94	0xbdf22c2c	-0.11824831
95	0x3d4eff1b	0.050536256
96	0xbc4e8a9b	-0.012606288
97	0x3d69739d	0.056995023
98	0xbe263af5	-0.16233428
99	0x3cf58b94	0.029973783
100	0x3bc98ac9	0.0061505777
101	0x3dcafc72	0.09911431
102	0xbd5cd311	-0.053912226
103	0xbe310fa0	-0.17291117
104	0x3e39d3eb	0.18147247
105	0xbc900b8c	-0.017583631
106	0xbe32d815	-0.17465241
107	0xbdd0815a	-0.10180922
108	0xbd37ad64	-0.044843093
109	0x3d9521fa	0.07281871
110	0xbdc83e86	-0.097775504
111	0xbe86c316	-0.26320714
112	0xbd52318f	-0.051316794
113	0x3cb91d4d	0.02259698
114	0xbe620bd4	-0.22074825
115	0x3bd22c4f	0.0064139734
116	0x3cfe55bf	0.031046746
117	0x3e30907b	0.17242615
118	0xbda07788	-0.07835299
119	0xbd4b7051	-0.04966766
120	0xbe207c00	-0.15672302
121	0x3da41660	0.0801208
122	0xbe3a1a0c	-0.18173999
123	0xbe35adc4	-0.17742068
124	0x3cf601b5	0.03003011
125	0x3b406e9a	0.0029362799
126	0x3ce0cbd2	0.02744094
127	0x3d93b97f	0.07213115
128	0xbd9fa932	-0.07795943
129	0xbe28f5d6	-0.16500029
130	0x3db81833	0.08988991
131	0xbe15707d	-0.14593692
132	0x3dbe5c5a	0.092949584
133	0x3dfc0ae2	0.12306763
134	0xbdb88354	-0.09009424
135	0xbe2c0ee8	-0.16802561
136	0x3ac1fb16	0.0014799561
137	0xbd936299	-0.071965404
138	0xbd3b3aea	-0.04571048
139	0xbdd26e66	-0.10274963
140	0x3e2b14df	0.1670718
141	0xbe3453b2	-0.17610052
142	0xbe781eb0	-0.24230456
143	0x3dd406b4	0.10352841
144	0xbd955e53	-0.072933815
145	0xbdaa8b69	-0.083273716
146	0xbd1ab5d7	-0.037771072
147	0x3be2d577	0.0069224196
148	0xbe079242	-0.13239387
149	0xbd8dbcbc	-0.06920764
150	0x3e5a88f2	0.21341303
151	0xbd804d04	-0.062646896
152	0x3d875a39	0.066090055
153	0x3e309cae	0.17247269
154	0xbddf2816	-0.10896318
155	0xbd63a56b	-0.055577677
156	0xbd826019	-0.063659854
157	0xbe12630a	-0.14295593
158	0x3e31e57e	0.173727
159	0xbe3c3aec	-0.18381852

6.weight f4 [12, 160]
0	0xbd675bb5	-0.056483943
1	0xbdbd12eb	-0.09232124
2	0x3d05d7f1	0.03267664
3	0xbbe66dd0	-0.0070321336
4	0xbea86aa7	-0.3289387
5	0x3d97f5fd	0.074199654
6	0x3df4c535	0.11951677
7	0xbe49b10c	-0.19696444
8	0xbe66013d	-0.2246141
9	0x3debac73	0.115075015
10	0x3e14e5f4	0.14540845
11	0xbe457b7b	-0.19285385
12	0xbd354ba3	-0.044261586
13	0xbeecf5da	-0.4628132
14	0xbe778283	-0.2417088
15	0x3c46fdc0	0.01214546
16	0xbe682ecf	-0.22674106
17	0xbe97ba12	-0.29634148
18	0x3e503192	0.2033141
19	0xbeb126da	-0.34599954
20	0xbeb48cda	-0.3526371
21	0x3e17337a	0.1476573
22	0x3e0c9405	0.1372834
23	0x3e32fd60	0.17479467
24	0xbd9109fe	-0.07081984
25	0xbe07d8fa	-0.13266364
26	0xbdba3f41	-0.09094096
27	0xbe5eb2b4	-0.21747857
28	0xbe8a80a1	-0.2705126
29	0xbeb62b64	-0.3557998
30	0x3ca3e4d4	0.020006575
31	0x3e7d4378	0.24732769
32	0x3dacf526	0.08445196
33	0xbe90ee68	-0.2830689
34	0x3dc6e97e	0.09712504
35	0x3eaf50e2	0.34241396
36	0x3e896a59	0.2683895
37	0x3e454273	0.1926363
38	0x3e9ddb2b	0.30831274
39	0xbe5a2f50	-0.21307111
40	0xbe4f5695	-0.20247872
41	0x3f1a2535	0.60213023
42	0x3c5bf2b6	0.013424566
43	0xbe1bbd59	-0.15208949
44	0x3e187abb	0.14890568
45	0xbec459ea	-0.3834985
46	0xbef8f43f	-0.48623845
47	0xbefb4a49	-0.49080113
48	0x3dd08068	0.101807415
49	0x3e1060be	0.14099404
50	0x3e7ac9d4	0.24491054
51	0x3e517828	0.20455992
52	0xbc8a55e3	-0.016886657
53	0xbd7b0b6b	-0.061290186
54	0x3ef36b6c	0.47542894
55	0x3d7fcfcf	0.06245404
56	0x3e430204	0.19043738
57	0xbd62c1d7	-0.05536064
58	0x3e5125f3	0.20424633
59	0xbd8defb7	-0.069304876
60	0xbe37fd47	-0.17967711
61	0xbeb68a44	-0.35652363
62	0xbe366e7e	-0.17815587
63	0x3db4a1b2	0.088199034
64	0xbea85740	-0.32879066
65	0xbec65dd0	-0.38743448
66	0x3da6a70a	0.08137329
67	0x3e67c40b	0.22633378
68	0xbe0d7882	-0.13815501
69	0xbd3549dd	-0.044259895
70	0xbec2d3aa	-0.38052112
71	0xbea97e1c	-0.33104026
72	0x3e7ec79d	0.24880834
73	0xbf089e95	-0.53366977
74	0xbe219f1f	-0.15783356
75	0xbe91b816	-0.2846076
76	0x3e49e5e2	0.197166
77	0x3dff7f93	0.12475505
78	0xbe2dea1c	-0.16983837
79	0xbe3f5c4f	-0.18687557
80	0xbcef7e50	-0.029235035
81	0x3ea41f16	0.32054967
82	0x3bd3a427	0.0064587775
83	0xbd6faace	-0.0585125
84	0xbef7d347	-0.4840338
85	0x3cfb29ee	0.030659642
86	0xbe88e98b	-0.2674068
87	0x3be18ecd	0.0068834783
88	0xbdd389b6	-0.10329001
89	0xbe12d07b	-0.14337341
90	0xbccd5419	-0.025064515
91	0x3ea0625d	0.31325045
92	0x3d444af7	0.047923055
93	0xbd9a9349	-0.07547624
94	0x3d4a7a64	0.049433127
95	0x3d5fbbf6	0.054622613
96	0x3e70df33	0.23522644
97	0xbca8579d	-0.02054959
98	0xbdf4baa5	-0.11949662
99	0xbd82ff6a	-0.063963726
100	0x3ddb483e	0.107071385
101	0xbd0a935e	-0.033831947
102	0xbda34545	-0.079721965
103	0xbe0dbd52	-0.13841751
104	0xbd50ad1e	-0.050946347
105	0xbd2ed5c9	-0.04268435
106	0xbe550ceb	-0.20805709
107	0xbe4a782a	-0.19772401
108	0xbe7ab639	-0.24483575
109	0x3e019292	0.12653568
110	0xbdd3ac88	-0.10335642
111	0x3b537161	0.0032263624
112	0xbd6bfce4	-0.057614222
113	0x3c6c7e05	0.014434342
114	0x3f7572cb	0.95878285
115	0x3dce57f4	0.100753695
116	0x3e03efae	0.128844
117	0x3d2728b0	0.040810287
118	0xbe543d5e	-0.20726535
119	0x3e8c8856	0.27447766
120	0xbe641a4c	-0.22275656
121	0x3c985bcb	0.018598458
122	0xbe2e81b7	-0.1704167
123	0xbeb1f01d	-0.34753504
124	0xbe66ca0f	-0.22538017
125	0x3e58011c	0.21094173
126	0xbd296e82	-0.041365154
127	0x3e15b9db	0.1462168
128	0xbe67870e	-0.22610113
129	0x3e2615b1	0.16219212
130	0xbd243967	-0.040093806
131	0x3e8c47c9	0.27398518
132	0x3e4dd378	0.201002
133	0xbd46e7e8	-0.048561007
134	0xbe454fb0	-0.1926868
135	0xbdbf81f1	-0.09350956
136	0xbde78acb	-0.113057695
137	0x3ead9bd2	0.33907944
138	0x3e4a1365	0.19733961
139	0xbd242db1	-0.040082637
140	0x3ed6406a	0.4184602
141	0x3d7536b7	0.059866633
142	0xbd18663a	-0.037206866
143	0x3eb5ad56	0.35483807
144	0x3e896c35	0.26840368
145	0xbe3812d8	-0.17975938
146	0xbdcfc083	-0.101441406
147	0xbe608c4a	-0.21928516
148	0x3d6ec0e8	0.05828944
149	0xbd8e133f	-0.06937265
150	0x3e310ea7	0.17290746
151	0xbe58f1d2	-0.21185997
152	0xbec826c2	-0.3909207
153	0x3e3f3eeb	0.18676345
154	0xbe731fb9	-0.2374257
155	0x3f010d16	0.5041059
156	0x3d8cc7c6	0.06874041
157	0x3dc49d31	0.096002944
158	0xbdac5b66	-0.0841587
159	0x3e0e13cc	0.1387474
160	0xbee8f2c9	-0.4549773
161	0x3dada1a9	0.084781
162	0xbe8280a4	-0.2548877
163	0xbdc3b015	-0.09555069
164	0xbd1985a4	-0.037480965
165	0xbdd85fb6	-0.105651304
166	0x3e8139ba	0.25239354
167	0x3d538787	0.05164292
168	0xbe41a120	-0.1890912
169	0x3e7360c0	0.23767376
170	0xbd9a9a32	-0.07548942
171	0xbc0304d5	-0.0079967575
172	0x3eae3c01	0.34030154
173	0x3eb0a14b	0.34498057
174	0xbe92c30e	-0.2866444
175	0xbeb3125d	-0.34974948
176	0xbefdeea4	-0.4959613
177	0x3e07de07	0.1326829
178	0x3eb136f6	0.34612244
179	0x3ee80792	0.45318276
180	0xbec469fa	-0.38362104
181	0x3df10c6b	0.11769947
182	0xbdd78acf	-0.105245225
183	0xbee3452d	-0.44388714
184	0xbeee72c6	-0.4657194
185	0x3e8a131e	0.2696771
186	0xbeb180d4	-0.346686
187	0xbe28ca05	-0.16483314
188	0xbf02ccff	-0.5109405
189	0xbdcf976d	-0.10136304
190	0x3e31c58f	0.17360519
191	0xbf3157ff	-0.69274896
192	0x3e886561	0.26639846
193	0xbecd1dbe	-0.40061754
194	0x3e52cab0	0.20585132
195	0xbed5e351	-0.4177499
196	0x3ea278cc	0.31732786
197	0x3e20d22c	0.15705174
198	0xbdccbbd1	-0.09996761
199	0xbd4a5fa9	-0.049407635
200	0x3db2145b	0.08695289
201	0xbd9cc331	-0.07654417
202	0xbdbaa564	-0.09113577
203	0xbe6ecf19	-0.23321189
204	0xbd8405c0	-0.06446409
205	0xbe725dea	-0.23668638
206	0x3e61403e	0.21997163
207	0x3cf69009	0.030097978
208	0xbe34a248	-0.1764003
209	0xbf58a93c	-0.8463323
210	0x3efb8f7d	0.4913291
211	0xbd42844c	-0.04748945
212	0x3e1695c9	0.14705576
213	0xbf44ba34	-0.76846623
214	0x3ccafdd0	0.02477923
215	0xbef79712	-0.48357445
216	0x3e443d12	0.19163921
217	0xbe4a28fe	-0.197422
218	0xbe5d8222	-0.21631673
219	0xbf28f5ae	-0.6599988
220	0xbb4b8e5c	-0.0031060195
221	0xbe181e1e	-0.14855239
222	0xbd88f491	-0.06687272
223	0xbdb4ac5b	-0.08821937
224	0x3ef9f828	0.4882214
225	0x3e0b21a5	0.13587053
226	0xbea0afb7	-0.3138406
227	0xbec36e78	-0.38170218
228	0xbeb57ea2	-0.35448176
229	0x3e07fc3c	0.13279814
230	0x3e4c4bcd	0.1995079
231	0x3eafcf89	0.34338024
232	0xbef53c56	-0.47897595
233	0xbd60962d	-0.05483072
234	0xbe860293	-0.2617384
235	0x3ddcbc34	0.107780844
236	0x3e5c331e	0.21503875
237	0xbf2d2e69	-0.6764894
238	0xbf393c11	-0.7235728
239	0xbf2d0d12	-0.6759807
240	0xbf0d5acb	-0.55216664
241	0xbe8719b4	-0.26386797
242	0xbe145d5f	-0.14488743
243	0x3f27e3b9	0.6558185
244	0x3f3e2e4f	0.7428941
245	0xbea1703b	-0.31530938
246	0xbeca1a90	-0.3947339
247	0xbe63bb2c	-0.22239369
248	0xbdf936c3	-0.12168648
249	0xbefa5559	-0.4889324
250	0x3e8f01f1	0.2793117
251	0xbec6a020	-0.3879404
252	0xbf442264	-0.76614976
253	0xbe192a51	-0.14957549
254	0xbeb2ce0b	-0.34922823
255	0xbc25ae0c	-0.010112297

6.bias f4 [12]
0	0xbd5d48a7	-0.054024365
1	0xbf0d3aec	-0.5516803
2	0xbd09dcaa	-0.033657707
3	0x3e9f1f8a	0.3107875
4	0xbc8f9864	-0.01752872
5	0xbe14c4c2	-0.14528182
6	0x3dcfbeae	0.10143791
7	0x3d380aa2	0.044932015
8	0xbdc10170	-0.09424102
9	0x3c4cacba	0.012492353
10	0x3e18ec44	0.14933878
11	0x3e09c5f6	0.13454422
