demo/envs/env_net_3.pth (torch, 240783 bytes, 8 tensors)

0.weight f4 [160, 38]
0	0xbc416e49	-0.011806079
1	0x3e2545a8	0.16139853
2	0xbe8b20da	-0.271735
3	0xbee83159	-0.4535015
4	0xbe32015d	-0.17383333
5	0xbe58597a	-0.21127883
6	0x3f3c8ecb	0.73655385
7	0xbe5b15f7	-0.21395098
8	0xbd66f1e0	-0.056383014
9	0xbe805372	-0.25063664
10	0xbd37e22a	-0.04489342
11	0xbe5c99ac	-0.21542996
12	0x3ef14fac	0.47131097
13	0xbde953ed	-0.11392961
14	0xbf06979d	-0.52575094
15	0x3dbd260e	0.09235774
16	0xbe026668	-0.12734377
17	0x3e636af1	0.22208764
18	0xbe724ba0	-0.23661661
19	0x3e310a2a	0.17289034
20	0x3e546a68	0.20743716
21	0x3e58f7d6	0.21188292
22	0x3f09a62f	0.537692
23	0xbf68f27e	-0.90995014
24	0x3df25c2c	0.11833987
25	0x3e97f60e	0.29679912
26	0x3caeb03b	0.021324268
27	0x3e8069db	0.2508076
28	0xbe99bc62	-0.30026537
29	0xbbc7b8c2	-0.006095023
30	0xbf09f8d9	-0.53895336
31	0xbe1d1364	-0.15339428
32	0xbea69e42	-0.32542616
33	0x3d89df34	0.06732026
34	0x3d829dc9	0.063777514
35	0x3f06e65a	0.5269524
36	0xbf23b91f	-0.6395435
37	0x3f3d356a	0.7390963
38	0xbeac2b30	-0.336267
39	0xbe9c2b6a	-0.30501872
40	0xbcc797d5	-0.024364391
41	0x3ec6d9ae	0.3883795
42	0xbe760c3b	-0.24028103
43	0x3e122861	0.14273216
44	0xbddb6660	-0.10712886
45	0xbe5411fe	-0.20709988
46	0x3ea590da	0.32337075
47	0x3de0daa7	0.109792046
48	0xbed3b37d	-0.41347876
49	0x3e76a592	0.24086598
50	0xbf06e370	-0.5269079
51	0xbdb07530	-0.08616102
52	0xbdc7704d	-0.097382165
53	0x3eb7624e	0.35817188
54	0xbea0720f	-0.3133702
55	0xbe129924	-0.14316231
56	0x3cbc35e5	0.022974918
57	0xbcbf3051	-0.023338469
58	0x3cf32382	0.029680017
59	0xbe468672	-0.19387224
60	0x3ead4741	0.33843425
61	0x3e7e6ece	0.24846956
62	0x3de5ea5d	0.11226342
63	0xbf5ea71b	-0.8697373
64	0x3ddc0f2e	0.10745083
65	0x3e9b3cd9	0.3031986
66	0x3ee13b97	0.43990776
67	0x3c1768c5	0.009241288
68	0x3ed459c6	0.41474742
69	0x3e0554cf	0.13020633
70	0x3bf9c7be	0.007622688
71	0x3ebd5280	0.36977005
72	0xbd9d3a32	-0.076771155
73	0x3ed9dbed	0.42550603
74	0x3eb16cd0	0.3465333
75	0x3e872989	0.26398876
76	0xbe11d30e	-0.14240667
77	0x3e08e555	0.13368733
78	0xbf04274c	-0.5162246
79	0xbd5327bd	-0.05155157
80	0x3edcb55e	0.43107122
81	0xbc7f3424	-0.015576396
82	0xbdb1b9a2	-0.08677985
83	0xbb3cc003	-0.0028800971
84	0x3e8488f7	0.25885746
85	0xbac533ae	-0.0015045309
86	0xbe81bb1e	-0.25338072
87	0xbeab3222	-0.33436686
88	0x3ea109fd	0.31452933
89	0xbe19f2e7	-0.15034066
90	0x3f011e55	0.5043691
91	0x3dcf3570	0.10117614
92	0xbf1ba2bc	-0.6079519
93	0xbef50166	-0.4785263
94	0x3e5ec5d7	0.21755157
95	0xbe21c98e	-0.15799543
96	0xbd8a8619	-0.06763858
97	0x3e02282a	0.12710634
98	0xbc7f46e5	-0.015580867
99	0xbf184641	-0.594822
100	0x3e23f01f	0.16009568
101	0xbe19a259	-0.15003337
102	0xbe26eec6	-0.16302022
103	0xbda96dff	-0.08272933
104	0x3e8b5d2f	0.2721953
105	0x3e2749a9	0.16336693
106	0xbdf918aa	-0.121629074
107	0xbe2119ef	-0.15732549
108	0xbd2f3d7a	-0.042783238
109	0x3eb17631	0.34660485
110	0xbe0b4ef3	-0.13604335
111	0xbe708921	-0.2348981
112	0xbdff9524	-0.12479618
113	0x3f172bd5	0.5905126
114	0x3e127fbb	0.14306538
115	0x3ef4fae2	0.47847658
116	0xbed8e0c6	-0.4235899
117	0x3d2a3f33	0.041564178
118	0x3f18480f	0.5948495
119	0x3e95a5eb	0.29228148
120	0x3ed3ce33	0.41368255
121	0xbdbaaf3f	-0.09115457
122	0x3e55c912	0.20877483
123	0x3e829a13	0.25508174
124	0x3eb8110e	0.35950512
125	0x3b18681f	0.002325542
126	0x3e3834da	0.17988911
127	0xbf5d8a3b	-0.8653905
128	0xbe8b6b32	-0.2723022
129	0x3ef13518	0.4711082
130	0x3ed78861	0.42096236
131	0x3d82f1bd	0.06393764
132	0x3e95f5ba	0.29289037
133	0x3e324025	0.17407282
134	0xbe87af17	-0.2650077
135	0x3d89196e	0.066943035
136	0x3d93f4ad	0.072244026
137	0xbf467437	-0.7752108
138	0xbd3a80c2	-0.04553295
139	0x3dfd0ecf	0.1235634
140	0x3e6fc09f	0.23413323
141	0x3e1fac6d	0.15593119
142	0xbe2f7f40	-0.17138386
143	0xbe660b62	-0.2246528
144	0x3f3e3315	0.74296695
145	0x3f36e357	0.71440643
146	0x3dde0ff3	0.10842886
147	0x3f2726da	0.6529366
148	0xbe36ba1c	-0.17844433
149	0xbebca551	-0.36844876
150	0xbe403341	-0.18769552
151	0x3ee51659	0.44743612
152	0xbddf46ad	-0.10902152
153	0x3ed2a669	0.41142586
154	0x3e2d6e2c	0.16936558
155	0xbe17a64c	-0.14809531
156	0xbe03721a	-0.12836495
157	0xbd14429b	-0.036196332
158	0xbee65efd	-0.44994345
159	0x3eae6fbe	0.34069628
160	0x3d1a7a47	0.03771427
161	0xbe82655b	-0.25467953
162	0x3e54f9a1	0.20798351
163	0x3e727eb0	0.2368114
164	0x3e28500d	0.16436787
165	0xbee3f6a7	-0.44524118
166	0x3f433f11	0.76268107
167	0xbec31fec	-0.38110292
168	0xbdf43670	-0.11924446
169	0x3e866311	0.26247457
170	0xbf590554	-0.84773755
171	0xbddf5bf0	-0.109062076
172	0x3e968924	0.29401505
173	0xbe6d2e47	-0.23162185
174	0x3e545968	0.20737231
175	0x3f4ac917	0.7921309
176	0x3dc614f8	0.09671968
177	0xbec60bf8	-0.38681006
178	0xbc1d88ce	-0.009615136
179	0xbeb32485	-0.349888
180	0xbe297a9e	-0.16550681
181	0x3bf8d066	0.0075932024
182	0x3f8db8b8	1.1071997
183	0xbe3933ac	-0.18086118
184	0x3f4a3d40	0.7899971
185	0x3f2b8c88	0.6701131
186	0xbf43a07c	-0.76416755
187	0x3dd815e8	0.10551053
188	0x3e895239	0.26820543
189	0x3bf38f3b	0.007432846
190	0x3efaade9	0.48960808
191	0xbde71e04	-0.11285022
192	0xbc267aed	-0.010161144
193	0xbe01be26	-0.12670192
194	0x3dee20c8	0.11627346
195	0x3e5a2243	0.21302132
196	0x3ca9f0ac	0.020744644
197	0x3e374556	0.17897543
198	0x3e4c4fff	0.19952391
199	0xbe1243e9	-0.14283718
200	0xbeaaa2ba	-0.33327276
201	0x3de9b849	0.11412103
202	0x3f08745a	0.5330254
203	0xbd874ade	-0.06606077
204	0x3d2f5dd1	0.04281408
205	0x3e347674	0.17623311
206	0xbeee657a	-0.46561795
207	0x3e46c8d6	0.1941255
208	0x3e82f401	0.25576785
209	0xbe0aac0a	-0.1354219
210	0xbeba7222	-0.364152
211	0xbddf12e1	-0.10892273
212	0xbe3e70e0	-0.18597746
213	0xbc530e4f	-0.012881829
214	0x3e53f529	0.2069899
215	0x3db5532c	0.088537544
216	0xbe0291c5	-0.12750919
217	0xbdb96e18	-0.09054202
218	0x3e4c67ba	0.19961444
219	0x3df48119	0.11938686
220	0xbeeef120	-0.4666834
221	0xbd675e17	-0.056486215
222	0xbc9dec65	-0.01927776
223	0x3f2136f4	0.62974477
224	0xbdd08069	-0.10180742
225	0xbeef006c	-0.4668001
226	0xbdf43e10	-0.119259
227	0xbed3aa76	-0.4134099
228	0x3e0addae	0.13561127
229	0xbeaffa73	-0.34370765
230	0xbe9bdd56	-0.30442303
231	0x3d7057ea	0.05867759
232	0xbe8810b6	-0.2657525
233	0x3ddac568	0.106821835
234	0xbdc4521a	-0.09585972
235	0xbe6640f1	-0.2248571
236	0xbbbeb971	-0.005820446
237	0xbe7d974d	-0.24764748
238	0x3efaeab8	0.490072
239	0xbda7add9	-0.08187456
240	0x3ea099a9	0.31367233
241	0x3ecb88f9	0.3975294
242	0xbed46f7d	-0.4149131
243	0x3dc73058	0.09726018
244	0x3eb1f10e	0.34754223
245	0xbd925368	-0.07144815
246	0x3e22057c	0.15822405
247	0xbe26303e	-0.1622934
248	0x3f0409a3	0.51577204
249	0x3e3f4d46	0.18681821
250	0x3ef7c27d	0.4839057
251	0xbf12b99e	-0.5731448
252	0x3e616c99	0.22014083
253	0x3eda367c	0.42619693
254	0xbea7bebc	-0.32762706
255	0x3e01ddd6	0.1268228

0.bias f4 [160]
0	0xbc82fd15	-0.01598982
1	0xbd681502	-0.05666066
2	0xbd0b042c	-0.033939525
3	0x3cb0aadc	0.021565847
4	0xbd9047c7	-0.070449404
5	0xbd669dfa	-0.056303002
6	0x3d3cae20	0.046064496
7	0xbd2cc55d	-0.042180408
8	0x3c2ac5cc	0.010423135
9	0xbe0d91f3	-0.13825206
10	0xbc8040d0	-0.015655905
11	0xbcd469b3	-0.025929308
12	0xbdc59977	-0.09648412
13	0xbd257f93	-0.040404867
14	0xbdde043b	-0.10840651
15	0x3bc8f15f	0.0061322893
16	0xbde14ad6	-0.11000602
17	0xbcee8038	-0.029113874
18	0x3b24315f	0.0025053842
19	0xbc3228ca	-0.010873983
20	0xbd7dd92c	-0.06197469
21	0xbcdae509	-0.02672054
22	0x3d8e281b	0.06941243
23	0xbd35ba02	-0.044366844
24	0x3cd81627	0.02637775
25	0xbcce437b	-0.025178662
26	0xbba5f3fa	-0.0050644847
27	0xbd23645d	-0.039890636
28	0x3c870f89	0.0164869
29	0xbcd656f0	-0.026164502
30	0xbb9c5c77	-0.004771765
31	0xbc7db876	-0.015485873
32	0xbdae555a	-0.08512373
33	0x3cae1fbe	0.02125537
34	0xbc00e3e7	-0.007866836
35	0x3b336ccb	0.0027378078
36	0xbd4f7c2b	-0.050655525
37	0xbd264606	-0.040594123
38	0xbcb9d558	-0.022684738
39	0xbc896222	-0.016770426
40	0xbb0fc1f2	-0.0021935669
41	0xbc9c2498	-0.019060418
42	0xbc6f55c8	-0.014607854
43	0x3d3f91c2	0.046769865
44	0xbc94a993	-0.018147266
45	0xbd7f6e45	-0.06236102
46	0xbd4073ca	-0.046985425
47	0xbcba3b06	-0.022733223
48	0xbdd0fdc0	-0.10204649
49	0xbc533f1a	-0.012893463
50	0xbd222cb3	-0.03959341
51	0x3cae7340	0.02129519
52	0xbd0f990d	-0.03505807
53	0xbda06376	-0.07831471
54	0x3d9ca2c3	0.07648232
55	0xbd16adcc	-0.03678684
56	0xbd485035	-0.048904616
57	0x3d8d8e00	0.0691185
58	0xbcfe2b3d	-0.031026477
59	0xbc3fe583	-0.011712435
60	0xbd1a322c	-0.037645504
61	0x3c750c78	0.014956586
62	0xbd628005	-0.05529787
63	0xbce15ff8	-0.027511582
64	0xbc92485d	-0.017856771
65	0xbcd536f5	-0.026027182
66	0xbd90d889	-0.07072551
67	0xbb0e9bf8	-0.0021760445
68	0x3cad1956	0.021130245
69	0xbcb06738	-0.021533594
70	0xbd8b60fe	-0.06805609
71	0xbd0c91a7	-0.034318592
72	0xbd463fdc	-0.048400745
73	0xbcc36c23	-0.023855275
74	0xbd8e5c5e	-0.069512114
75	0xbd8a9ddf	-0.06768393
76	0x3d6b64a4	0.057469025
77	0x3c72438b	0.014786611
78	0xbd2d6cfb	-0.04234026
79	0xbd37c7c3	-0.044868242
80	0xbcc5941b	-0.024118474
81	0xbd890db5	-0.066920675
82	0xbc915383	-0.017740017
83	0xbdd6a8ad	-0.10481391
84	0xbd932c78	-0.07186216
85	0x3befa1c0	0.0073129833
86	0x3d1fe49d	0.039036382
87	0xb9f5d211	-0.00046886553
88	0xbd25c2ea	-0.040469088
89	0xbd29f1a1	-0.0414902
90	0x3b82abc4	0.003987761
91	0xbe2638a0	-0.16232538
92	0xbca7af55	-0.020469347
93	0x3d8b15ea	0.06791289
94	0xbe1be6ff	-0.15224837
95	0x3cef14df	0.029184757
96	0xbd94c143	-0.07263424
97	0x3d8b50b9	0.06802506
98	0xbcf6358d	-0.030054832
99	0x3c8aa043	0.016922122
100	0x3cffe9cd	0.031239415
101	0xbc43e98c	-0.011957537
102	0xbdb38ca8	-0.087670624
103	0xbd72b3b2	-0.059253402
104	0x3b9b808d	0.004745549
105	0xbdb691aa	-0.08914502
106	0x3d49c0a0	0.049255967
107	0x3d13821b	0.03601275
108	0xbd8ecc6a	-0.06972583
109	0xbd65e6c3	-0.056128275
110	0x3c9e1654	0.019297756
111	0x3b25e2d1	0.0025312195
112	0xbcc941fa	-0.024567593
113	0x3d665d4a	0.05624131
114	0xbdbf4de6	-0.0934103
115	0x3d6000ef	0.05468839
116	0xbcf3cc14	-0.029760398
117	0xbaec1eed	-0.0018014588
118	0xbc887a98	-0.01666002
119	0xbc89d3e2	-0.016824666
120	0xbd81e2a9	-0.0634206
121	0x3c397abc	0.011320766
122	0xbbfb853a	-0.007675794
123	0xbd77bfc8	-0.06048563
124	0x3d9c463b	0.07630583
125	0x3abde459	0.0014487609
126	0x3d509f25	0.050933022
127	0xbc44b4b5	-0.012005975
128	0xbd5a70d2	-0.05333025
129	0x3c976f89	0.018485801
130	0xbcfde9b4	-0.030995227
131	0x3c69f418	0.014279388
132	0xbbefce6b	-0.007318308
133	0xbe0c006f	-0.1367204
134	0xbd933ac1	-0.07188941
135	0xbd1332b3	-0.035937022
136	0xbd27796c	-0.04088728
137	0xbdf6df7c	-0.12054345
138	0xbc76a883	-0.015054825
139	0x3c18c1ef	0.009323581
140	0x3d41f38e	0.047351412
141	0xbcfc154c	-0.030771874
142	0xbd32a714	-0.04361637
143	0x3c9104c4	0.017702468
144	0xbda35354	-0.07974878
145	0xbd297c98	-0.041378587
146	0x3cbfdf82	0.023422007
147	0x3b0ed6d2	0.0021795523
148	0xbcf6eb3f	-0.030141471
149	0xbb4fc967	-0.0031705739
150	0x3d6dfc1f	0.05810177
151	0xbd7a5440	-0.061115503
152	0xbc9b2eee	-0.018943276
153	0x3c824025	0.015899727
154	0x3bef0cc1	0.0072952216
155	0xbb3d1a15	-0.0028854657
156	0xbd1aea18	-0.037820905
157	0x3abd2beb	0.0014432644
158	0xbd0a9a4b	-0.03383855
159	0xbc3dd32f	-0.011585995

2.weight f4 [160, 160]
0	0x3cb47df8	0.022032723
1	0x3ce18534	0.027529337
2	0xbe19977b	-0.14999191
3	0xbe13c848	-0.1443187
4	0xbce62fbf	-0.028098939
5	0x3e16e249	0.14734758
6	0xbd7d9f13	-0.061919283
7	0x3e3c3a9a	0.1838173
8	0xbcaf99e8	-0.021435693
9	0x3e00c4f2	0.12575129
10	0xbd6646a5	-0.056219716
11	0x3da64010	0.08117688
12	0xbe47fe0e	-0.19530508
13	0xbd11ddd8	-0.035611957
14	0x3dedef3b	0.11617895
15	0x3d620ac5	0.055186052
16	0xbdbfcc09	-0.093650885
17	0xbd132e59	-0.035932872
18	0xbd7bea61	-0.061502818
19	0xbd2b8781	-0.041877273
20	0xbde03957	-0.10948437
21	0x3d96d64a	0.07365091
22	0x3cf7f36e	0.030267444
23	0xbe4370d0	-0.19086003
24	0xbe68e88d	-0.22744961
25	0xbe20a629	-0.15688385
26	0xbe79cf29	-0.24395432
27	0x3d4b7369	0.04967061
28	0x3e214f7f	0.15752982
29	0xbe0d18b5	-0.13778956
30	0xbe6c78a6	-0.23092899
31	0x3d8f170b	0.06986817
32	0xbde68314	-0.1125547
33	0xbd018b99	-0.03162727
34	0x3ce577cf	0.02801123
35	0xbd53f458	-0.051746696
36	0xbdd8f7d4	-0.105941445
37	0x3e0a7f93	0.13525228
38	0xbe50bf68	-0.20385516
39	0x3ce2a546	0.0276667
40	0xbde56958	-0.11201733
41	0xbda42dad	-0.080165245
42	0xbdc6abaf	-0.09700715
43	0x3d4db229	0.050218735
44	0xbe00631f	-0.12537812
45	0xbe0aa9c6	-0.13541326
46	0xbcd352c5	-0.025796304
47	0x3d90517e	0.070467934
48	0xbda40de4	-0.08010462
49	0xbe5149d3	-0.20438318
50	0xbdf974a4	-0.121804506
51	0xbd07706a	-0.03306619
52	0xbe548517	-0.20753895
53	0xbd16403b	-0.03668235
54	0x3e18cb4f	0.14921306
55	0x3dd67d3d	0.10473106
56	0x3d9fea1c	0.07808325
57	0xbe267e8e	-0.16259214
58	0xbd422a14	-0.04740341
59	0x3dae7940	0.0851922
60	0xbe63c366	-0.22242507
61	0xbd9459b3	-0.07243671
62	0xbe42da37	-0.19028555
63	0x3c9ded4f	0.019278197
64	0xbe3e5360	-0.18586493
65	0xbe46e29a	-0.19422379
66	0x3de64230	0.11243093
67	0xbe01d49a	-0.12678757
68	0xbd07d24b	-0.033159535
69	0xbe1a7d6c	-0.15086907
70	0x3e0a1b75	0.13487037
71	0x3cbf74c2	0.023371104
72	0xbe2b19f6	-0.16709122
73	0xbc9bdd39	-0.019026386
74	0x3e28bf4c	0.16479224
75	0x3dcb84fe	0.099374756
76	0xbda4bb37	-0.08043521
77	0x3dac245a	0.08405371
78	0xbe48ae9e	-0.19597861
79	0x3b916408	0.0044369735
80	0x3df221d5	0.11822859
81	0x3dced107	0.100984626
82	0xbb65d7d4	-0.003507127
83	0x3e240b03	0.16019826
84	0xbd749843	-0.05971552
85	0xbe15bc0a	-0.14622512
86	0x3e036147	0.12830077
87	0xbe6e345b	-0.2326216
88	0xbca48fdc	-0.020088129
89	0x3e1e48ba	0.1545743
90	0xbe5a616c	-0.21326226
91	0x3dbac026	0.09118681
92	0x3dc91d14	0.09819999
93	0x3d85fbd2	0.065421715
94	0x3d98dba5	0.07463769
95	0x3d54eb16	0.051982008
96	0xbe123acf	-0.14280246
97	0xbe7c9e10	-0.24669671
98	0x3d7e2c9e	0.06205427
99	0xbc4a52fa	-0.012348885
100	0xbdb7512f	-0.089510314
101	0xbe35bfcd	-0.17748947
102	0x3cdca8a2	0.02693588
103	0x3e1901e2	0.14942124
104	0xbde28413	-0.110603474
105	0x3d70a2de	0.058749072
106	0xbd232b2e	-0.0398361
107	0xbe4229bb	-0.18961231
108	0x3dc895dd	0.09794209
109	0x3e0c2afa	0.1368827
110	0x3e2b6355	0.16737111
111	0x3dd4e46a	0.10395129
112	0xbd2cf479	-0.042225335
113	0xbe7a4b26	-0.2444273
114	0x3e0f4376	0.13990578
115	0xbdc04fb3	-0.093902014
116	0x3da6a5ff	0.0813713
117	0xbe45fc36	-0.19334492
118	0xbe126243	-0.14295296
119	0xbde373a7	-0.11106043
120	0xbd8000cd	-0.06250153
121	0xbe674af4	-0.22587186
122	0x3df1c948	0.118059695
123	0xbe2da237	-0.16956411
124	0xbdc4aee3	-0.096036695
125	0xbcf929a1	-0.030415358
126	0xbdc1278b	-0.0943137
127	0xbe5b7514	-0.2143138
128	0xbc3f5fb9	-0.011680537
129	0xbdc50cf3	-0.096216105
130	0x3acefeb7	0.0015792464
131	0xbd893f35	-0.06701509
132	0x3c720137	0.014770797
133	0x3dd18106	0.102296874
134	0x3d8ee3e9	0.06977064
135	0x3daa44be	0.08313893
136	0x3d17931d	0.037005533
137	0xbe1f3b60	-0.15549994
138	0xbd4cb540	-0.04997754
139	0x3e0f020d	0.13965626
140	0x3d08ae6d	0.03336947
141	0xbe03ad7c	-0.12859148
142	0xbdce9ac6	-0.100881144
143	0x3d443cc2	0.047909506
144	0x3d00e645	0.031469602
145	0x3da3b245	0.079929866
146	0x3c49e644	0.012322966
147	0x3e105080	0.14093208
148	0xbe16ad08	-0.14714444
149	0xbe0c191e	-0.13681456
150	0xbd779f5d	-0.060454715
151	0xbe41d125	-0.18927439
152	0x3ddabe75	0.10680858
153	0xbe43f79f	-0.19137429
154	0xbd14bd37	-0.03631326
155	0x3e11ee30	0.14251018
156	0x3c57d3f8	0.013173096
157	0xbdf3dbeb	-0.119071804
158	0x3cec8993	0.028874194
159	0xbd6c2121	-0.05764878
160	0x3c3db158	0.011577927
161	0xbf015d5a	-0.5053307
162	0x3e55708a	0.20843711
163	0x3ebf8544	0.3740636
164	0xbf23a353	-0.6392109
165	0xbdbfa907	-0.09358411
166	0x3e19393f	0.14963244
167	0xbdce8791	-0.10084451
168	0x3eb75605	0.35807815
169	0xbee6f714	-0.4511038
170	0x3e3d07a2	0.18459943
171	0x3d3cee7c	0.046125874
172	0x3dd9b06b	0.10629352
173	0xbfa7ece7	-1.3119172
174	0xbd9f40f2	-0.07776059
175	0xbec77149	-0.38953617
176	0xbe876f4e	-0.26452106
177	0xbe92a8cd	-0.2864441
178	0x3ddbdd10	0.10735524
179	0xbf29f373	-0.663871
180	0xbf3fbba3	-0.74895686
181	0xbf1d8386	-0.61528814
182	0xbf059758	-0.5218406
183	0x3e9cb551	0.30607083
184	0x3e15d375	0.14631446
185	0xbf3ce47d	-0.73786145
186	0x3e9fd0e1	0.3121405
187	0x3ecbe1af	0.3982062
188	0xbdea8d77	-0.114527635
189	0x3e3bb446	0.18330488
190	0x3d626ece	0.055281453
191	0xbe4370d4	-0.1908601
192	0xbeb50219	-0.35353163
193	0xbf647910	-0.89247227
194	0x3dea4874	0.114396006
195	0xbf274a05	-0.6534732
196	0x3d9218f9	0.071336694
197	0x3dce622c	0.100773185
198	0x3edc1347	0.42983457
199	0xbea7662d	-0.3269514
200	0xbf845648	-1.0338831
201	0xbee274de	-0.44229788
202	0xbf474495	-0.7783902
203	0x3e0a2556	0.13490805
204	0xbdb57d2b	-0.088617645
205	0xbf62e65b	-0.88632745
206	0x3cf30b0d	0.029668355
207	0xbe8420dc	-0.2580632
208	0xbec6b9d3	-0.38813648
209	0xbd2d19b6	-0.042260848
210	0x3ed90ab8	0.4239099
211	0x3ec6353b	0.38712487
212	0x3e20480e	0.15652487
213	0xbf663041	-0.8991738
214	0xbecf15df	-0.40446374
215	0x3eb9694e	0.36213154
216	0xbe842b5f	-0.2581434
217	0xbef38f91	-0.4757047
218	0x3e56f4c7	0.20991813
219	0xbda0c44c	-0.07849941
220	0x3e41f737	0.18941961
221	0xbf31863e	-0.6934546
222	0xbf78ffd7	-0.9726538
223	0x3ec4f901	0.38471225
224	0x3e5b3030	0.21405101
225	0x3d3efe9e	0.04662954
226	0xbed8bcd4	-0.42331564
227	0xbf1d666d	-0.61484414
228	0xbeaa4e84	-0.33263028
229	0xbf72cb64	-0.948416
230	0xbf5150a0	-0.8176365
231	0x3e3125e0	0.17299604
232	0xbe6dfb7a	-0.23240462
233	0xbebed846	-0.3727438
234	0xbe2f8532	-0.17140654
235	0xbeb01c1c	-0.34396446
236	0x3e188fb7	0.14898573
237	0x3e2b0253	0.16700105
238	0xbf00c7ad	-0.5030468
239	0xbf8a7948	-1.0818262
240	0xbd9583cd	-0.0730053
241	0xbef2aed8	-0.4739902
242	0xbf972770	-1.180891
243	0xbf999f5c	-1.2001758
244	0xbe370578	-0.1787318
245	0xbd7b5884	-0.061363712
246	0x3e1e017d	0.15430255
247	0xbf735c3d	-0.9506262
248	0xbf2148b5	-0.6300157
249	0xbdba899c	-0.09108278
250	0xbfb3b9cc	-1.4041076
251	0xbf6971b8	-0.91189146
252	0x3e6391ee	0.22223637
253	0x3f008925	0.50209266
254	0xbf509737	-0.81480736
255	0xbfa934cc	-1.3219237

2.bias f4 [160]
0	0xbd81f070	-0.06344688
1	0x3da1ade4	0.07894495
2	0x3cc3f316	0.023919623
3	0x3d155a62	0.03646315
4	0xbe85005a	-0.2597683
5	0x3d5c1b68	0.053737074
6	0xbdaa81ea	-0.083255604
7	0xbc4d8375	-0.012543549
8	0x3c9b72ca	0.018975634
9	0x3e3b2364	0.18275219
10	0x3c815daf	0.015791742
11	0xbe3f5a58	-0.18686807
12	0xbd8c0d18	-0.06838435
13	0x3d911db8	0.070857465
14	0x3c5effa1	0.013610751
15	0xbcfc6294	-0.030808724
16	0xbd12f3d7	-0.035877075
17	0xbded0275	-0.11572734
18	0x3dd49fe5	0.1038206
19	0x3e141874	0.14462453
20	0xbb987aa2	-0.004653291
21	0xbdb05fac	-0.08611998
22	0x3e41ac95	0.18913491
23	0xbdb4f702	-0.088361755
24	0x3cb02230	0.021500677
25	0x3d953908	0.072862685
26	0x3d1e2077	0.03860518
27	0xbd9a06ba	-0.07520814
28	0x3dacf4dc	0.08445141
29	0x3e0f0b95	0.13969262
30	0x3c90731d	0.017633015
31	0xbdd9c923	-0.10634067
32	0xbd880e94	-0.066434056
33	0x3e2319f0	0.15927863
34	0x3db0f0ad	0.08639655
35	0x3cdb3a43	0.02676118
36	0x3e0657c0	0.13119411
37	0x3e000818	0.12503088
38	0x3dcf1f9e	0.101134524
39	0xbd61cc27	-0.055126335
40	0xbd1351b3	-0.035966586
41	0x3cdd1024	0.026985236
42	0x3e5b1744	0.21395594
43	0x3c985677	0.018595917
44	0xbd57839f	-0.052615758
45	0x3e306a82	0.1722813
46	0xbbf2ef4f	-0.0074137817
47	0x3c8937af	0.016750185
48	0x3cfba0c8	0.030716315
49	0xbcd38cc0	-0.02582395
50	0xbc2e7901	-0.010648967
51	0xbd617a8c	-0.05504851
52	0x3e0d3e4a	0.13793293
53	0x3d3356e7	0.04378405
54	0x3dca73fb	0.09885403
55	0xbd89de9f	-0.06731915
56	0x3e24b3a9	0.1608416
57	0xbd185457	-0.037189808
58	0x3d096629	0.033544693
59	0x3e03158f	0.12801193
60	0x3d7f2858	0.062294334
61	0x3db46096	0.08807485
62	0xbd1d3942	-0.038384683
63	0x3daf5308	0.08560759
64	0x3d59f043	0.053207647
65	0xbdf38f36	-0.1189255
66	0x3b377535	0.0027993445
67	0x3bffdbe2	0.0078081945
68	0xbc5d28a4	-0.013498459
69	0x3e42714f	0.18988536
70	0xbca89a5e	-0.02058142
71	0xbb4a2e65	-0.0030850407
72	0xbda91a33	-0.0825695
73	0x3d2880b4	0.041138366
74	0x3e064d3a	0.13115397
75	0xbe0cd71f	-0.13753937
76	0x3da97674	0.08274546
77	0x3d205c08	0.039150268
78	0x3d1e1b88	0.038600475
79	0xbd1851c2	-0.037187345
80	0xbdbcf34b	-0.09226092
81	0xbda220f7	-0.07916444
82	0x3d12eac3	0.035868417
83	0x3e10f667	0.14156495
84	0x3d0c78e6	0.034294985
85	0x3d29b367	0.041430857
86	0xbdbc7640	-0.09202242
87	0xbdae65d4	-0.08515516
88	0x3d248cfa	0.04017351
89	0xbda3358f	-0.079692
90	0xbd30680a	-0.04306797
91	0x3cc2c590	0.023775846
92	0x3e396ddb	0.18108313
93	0x3de2a45e	0.11066507
94	0x3d8686c6	0.06568675
95	0xbe19e963	-0.15030436
96	0x3d4cfedd	0.050047744
97	0x3d14f6d9	0.036368225
98	0x3d8942bf	0.06702184
99	0x3dd1df30	0.10247648
100	0x3d82bf7f	0.06384181
101	0x3e0571db	0.13031714
102	0x3dc628d4	0.09675756
103	0x3d8c5b18	0.06853312
104	0x3d0d7112	0.03453166
105	0x3dc1c48e	0.09461318
106	0x3d4df523	0.05028261
107	0xbd55d58e	-0.052205615
108	0x3e2e410e	0.17017004
109	0x3c895eff	0.01676893
110	0x3e44336f	0.19160245
111	0x3d045a67	0.032312777
112	0xbe3b0175	-0.18262275
113	0xbe91c406	-0.28469867
114	0xbc7659e7	-0.015036083
115	0xbc825949	-0.015911715
116	0xbda5e892	-0.08101
117	0xbe2228d0	-0.15835881
118	0x3d8fbad1	0.07018054
119	0xbde7c00e	-0.113159284
120	0xbd9379b2	-0.07200946
121	0x3cfb7c2c	0.030698858
122	0xbd017fe2	-0.0316161
123	0xbc2dd77e	-0.010610459
124	0x3de468f0	0.11152828
125	0x3c849f58	0.016189262
126	0xbde40fe2	-0.11135842
127	0xbd86ca16	-0.065815136
128	0x3c7db5de	0.015485255
129	0x3d9db59b	0.07700654
130	0xbda51332	-0.08060302
131	0xbd35d3cf	-0.04439145
132	0xbd9df6c1	-0.0771308
133	0x3e013ab4	0.1262005
134	0x3dad619b	0.084658824
135	0xbd8c0e4f	-0.06838667
136	0x3cd4d772	0.025981639
137	0x3d781d3a	0.060574748
138	0x3dde1655	0.10844103
139	0xbe21556a	-0.15755239
140	0x3d28440f	0.04108053
141	0x3e33a503	0.17543416
142	0xbd8c2658	-0.06843251
143	0x3ca6a942	0.02034438
144	0x3d30a460	0.04312551
145	0x3c5b27f6	0.013376227
146	0x3ded0f6e	0.115752086
147	0x3e25cf56	0.16192374
148	0x3d9b4ca2	0.07582976
149	0x3dd0f80f	0.102035634
150	0xbd650f4a	-0.055922784
151	0xbb6f2c92	-0.0036495072
152	0x3d949b9e	0.07256244
153	0x3d9d0f78	0.07668966
154	0xbaf954ef	-0.0019022505
155	0xbe809158	-0.25110888
156	0x3d975e29	0.073910065
157	0x3d5decbd	0.05418085
158	0x3d5f2927	0.054482605
159	0xbe571e01	-0.2100754

4.weight f4 [160, 160]
0	0x3d206566	0.0391592
1	0x3eb1c2c2	0.347189
2	0x3f01127e	0.5041884
3	0xbf38dd44	-0.72212625
4	0x3ed16446	0.40896815
5	0xbca2d208	-0.019875541
6	0xbef12bc8	-0.47103715
7	0xbd4a56ea	-0.049399294
8	0x3d4005d2	0.04688055
9	0x3c8c84b0	0.017153114
10	0x3e23b6b7	0.15987669
11	0xbdcb6915	-0.09932152
12	0x3e490bcb	0.19633405
13	0xbb9a2553	-0.0047041564
14	0xbed1ab4f	-0.4095101
15	0x3e0b680d	0.13613911
16	0x3db7153b	0.08939596
17	0x3f066426	0.52496564
18	0x3dc4c3d8	0.09607667
19	0xbf3eac2a	-0.7448145
20	0xbf0d4dd2	-0.5519687
21	0x3d671407	0.056415584
22	0xbe3e0e17	-0.18560062
23	0xbcb0da32	-0.021588419
24	0xbdb18782	-0.08668424
25	0xbe992963	-0.29914388
26	0x3d55d313	0.05220325
27	0x3d23c9be	0.03998732
28	0xbcfd1f5a	-0.030898739
29	0x3e28df6d	0.1649148
30	0xbea3d57b	-0.3199881
31	0x3e0354d0	0.12825322
32	0xbdc26ed7	-0.09493797
33	0xbf1a6f4a	-0.60326064
34	0xbe4f2407	-0.20228587
35	0x3e38ce07	0.18047343
36	0xbed7571f	-0.42058656
37	0x3de9cdc1	0.114161976
38	0x3e16bae1	0.14719726
39	0x3d8e23a8	0.06940395
40	0x3df99af0	0.12187755
41	0x3e546624	0.20742089
42	0xbf18a3d7	-0.59625
43	0x3f1283ee	0.5723256
44	0xbdff4bdd	-0.12465642
45	0x3e1a59f2	0.15073374
46	0xbf091ca9	-0.53559357
47	0x3cee99de	0.029126104
48	0x3d335442	0.043781526
49	0xbcdaf666	-0.02672882
50	0xbd3bfd03	-0.045895588
51	0x3e0fbdf8	0.14037311
52	0xbeea6fc9	-0.4578841
53	0x3e537b82	0.20652583
54	0xbef70098	-0.4824264
55	0x3d293401	0.04130936
56	0xbee33661	-0.44377425
57	0xbe1d78c4	-0.153781
58	0xbe977e3a	-0.2958849
59	0x3da9ccad	0.08290992
60	0xbf70408f	-0.9384851
61	0xbf04d5da	-0.5188881
62	0xbd8b39b4	-0.067981154
63	0x3e0d91b0	0.13825107
64	0x3db23a4c	0.087025255
65	0xbcbf94b2	-0.023386333
66	0xbec42f85	-0.38317505
67	0xbb107b66	-0.0022046207
68	0xbd142a70	-0.036173284
69	0xbd419c69	-0.047268305
70	0x3e06c90a	0.13162628
71	0x3da2463c	0.079235524
72	0x3bed03ba	0.0072331103
73	0xbed2ff97	-0.41210625
74	0xbe848efe	-0.25890344
75	0x3e544c8e	0.20732328
76	0x3e6c2c52	0.23063782
77	0x3e310f22	0.17290929
78	0xbd9b1219	-0.07571811
79	0xbe09cf27	-0.13457929
80	0xbe4c934e	-0.19978067
81	0xbec78856	-0.38971204
82	0xbcdee061	-0.027206602
83	0x3de31dd1	0.110896714
84	0x3e8a58bd	0.27020827
85	0xbeb4413f	-0.3520603
86	0x3e85e6c0	0.2615261
87	0x3d33b283	0.043871414
88	0xbe8b87c4	-0.27252018
89	0xbbbcdd33	-0.0057636737
90	0x3e21fbb2	0.1581867
91	0xbf00766b	-0.5018069
92	0xbe95a1b7	-0.2922494
93	0x3e06fc4c	0.13182181
94	0x3e9472da	0.28993875
95	0xbe619474	-0.22029287
96	0xbd8876d3	-0.06663289
97	0xbba96960	-0.0051700324
98	0xbefb7c22	-0.49118143
99	0xbea4f3d6	-0.32217282
100	0xbec73b44	-0.38912404
101	0x3efc31d1	0.49256757
102	0x3e81c600	0.25346375
103	0x3db4f466	0.08835678
104	0x3e7e1ebd	0.24816413
105	0x3d7a546a	0.06111566
106	0xbf175ec1	-0.5912896
107	0xbdf4fcbb	-0.11962267
108	0xbd05ab08	-0.03263381
109	0x3d6b585a	0.057457305
110	0xbe8158a0	-0.25262928
111	0x3e239755	0.15975697
112	0x3d82bc63	0.06383588
113	0x3d85a442	0.0652547
114	0x3d7b4566	0.06134548
115	0x3e153b7e	0.14573476
116	0x3c381a4b	0.0112367375
117	0xbee29906	-0.44257373
118	0x3cf80652	0.030276451
119	0x3e77cba2	0.24198774
120	0xbc3334e9	-0.010937908
121	0xbe451bef	-0.19248937
122	0x3e103d4d	0.14085884
123	0x3e389829	0.18026794
124	0xbeb05b01	-0.3444443
125	0x3e29daa2	0.16587308
126	0xbef52542	-0.47879988
127	0x3c88c687	0.016696228
128	0xbe1abd0a	-0.15111175
129	0xbe4a7eb3	-0.19774894
130	0xbdbd29a8	-0.09236461
131	0xbe3ab622	-0.1823354
132	0x3d1c0529	0.03809086
133	0xbc548da4	-0.012973223
134	0x3e260b34	0.16215211
135	0xbf09d1d8	-0.5383582
136	0x3e173901	0.14767839
137	0xbef78c4b	-0.48349223
138	0xbe3113a5	-0.1729265
139	0xbdbea02f	-0.09307896
140	0xbe3595ea	-0.17732969
141	0xbec0592d	-0.37568036
142	0xbdb6b72a	-0.089216545
143	0x3d55ab41	0.052165274
144	0xbea58d2d	-0.3233427
145	0xbee8a5a0	-0.45438862
146	0x3d21acbc	0.039471373
147	0xbebc4152	-0.36768585
148	0x3e38dc8a	0.18052879
149	0xbe36abb6	-0.1783894
150	0xbdaef183	-0.085421585
151	0xbe204cf9	-0.15654363
152	0x3df0dd8c	0.11761007
153	0xbf2943ea	-0.66119254
154	0xbcb0baea	-0.021573503
155	0x3ddf6bc8	0.109092295
156	0xbf44bd85	-0.76851684
157	0xbe3c6075	-0.1839617
158	0x3e83a034	0.25708163
159	0xbd8d9c11	-0.06914533
160	0xbdd2b086	-0.102875754
161	0x3dcb068c	0.09913358
162	0xbde6f1eb	-0.11276611
163	0x3b823df5	0.003974671
164	0x3e16d5a0	0.14729929
165	0x3e3f4017	0.18676792
166	0xbe4a0885	-0.19729812
167	0xbee47b59	-0.44625357
168	0x3e4d8202	0.20069125
169	0xbe4dca8d	-0.20096798
170	0x3eb145ed	0.34623662
171	0xbd7b1312	-0.061297484
172	0x3df4c83f	0.119522564
173	0xbe6de735	-0.2323273
174	0xbdb7b5c3	-0.08970215
175	0xbdfc71cd	-0.12326393
176	0xbed0032f	-0.4062743
177	0xbe95cda6	-0.2925846
178	0xbf4a89b9	-0.791164
179	0xbdb838d2	-0.089952126
180	0x3dec951d	0.115518786
181	0xbeeafe1f	-0.45897004
182	0xbef33802	-0.47503668
183	0x3e0371ca	0.12836376
184	0x3e1a434a	0.15064731
185	0x3e47fcf1	0.19530083
186	0x3e7f1f32	0.24914244
187	0xbe1b751d	-0.15181394
188	0xbf5e0b0a	-0.86735594
189	0xbf0d8f79	-0.55297047
190	0xbef46727	-0.4773495
191	0xbf65e9ec	-0.8981006
192	0x3d904ef6	0.070463106
193	0xbdc4c18d	-0.096072294
194	0xbda20452	-0.0791098
195	0x3ddfa819	0.10920734
196	0xbec5717c	-0.38563144
197	0xbf343e49	-0.7040754
198	0xbe29e131	-0.1658981
199	0x3d998c42	0.07497455
200	0xbcc6acfd	-0.02425241
201	0xbf25db56	-0.64787805
202	0xbd71f163	-0.059068095
203	0x3eaf8a81	0.34285358
204	0x3daf413b	0.085573636
205	0xbe6e7b05	-0.23289116
206	0x3c882066	0.016617011
207	0xbe98dd25	-0.2985622
208	0xbfb6af05	-1.4272162
209	0x3e954ef1	0.2916179
210	0x3dabe3f5	0.08393089
211	0xbe41a842	-0.18911842
212	0x3d946bc1	0.07247115
213	0x3c3b3a90	0.011427537
214	0xbeb234c7	-0.3480589
215	0xbd3b46ce	-0.04572182
216	0xbe9f9135	-0.31165472
217	0x3e030539	0.12794961
218	0xbe1fe0da	-0.15613118
219	0xbeb4f59c	-0.35343635
220	0xbf9359d1	-1.1511785
221	0x3ed3aafd	0.4134139
222	0xbf0608c4	-0.52357125
223	0x3dd07367	0.10178261
224	0xbe044cee	-0.12919971
225	0xbef70802	-0.48248297
226	0xbf1160a7	-0.56788105
227	0x3e2f0c89	0.17094626
228	0xbe328f40	-0.17437458
229	0xbed16d12	-0.40903527
230	0xbc4889b7	-0.012239865
231	0x3de92f02	0.11385919
232	0xbe1ec28b	-0.155039
233	0x3f1d0d31	0.61348253
234	0xbf0e89c3	-0.5567896
235	0x3d93857a	0.07203193
236	0x3e2992f5	0.16559966
237	0xbed79b07	-0.42110464
238	0xbf8070eb	-1.003446
239	0x3de79177	0.11307042
240	0x3d97cb83	0.07411864
241	0x3e0ccdc8	0.13750374
242	0x3e848b49	0.25887516
243	0x3d50ebbe	0.05100607
244	0xbf151f08	-0.58250475
245	0xbecd96a1	-0.40153983
246	0x3e0c27c7	0.13687049
247	0xbe8a4483	-0.27005395
248	0xbca4de6e	-0.020125594
249	0xbdd7683f	-0.1051793
250	0xbe8d0e0c	-0.2754978
251	0x3cd17d03	0.025572306
252	0xbea94449	-0.3305991
253	0xbe501e1c	-0.20323986
254	0xbf04fee0	-0.5195141
255	0x3e84652e	0.25858444

4.bias f4 [160]
0	0xbdf12ae4	-0.11775759
1	0xbdb0b247	-0.08627754
2	0xbcc7f278	-0.02440761
3	0xbd0a6c84	-0.033794895
4	0x3b5e5a39	0.0033928289
5	0xbd9e04b8	-0.07715744
6	0xbdb5949f	-0.08866238
7	0x3d0693ad	0.03285568
8	0xbe161db7	-0.14659773
9	0xbda1fc6e	-0.07909475
10	0xbe02d8dc	-0.12778038
11	0xbe0581e8	-0.13037837
12	0xbe1b1df7	-0.1514815
13	0xbe3a5139	-0.18195046
14	0xbcf56297	-0.029954238
15	0x3dcf60b9	0.1012587
16	0xbe460e3a	-0.19341365
17	0xbd94fbf5	-0.072746195
18	0xbd81c72d	-0.06336818
19	0xbd9067df	-0.07051062
20	0x3e6469d8	0.22306001
21	0xbda78813	-0.08180251
22	0xbcb646b2	-0.022250507
23	0xbd94a40b	-0.07257851
24	0xbe2b1cbd	-0.16710182
25	0xbd69e5a5	-0.05710377
26	0xbdf7f150	-0.121065736
27	0xbdd8e0b4	-0.10589734
28	0x3cf6c933	0.030125236
29	0xbcef5903	-0.029217249
30	0xbd87eb06	-0.06636624
31	0xbe0d8f0f	-0.13824104
32	0xbd282cc3	-0.041058313
33	0xbe3a2bb8	-0.1818074
34	0xbd46def3	-0.048552465
35	0x3d7353d6	0.059406124
36	0x3debbed4	0.11511007
37	0xbe7f1b8d	-0.24912854
38	0xbc3cc866	-0.011522388
39	0x3bccca1c	0.0062496793
40	0xbd744664	-0.059637442
41	0xbd60a13d	-0.05484127
42	0xbe221e86	-0.15831956
43	0xbd82229f	-0.0635426
44	0xbdcad4d9	-0.09903879
45	0x3e455124	0.19269234
46	0xbd65ce8f	-0.056105193
47	0xbda9805d	-0.082764365
48	0xbd8087ce	-0.06275903
49	0xbc5b943e	-0.013402043
50	0x3e0d9252	0.13825348
51	0x3cb54abc	0.022130363
52	0x3deb9eb7	0.11504882
53	0xbda5a186	-0.08087449
54	0xbdc19fb3	-0.09454288
55	0x3d90ca61	0.07069851
56	0xbcde1c64	-0.027113147
57	0xbd66a7ab	-0.056312244
58	0xbd2cf8a7	-0.04222932
59	0x3e2e8ff0	0.17047095
60	0xbcda0157	-0.026611967
61	0xbc5be030	-0.01342015
62	0x3cf9ef06	0.030509483
63	0xbe21ee67	-0.158136
64	0xbbd791c5	-0.0065786564
65	0xbcdbc839	-0.026828872
66	0xbb9d51c1	-0.0048010056
67	0x3c08949f	0.008336215
68	0x3cffc014	0.03121952
69	0x3d8c50ce	0.0685135
70	0xbccf3ddf	-0.025298057
71	0x3e0d9710	0.13827157
72	0xbdda3a16	-0.1065561
73	0xbdb055c0	-0.086101055
74	0xbe0949dc	-0.13407081
75	0x3e988ace	0.297934
76	0x3e4ef874	0.20211965
77	0x3dccd10b	0.10000809
78	0xbdb9f78f	-0.09080421
79	0x3d17dd58	0.037076324
80	0xbdb9d057	-0.09072941
81	0xbc07b5fc	-0.008283135
82	0x3ca26566	0.019823741
83	0xbcb40d0b	-0.021978876
84	0xbe494b35	-0.19657595
85	0x3d02842d	0.031864334
86	0xbe1ade9c	-0.15123981
87	0xbd6d1762	-0.057883628
88	0xbc9eb697	-0.019374175
89	0xbe05a3d6	-0.1305078
90	0xbcf74f3e	-0.030189153
91	0xbe7a3067	-0.24432527
92	0xbced67db	-0.028980186
93	0xbde0bb7d	-0.109732606
94	0x3b0a230a	0.0021078014
95	0xbd50f818	-0.05101785
96	0xbc7ecf2c	-0.015552323
97	0x3bdcc1fc	0.006736992
98	0xbe56262a	-0.20912996
99	0x3dc3d0de	0.09561323
100	0xbe6379d5	-0.22214444
101	0xbe202baa	-0.15641657
102	0xbd7adc28	-0.061245114
103	0xbe26a1b9	-0.1627263
104	0x3e32c4ca	0.17457882
105	0x3ca2d921	0.019878926
106	0xbd5e8b1d	-0.054331888
107	0xbd0be06e	-0.03414958
108	0xbcb5e8b0	-0.02220568
109	0x3e135a2d	0.14389868
110	0x3d93047a	0.07178588
111	0x3e5ea737	0.21743475
112	0x3d72f4c3	0.059315454
113	0x3e88d13d	0.26722136
114	0x3cadc686	0.021212827
115	0xbd53acd6	-0.0516785
116	0xbd811ac1	-0.06303931
117	0xbd81cefb	-0.063383065
118	0x3d7ad2cc	0.061236188
119	0xbd2f244d	-0.04275923
120	0xbdaf80bd	-0.08569477
121	0x3c58b943	0.013227764
122	0x3df6ddef	0.12054049
123	0xbc749698	-0.0149284825
124	0xbd9c532c	-0.07633051
125	0xbdbeac58	-0.09310216
126	0x3e49c583	0.19704251
127	0xbda5aa4e	-0.08089124
128	0x3c733de7	0.014846302
129	0xbde96a6b	-0.11397251
130	0xbd7aab04	-0.06119825
131	0xbd0bcd05	-0.03413107
132	0xbe738bd4	-0.23783809
133	0xbd322501	-0.04349232
134	0xbc563c1a	-0.013075853
135	0x3d93d91f	0.07219147
136	0xbe07e23a	-0.13269892
137	0x3e3719c3	0.17880921
138	0xbda9aada	-0.082845405
139	0xbdb3e492	-0.08783831
140	0xbd0eecb9	-0.034893725
141	0xbd83ae60	-0.06429744
142	0xbe6fb865	-0.23410185
143	0x3c940a3b	0.018071285
144	0xbc7a524b	-0.015278409
145	0x3e4092ff	0.18806075
146	0xbd9b090a	-0.075700834
147	0xbc07678e	-0.008264435
148	0xbe2acf37	-0.16680609
149	0xbd0c33db	-0.03422914
150	0x3d2fbb2f	0.04290312
151	0xbcde3901	-0.027126791
152	0x3d58c401	0.0529213
153	0xbca83953	-0.020535147
154	0x3d9c592d	0.076341964
155	0xbdb25a27	-0.087086014
156	0x3e2a43e8	0.16627467
157	0x3d84541d	0.06461356
158	0x3d2253e4	0.039630786
159	0xbde9e665	-0.114208974

6.weight f4 [12, 160]
0	0xbd59d2e5	-0.05317964
1	0x3d252efa	0.040328003
2	0x3d09dc21	0.033657197
3	0xbe00f464	-0.12593228
4	0x3e31cbc0	0.1736288
5	0xbeb0de1d	-0.3454446
6	0x3e584ffb	0.2112426
7	0xbdd2e676	-0.10297863
8	0xbdc2fdcf	-0.095210664
9	0xbce47efc	-0.027892582
10	0x3f0e3b73	0.5555946
11	0x3bec2676	0.0072067333
12	0x3d3ff81b	0.04686747
13	0xbd1f0730	-0.038825214
14	0xbe20e04e	-0.15710565
15	0x3e4b0fdd	0.1983027
16	0xbed7bf56	-0.42138165
17	0xbdd3c00a	-0.10339363
18	0xbe4f3839	-0.20236291
19	0x3dd4d479	0.103920884
20	0x3e0498c0	0.12948895
21	0x3da8c3d0	0.08240473
22	0xbec4c05e	-0.38428015
23	0xbe235ab6	-0.15952572
24	0xbe753d4f	-0.23949169
25	0xbb2cabf2	-0.0026347605
26	0xbef571af	-0.47938296
27	0x3e5bd622	0.21468404
28	0x3dd48994	0.103778034
29	0xbec572c1	-0.38564113
30	0xbd8e8b13	-0.0696012
31	0xbe4b886b	-0.19876258
32	0xbe2cba65	-0.16867979
33	0xbebfeaa8	-0.37483716
34	0x3dcd0b32	0.10011901
35	0x3e61744d	0.22017021
36	0xbe228934	-0.15872651
37	0x3d178b89	0.036998305
38	0xbd10c08d	-0.03533988
39	0xbeb4d418	-0.35318065
40	0xbcfc9a82	-0.030835394
41	0x3b9f5a8f	0.0048630903
42	0xbecea394	-0.40359175
43	0x3e34703a	0.17620936
44	0x3d6e21d8	0.058137745
45	0xbca479f6	-0.020077687
46	0x3d274f2f	0.040847
47	0x3cb57d56	0.022154491
48	0xbd91f65a	-0.07127066
49	0xbe3bc965	-0.18338545
50	0xbc2b21bc	-0.010445055
51	0xbe86d5ec	-0.26335084
52	0x3e0a737b	0.13520615
53	0x3dc5becd	0.09655533
54	0x3da521e1	0.080631025
55	0xbca92a2e	-0.020649996
56	0xbef1db40	-0.47237587
57	0x3d970c0e	0.07375346
58	0xbe1abfbb	-0.15112202
59	0x3dfd94e5	0.12381915
60	0xbdc67b37	-0.0969147
61	0x3d24812d	0.040162254
62	0xbed9e4f0	-0.42557478
63	0xbe19b33b	-0.15009777
64	0xbdfd31bd	-0.123630024
65	0xbeea58d9	-0.4577091
66	0xbd3d2421	-0.046177033
67	0xbe754b7a	-0.23954573
68	0xbdda3e1d	-0.106563784
69	0x3e1a27a4	0.15054184
70	0x3e3f56fc	0.18685526
71	0xbe63d3ee	-0.22248814
72	0xbe4fae79	-0.202814
73	0xbe19c1da	-0.15015355
74	0xbdac8c59	-0.08425207
75	0x3d341732	0.043967433
76	0xbdbbbb55	-0.0916659
77	0xbde91b6d	-0.11382184
78	0x3dfd8b30	0.123800635
79	0x3e0b55b3	0.1360691
80	0x3e89f9e6	0.2694847
81	0x3b20b05e	0.0024519186
82	0x3eabe859	0.33575705
83	0xbdbb0a62	-0.0913284
84	0xbecce760	-0.40020275
85	0xbcfa1ebb	-0.030532232
86	0x3ea87bd5	0.32906976
87	0x3e2a409a	0.16626206
88	0xbe701b21	-0.23447849
89	0x3f3b22e7	0.7310013
90	0x3c93edc4	0.018057711
91	0x3e2048b2	0.15652731
92	0x3cd58611	0.026064904
93	0x3d2e55cd	0.042562295
94	0x3e54d7c3	0.20785432
95	0xbe42d5df	-0.19026898
96	0xbe3006bc	-0.17190069
97	0xbde917bd	-0.11381481
98	0xbe953e6b	-0.29149184
99	0x3e5793f8	0.2105254
100	0xbefb7dfc	-0.49119556
101	0xbe143290	-0.14472413
102	0xbee4b771	-0.44671205
103	0xbe0dfc6b	-0.13865821
104	0x3e3beac4	0.18351275
105	0x3e2b1ca8	0.1671015
106	0xbdfb045a	-0.12256689
107	0xbe80c3c6	-0.25149363
108	0xbde7b749	-0.11314256
109	0xbea58c72	-0.32333714
110	0x3d96ac8c	0.073571295
111	0x3c423773	0.01185404
112	0x3de27730	0.110578895
113	0xbb70cff5	-0.0036745046
114	0x3ceaa460	0.028642833
115	0xbccd5363	-0.025064176
116	0xbdd49dff	-0.10381698
117	0xbec121b9	-0.3772104
118	0xbedf30bc	-0.4359187
119	0x3de208a0	0.11036801
120	0xbd9a57c0	-0.07536268
121	0xbe32eadf	-0.17472409
122	0x3e4ebb7d	0.20188709
123	0xbd305304	-0.04304792
124	0xbdef6aed	-0.11690316
125	0x3d878db5	0.06618825
126	0xbde7a8fc	-0.11311528
127	0x3e01a0c7	0.12658988
128	0x3df529a6	0.119708344
129	0xbdc11dc4	-0.094295055
130	0xbe480daa	-0.19536462
131	0xbdd8654d	-0.105661966
132	0x3d42a379	0.04751918
133	0xbdf5ab27	-0.11995535
134	0x3ee1f1dd	0.4412984
135	0xbe7a60d9	-0.24451007
136	0xbe4ae24c	-0.19812888
137	0x3e03076e	0.12795803
138	0xbeb94365	-0.3618423
139	0x3e0750a3	0.13214354
140	0xbd844467	-0.06458359
141	0x3e637584	0.22212797
142	0xbe927bab	-0.28609976
143	0x3d1d522c	0.038408443
144	0xbef1a257	-0.47194168
145	0x3d08fed7	0.03344616
146	0x3e18214e	0.14856455
147	0x3e76d9a0	0.24106455
148	0xbd156694	-0.03647478
149	0xbe610b12	-0.21976879
150	0xbe9090c9	-0.28235462
151	0xbe1d6bea	-0.15373197
152	0x3d46f4d4	0.04857333
153	0xbe0beed1	-0.1366532
154	0x3dd3b141	0.10336543
155	0xbe097531	-0.13423611
156	0x3e18ad3c	0.14909834
157	0x3e223cad	0.15843458
158	0x3d67b5e6	0.056569956
159	0x3ebc0aca	0.3672698
160	0x3ebbda30	0.366899
161	0xbec9dbde	-0.39425558
162	0xbe0706c2	-0.13186172
163	0xbeb17c51	-0.34665158
164	0xbf016aef	-0.5055379
165	0xbdc6c27f	-0.09705066
166	0xbeae0a1b	-0.33992085
167	0xbef96e37	-0.487169
168	0x3ee7e3dc	0.4529103
169	0xbed07daf	-0.4072089
170	0x3ec5823d	0.38575926
171	0xbee9824c	-0.4560722
172	0xbe4f7ebe	-0.20263192
173	0xbf04c453	-0.51862067
174	0xbc1c90b5	-0.009555985
175	0xbf12b091	-0.5730067
176	0x3f1d8be9	0.6154161
177	0xbc2e8d7c	-0.01065385
178	0x3dd662d1	0.104680665
179	0xbeef6001	-0.46752933
180	0xbf619cdf	-0.8812999
181	0xbe2a7c58	-0.16648996
182	0xbf68cec8	-0.90940523
183	0xbe943f1c	-0.289544
184	0xbf31d9f1	-0.6947318
185	0x3c0fc6de	0.008775441
186	0x3f0e8c48	0.556828
187	0x3e4f170f	0.2022364
188	0x3c4e86e7	0.012605405
189	0x3e9d685d	0.30743685
190	0xbde1c795	-0.110243954
191	0x3db5a701	0.08869744
192	0xbe9f73e5	-0.31143108
193	0x3f12c9cc	0.5733917
194	0xbeaf69e5	-0.3426048
195	0xbf5abd88	-0.8544545
196	0xbea59242	-0.32338148
197	0xbeeaa72d	-0.4583067
198	0xbe520387	-0.20509158
199	0x3ef1cc29	0.47226074
200	0xbe16ff78	-0.14745891
201	0x3dce8f08	0.10085875
202	0xbd85d6a1	-0.06535078
203	0xbefd0fb3	-0.4942604
204	0xbeff71c6	-0.4989149
205	0xbf853f16	-1.0409877
206	0x3dcc8bab	0.09987577
207	0x3d779a6f	0.060450014
208	0xbdec2033	-0.11529579
209	0xbe9e3c51	-0.30905393
210	0xbf325c01	-0.69671637
211	0xbcd05644	-0.02543176
212	0xbea2fe63	-0.31834707
213	0x3e85ad6f	0.26108882
214	0xbf0e7738	-0.55650663
215	0xbe8aa4c2	-0.27078825
216	0x3f358102	0.70899975
217	0xbe646c42	-0.22306922
218	0x3e47beb7	0.19506346
219	0xbf13b3b8	-0.57696104
220	0xbf215e31	-0.6303435
221	0xbe83bef4	-0.25731623
222	0xbde8f3eb	-0.11374649
223	0x3f5d3244	0.86404824
224	0xbe795a26	-0.24350795
225	0xbec37119	-0.38172224
226	0xbead569b	-0.33855137
227	0x3de0beaa	0.10973866
228	0xbf0dbb55	-0.5536397
229	0xbee8f1e2	-0.45497042
230	0xbeab202d	-0.33422986
231	0xbec4aed2	-0.38414627
232	0xbef8651f	-0.4851465
233	0x3edfff2a	0.43749362
234	0xbdf369eb	-0.118854366
235	0xbf125111	-0.5715495
236	0xbec5ce2b	-0.38633856
237	0x3f0afc0d	0.5429085
238	0xbf0556a1	-0.5208531
239	0xbe65082f	-0.22366403
240	0x3e5bc51d	0.21461911
241	0xbf2628a7	-0.6490578
242	0xbe86868c	-0.26274526
243	0x3eb821fd	0.3596343
244	0xbe249fb6	-0.1607655
245	0xbd6aeac1	-0.057352785
246	0x3ec14c83	0.37753686
247	0x3e02a658	0.12758768
248	0xbc9f984f	-0.019481806
249	0x3f22f600	0.63656616
250	0xbe8ffe67	-0.2812378
251	0xbe3b6da6	-0.18303546
252	0x3f33a02c	0.7016628
253	0x3ec1bcc3	0.37839326
254	0xbe92d7b2	-0.28680187
255	0x3f1622a1	0.5864659

6.bias f4 [12]
0	0xbd2e1fc0	-0.042510748
1	0xbf091ce4	-0.5355971
2	0xbda1793c	-0.07884452
3	0x3ea5343a	0.32266408
4	0xbe0122e3	-0.12610964
5	0x3e058e5c	0.13042587
6	0x3cd52d72	0.026022647
7	0xbdf681f2	-0.12036504
8	0xbe274e39	-0.16338433
9	0x3bd28459	0.0064244685
10	0x3da1a908	0.07893568
11	0xbd6b102c	-0.05738847
