demo/envs/env_net_10.pth (torch, 240783 bytes, 8 tensors)

0.weight f4 [160, 38]
-0.16224174 0.011728602 0.034917165 -0.5078706 0.37748364 -0.014057064 0.33101982 -0.013566382
-0.19942364 -0.030338302 -0.3660575 0.5710084 0.064673945 0.66916734 0.19945821 -0.81741637
-0.13355537 0.5130019 0.29610237 -0.044151805 0.016451277 -0.24117337 -0.10979982 0.19068365
-0.17689222 0.14789689 -0.1186879 -0.3247757 0.6206544 0.034277055 0.24808006 0.8257471
0.0959779 -0.607359 -0.48850474 -0.14284816 -0.099201955 -0.67245233 0.27109036 -0.5045085
0.29688847 -0.79144466 0.7310559 0.047621273 0.21354434 -0.35019952 -0.09849095 -0.30653307
0.03727055 -0.42341492 0.49767902 -0.28797668 0.020017596 -0.18821442 -0.30558485 0.45588508
0.037961498 -0.10623502 0.13169794 -0.053036556 0.27109697 -0.1955852 0.08127881 0.08170128
0.21998705 -0.07894454 0.41505337 0.17765298 -0.045126088 0.8905748 -0.33253333 -0.37446833
0.36012045 0.2721073 -0.5682648 -0.58162826 -0.037288774 -0.41004694 -0.29351574 0.36584413
-0.10189503 -0.16617462 -0.3263787 0.24048083 -0.20699619 0.015564344 -0.4892797 0.9756633
0.16603121 -0.55404913 0.13134591 -0.07734805 0.44600555 0.45820162 0.32409272 0.14193363
0.368101 -0.08768136 -0.18591501 -0.22591794 0.14629476 0.03988145 -0.1385204 0.0679866
-0.0039086877 -0.0429876 0.06457443 -0.15188053 -0.4737756 0.53416556 -0.31247672 0.16095962
0.17054373 0.41856113 0.0101459725 -0.22770138 -0.1596342 0.2843432 0.07322871 -0.637475
-0.22197704 0.085235104 -0.19757774 0.4397473 -0.28922886 -0.08052975 0.08129685 -0.1831829
-0.64952207 0.48308665 0.19515291 -0.77695495 -0.41551885 0.18747456 0.11423699 0.121409945
-0.33864823 0.009902547 0.08605934 0.050285272 -0.69175845 0.011656675 0.27408004 0.08720602
-0.11627116 0.33820656 -0.67196083 0.06589459 0.35415497 -0.083820656 0.012419603 0.3309347
-0.10044012 0.13889873 -0.29529315 0.611195 -0.6337865 0.0062437714 -0.39164376 0.29970905
-0.55574113 0.37048575 -0.10270505 0.011312354 -0.21368313 0.12857011 -0.4243646 0.48104972
-0.1925401 -0.34087804 -0.3432986 0.038551316 0.41438752 0.046845302 -0.015564123 0.26741493
0.1356764 0.10168343 0.085735396 0.42463386 -0.49099758 0.13493142 0.25832734 0.24226399
-0.23311718 -0.24757445 0.36491 0.06812644 0.08812236 -0.20236509 -0.07597061 0.07695242
-0.034931157 -1.245737 0.38217056 -0.2152596 0.25798523 -0.030535256 -0.12139127 -0.061047647
-0.27031505 -0.18710506 0.17776862 0.042839766 -0.4141684 -0.17870876 0.116074 0.15569896
-0.22164351 -0.105902895 -0.030170698 0.23312296 1.0485287 -1.1583626 -0.102248125 -0.18344824
-0.23694396 0.13792582 0.20790286 -0.2235127 0.03468071 -0.103207976 0.061519854 0.2550945
0.24925517 -0.03133819 0.05199803 -0.0004686636 0.16167192 0.08553327 -0.03590802 -0.18047413
-0.5112739 0.08344297 -0.5559661 0.012119273 -0.14808117 0.4522225 0.45642775 0.50827783
-0.52338153 0.26677564 -0.46388078 0.51947844 -0.051632483 -0.0043142918 0.493839 0.123031735
0.26894066 -0.16416535 0.12713367 0.20849791 -0.20559284 -0.60835195 0.21763441 -0.017850244
00000000: b322 26be 5329 403c 4d05 0f3d cf03 02bf
00000010: 8945 c13e 9a4f 66bc 6e7b a93e 8845 5ebc
00000020: b635 4cbe 0888 f8bc e36b bbbe 9b2d 123f
00000030: c673 843d 8d4e 2b3f c63e 4c3e 3342 51bf
00000040: bdc2 08be 1854 033f bb9a 973e 86d8 34bd
00000050: d4c4 863c 27f6 76be bade e0bd 9342 433e
00000060: 3c23 35be 4872 173e a412 f3bd 0049 a6be
00000070: 35e3 1e3f 1966 0c3d b308 7e3e 2964 533f
00000080: 1090 c43d e17b 1bbf 4b1d fabe ca46 12be
00000090: 652a cbbd d625 2cbf 5bcc 8a3e 7827 01bf
000000a0: c401 983e 1e9c 4abf 7b26 3b3f 860e 433d
000000b0: 5eab 5a3e 5a4d b3be a0b5 c9bd e7f1 9cbe
000000c0: 01a9 183d d7c9 d8be c9cf fe3e ae71 93be
000000d0: f1fb a33c 48bb 40be 9e75 9cbe c569 e93e
000000e0: 847d 1b3d bf91 d9bd d3db 063e dc3c 59bd
000000f0: 39cd 8a3e 7d47 48be 8175 a63d 0053 a73d
00000100: 4944 613e adad a1bd e081 d43e aaea 353e
00000110: 22d6 38bd b6fc 633f cf41 aabe 50ba bfbe
00000120: b561 b83e a651 8b3e cd79 11bf 97e5 14bf
00000130: 1dbc 18bd acf1 d1be b247 96be ec4f bb3e
00000140: 57ae d0bd ae29 2abe 1c1b a7be 9b40 763e
00000150: cff6 53be 9701 7f3c de82 fabe 12c5 793f
00000160: 1604 2a3e 2ad6 0dbf 8b7f 063e a868 9ebd
00000170: d75a e43e 6799 ea3e 7bef a53e 0d57 113e
00000180: bc77 bc3e 4992 b3bd 8160 3ebe 0857 67be
00000190: 4bce 153e bb5a 233d 4bd8 0dbe 8f3c 8b3d
000001a0: 7314 80bb c413 30bd 993f 843d 9286 1bbe
000001b0: b792 f2be 13bf 083f f3fc 9fbe 99d2 243e
000001c0: 04a3 2e3e a54d d63e 4b3b 263c 8d2a 69be
000001d0: 2677 23be 6f95 913e eff8 953d 9031 23bf
000001e0: f34d 63be be8f ae3d d251 4abe 8f26 e13e
000001f0: ce15 94be c8ec a4bd f77e a63d 4c94 3bbe
00000200: 1447 26bf 2257 f73e 2ad6 473e 85e6 46bf
00000210: e3be d4be 55f9 3f3e 15f5 e93d c7a5 f83d
00000220: 4d63 adbe 4b3e 223c e13f b03d eef7 4d3d
00000230: 1517 31bf a3fb 3e3c 3854 8c3e 1299 b23d
00000240: 931f eebd 6929 ad3e a005 2cbf bef3 863d
00000250: cd53 b53e 2aaa abbd 977b 4b3c 4670 a93e
00000260: 8db3 cdbd 783b 0e3e aa30 97be 4777 1c3f
00000270: d53f 22bf 8d98 cc3b 8885 c8be 7773 993e
00000280: 0d45 0ebf 4fb0 bd3e 0657 d2bd 7457 393c
00000290: c0cf 5abe e2a7 033e 5146 d9be 264c f63e
000002a0: 3b29 45be 9187 aebe d6c4 afbe fce7 1d3d
000002b0: 9a2a d43e dce0 3f3d aa00 7fbc 9cea 883e
000002c0: c1ee 0a3e 673f d03d 0a96 af3d 9c69 d93e
000002d0: 0964 fbbe 762b 0a3e 7b43 843e 0d14 783e
000002e0: 45b6 6ebe 2884 7dbe 7cd5 ba3e e085 8b3d
000002f0: 7f79 b43d cb38 4fbe 7b96 9bbd 3b99 9d3d
00000300: f913 0fbd 4f74 9fbf dcab c33e 036d 5cbe
00000310: a416 843e 1325 fabc fc9b f8bd 190d 7abd
00000320: bc66 8abe 7898 3fbe fa08 363e c078 2f3d
00000330: e10d d4be 6eff 36be 35b8 ed3d 8c6f 1f3e
00000340: 84f6 62be 9ee3 d8bd 8a28 f7bc c9b7 6e3e
00000350: 3036 863f 3a45 94bf 7767 d1bd dbd9 3bbe
00000360: 70a1 72be 6d3c 0d3e 7de4 543e 83e0 64be
00000370: 5c0d 0e3d b45e d3bd 3efc 7b3d bf9b 823e
00000380: bf3c 7f3e 795c 00bd e3fb 543d f7b6 f5b9
00000390: 538d 253e 112c af3d 4a14 13bd 36ce 38be
000003a0: d9e2 02bf 26e4 aa3d cb53 0ebf ea8f 463c
000003b0: 97a2 17be b589 e73e e6b0 e93e 7f1e 023f
000003c0: 55fc 05bf d196 883e c881 edbe 8afc 043f
000003d0: 957c 53bd e75e 8dbb 77d8 fc3e 10f8 fb3d
000003e0: 97b2 893e f61a 28be 542f 023e 7a80 553e
000003f0: ee86 52be f4bc 1bbf 8edb 5e3e ad3a 92bc

0.bias f4 [160]
-0.06443547 -0.0038007982 -0.005441671 -0.050757132 -0.059757963 0.035815924 -0.059192453 -0.03916068
-0.026822928 -0.02837778 -0.05447149 -0.027175624 0.030869275 -0.081490904 0.092314534 0.13255532
0.049294394 -0.059217338 -0.07667756 -0.052060124 -0.05050415 -0.0035427224 -0.056105748 -0.04978191
0.013492097 -0.119238965 -0.06734117 -0.013460508 0.020279929 -0.098622434 -0.15590902 0.028554162
-0.06381162 0.007994727 0.02924527 -0.053271715 0.101817526 0.12049918 -0.04966417 -0.045414828
-0.061321076 -0.060754906 -0.043207422 0.014623869 0.008183468 -0.081554584 0.026485564 -0.052408732
0.078490965 -0.043348107 -0.11595644 -0.039768122 -0.053936396 -0.03517725 0.029070755 0.033709552
-0.037640296 0.05547025 0.028276404 -0.013493809 -0.06235488 -0.0544694 -0.013215139 -0.08808308
-0.0028977995 -0.12926072 -0.085823216 -0.061932176 0.0071794763 -0.0026952734 -0.016846694 -0.07106809
0.072920084 0.06876232 -0.03936221 -0.09158355 -0.04248263 -0.044195134 -0.03542344 -0.06740675
0.012946631 0.073924676 -0.03370494 -0.075551525 -0.04356634 -0.011534845 -0.054803047 0.044025525
-0.05077967 0.1471036 -0.0581126 0.033931643 -0.011777103 0.0008425189 0.09035888 -0.07210512
-0.04877566 -0.06801795 0.02510801 -0.14556044 0.028482866 -0.027116098 -0.004806586 0.041111194
0.011598849 -0.024571711 -0.046489973 0.05992992 -0.090619765 0.042300586 -0.07256806 -0.015114403
0.024547694 0.011158761 -0.04494311 -0.04126224 -0.065754764 -0.042604286 -0.014835064 0.04398205
-0.05380826 0.011492151 0.16374354 0.08645504 -0.05599055 -0.06655758 -0.056272995 0.035296544
0.010854814 -0.04678685 -0.047329932 -0.0267512 -0.035584502 0.008708218 0.10822855 -0.054735243
-0.10488564 -0.062649384 -0.053626638 -0.06914737 -0.14090645 -0.043597747 -0.051697776 0.014494806
0.0034913137 -0.1374029 -0.12739018 -0.058298536 -0.013064249 0.016940739 0.07457669 -0.050821725
0.021838285 -0.03193794 0.031193776 0.042897947 0.011482991 -0.043501332 0.04125197 -0.042317156
00000000: bef6 83bd d016 79bb 0b50 b2bb b6e6 4fbd
00000010: c4c4 74bd b8b3 123d c973 72bd f366 20bd
00000020: c2bb dbbc 8578 e8bc 7f1d 5fbd 6a9f debc
00000030: 90e1 fc3c b4e4 a6bd 670f bd3d 95bc 073e
00000040: ebe8 493d e18d 72bd 2009 9dbd ff3c 55bd
00000050: 71dd 4ebd 052d 68bb 24cf 65bd 1ee8 4bbd
00000060: f50d 5d3c 8f33 f4bd 2bea 89bd 7689 5cbc
00000070: 1822 a63c 8ffa c9bd 9da6 1fbe 6bea e93c
00000080: abaf 82bd 51fc 023c c793 ef3c 7133 5abd
00000090: b585 d03d 46c8 f63d a86c 4bbd e604 3abd
000000a0: cf2b 7bbd 23da 78bd 44fa 30bd f498 6f3c
000000b0: f413 063c 1706 a7bd 41f8 d83c 8aaa 56bd
000000c0: dfbf a03d c98d 31bd 927a edbd e6e3 22bd
000000d0: 69ec 5cbd 0516 10bd cb25 ee3c 0713 0a3d
000000e0: b62c 1abd c634 633d eba3 e73c 2315 5dbc
000000f0: d567 7fbd 4e1b 5fbd 4f84 58bc e764 b4bd
00000100: 02e9 3dbb ec5c 04be 15c4 afbd 98ac 7dbd
00000110: d041 eb3b 2fa3 30bb 1402 8abc 268c 91bd
00000120: 2057 953d 42d3 8c3d 453a 21bd 2890 bbbd
00000130: 4402 2ebd f505 35bd 2b18 11bd 8d0c 8abd
00000140: 1b1e 543c d265 973d 310e 0abd c2ba 9abd
00000150: 9e72 32bd a6fc 3cbc 2979 60bd 1c54 343d
00000160: 58fe 4fbd 53a2 163e 7a07 6ebd e8fb 0a3d
00000170: c0f4 40bc 7cdc 5c3a 140e b93d d9ab 93bd
00000180: fdc8 47bd ff4c 8bbd 50af cd3c cc0d 15be
00000190: e654 e93c 9422 debc 9180 9dbb 3664 283d
000001a0: 1909 3e3c 9d4a c9bc 456c 3ebd 1379 753d
000001b0: db96 b9bd 6143 2d3d 909e 94bd 67a2 77bc
000001c0: 3f18 c93c 3cd3 363c 4416 38bd 9802 29bd
000001d0: 6faa 86bd d581 2ebd c50e 73bc 8626 343d
000001e0: 0d66 5cbd 9349 3c3c 63ac 273e 570f b13d
000001f0: 5956 65bd 574f 88bd 837e 66bd 1c93 103d
00000200: 64d8 313c 91a3 3fbd 08dd 41bd 5525 dbbc
00000210: 0ec1 11bd eaac 0e3c eea6 dd3d 1032 60bd
00000220: 48ce d6bd 524e 80bd 9ba7 5bbd 239d 8dbd
00000230: c849 10be 8d93 32bd 0cc1 53bd 9f7b 6d3c
00000240: 86ce 643b 59b3 0cbe 9272 02be 72ca 6ebd
00000250: 6f0b 56bc 4ec7 8a3c aabb 983d 712a 50bd
00000260: 34e6 b23c 5bd1 02bd 178a ff3c c2b5 2f3d
00000270: 2823 3c3c 742e 32bd d3f7 283d c154 2dbd

2.weight f4 [160, 160]
0.26877522 0.13137646 0.012297691 0.16819687 -0.086351275 0.0011067011 0.13471967 0.0405958
-0.27312186 -0.035935074 0.11834101 -0.19272915 0.08540539 0.57365656 0.035624564 -0.80487055
0.25732276 0.3807318 -0.3575283 -0.26710254 -0.32496476 -0.15242669 0.3083906 0.09425055
0.08270745 0.29643932 0.4750766 -0.38242522 0.2633428 0.5923661 -0.4328936 0.09559033
-0.177266 0.23544991 -0.3242354 -0.5696475 -0.7475875 -0.30614337 -0.37028822 -0.0011000714
0.23481528 0.0019180134 -0.0059729656 0.2970829 -0.24771863 0.4581882 0.0107231075 -0.07015658
-0.5218573 -0.022433883 -0.044911064 -0.18043068 0.10449238 -0.079051025 0.039172214 0.029352574
-0.039634857 0.017624814 0.05955867 -0.0038130854 -0.23242256 -0.34243688 -0.5173032 -0.13627869
-0.9721303 0.41516972 -0.16717695 -0.565569 0.080565535 0.13986817 -0.24558704 0.04081201
-0.437157 -0.34278256 -0.41684473 0.08011604 0.064891376 0.27911496 -0.20574848 -0.024574151
-0.048201848 -0.12598482 -0.18106724 -0.5895665 0.37727642 -0.18843666 -0.3277803 0.21934499
-0.087304905 -0.53300047 0.2582048 0.1712731 0.2528971 0.31987402 -0.40328094 -0.23786129
-0.01925805 0.4481961 0.28533837 -0.19177882 0.02975364 -0.5288622 -0.13630348 0.12875453
0.30009326 0.11814719 0.26647958 -0.054445155 -0.2685479 0.24166395 0.7202475 0.32093796
-0.028834013 -0.37388134 0.1961506 0.080390766 0.4035707 0.14393014 0.18053353 0.27828613
0.09039567 0.051934656 -0.48535815 -0.29072604 -0.37237254 0.12476534 -0.5805873 0.27247712
0.49552113 -0.35308337 0.13041703 -0.19284588 0.44795606 -0.0017047187 -0.2546069 -0.29511732
0.24761552 0.15030338 -0.2302892 -0.40249535 0.2883985 -0.26024562 -0.62897086 0.25232795
-0.4913498 0.31582582 0.37021935 -0.13198489 0.17551064 -0.05226348 -0.17087287 -0.100825354
-0.0132238045 -0.23559026 0.18367466 -0.018245833 -0.25484437 0.15734094 0.15451297 0.014473979
0.024137724 -0.3964796 -0.6061263 -0.33463874 -0.071318515 0.34818298 -0.34632114 0.009654031
0.18296215 0.23712862 -0.03967494 0.28525928 -0.22116356 -0.5249069 -0.23747307 0.23339078
0.30729854 0.30338952 0.17691451 0.04291645 -0.41507858 -0.24242449 -0.10717298 0.0021227796
-0.5428344 -0.2742102 -0.7636158 0.20061763 0.48874643 -0.2507573 -0.57201266 -0.56142044
-0.17109853 -0.88292325 0.2703648 0.08886457 0.12553753 0.20976281 -0.31575483 0.05534905
-0.65265626 0.021539848 -0.61862355 -0.093450576 0.5901041 -0.17922047 0.5133223 -0.6554273
0.25261715 0.059369978 0.03119912 0.018878829 0.058732454 -0.020018075 -0.043108903 -0.7378681
-0.08796879 -0.7759822 -0.0120417 -0.48435235 -0.39732978 0.2270466 0.08520814 -0.36227268
0.07229145 -0.6848129 -0.7178461 0.3593614 -0.8192443 0.04346411 0.02412304 0.019527653
-0.07462854 0.13920344 0.0429904 0.12613876 -0.19251004 -0.4882718 0.0056124474 -0.64001554
-0.6861052 -0.36868232 -0.17466049 0.0034749112 -0.34348676 -0.6749227 0.22735678 0.4395238
-0.37372038 0.057521492 0.014974808 -0.17100699 0.22912623 -0.11555389 -0.087287664 -0.6290833
00000000: e89c 893e 8d87 063e 417c 493c cd3b 2c3e
00000010: f0d8 b0bd ba0e 913a f4f3 093e c847 263d
00000020: a1d6 8bbe a830 13bd c55c f23d ca5a 45be
00000030: 05e9 ae3d 28db 123f 10eb 113d ff0b 4ebf
00000040: cfbf 833e 47ef c23e f30d b7be aac1 88be
00000050: c861 a6be be15 1cbe 5fe5 9d3e 6f06 c13d
00000060: 8662 a93d e5c6 973e 3d3d f33e 3dcd c3be
00000070: ded4 863e 4ea5 173f 3ba4 ddbe ddc4 c33d
00000080: 3885 35be c819 713e 2f02 a6be 6bd4 11bf
00000090: e561 3fbf d3be 9cbe 6b96 bdbe 4530 90ba
000000a0: 6b73 703e da65 fb3a deb8 c3bb 401b 983e
000000b0: f4a9 7dbe a597 ea3e f9af 2f3c 41ae 8fbd
000000c0: 7198 05bf 43c7 b7bc aaf4 37bd d2c2 38be
000000d0: 1a00 d63d 81e5 a1bd 0b73 203d cf74 f03c
000000e0: 2958 22bd ea61 903c cbf3 733d f5e4 79bb
000000f0: 2e00 6ebe e353 afbe fc6d 04bf a48c 0bbe
00000100: 88dd 78bf 2091 d43e 6f30 2bbe 21c9 10bf
00000110: 8bff a43d 9a39 0f3e 2b7b 7bbe 7f2a 273d
00000120: 0bd3 dfbe 3281 afbe ac6c d5be e113 a43d
00000130: c5e5 843d 28e8 8e3e bbaf 52be bb4f c9bc
00000140: 4d6f 45bd 2a02 01be b169 39be d5ed 16bf
00000150: 602a c13e 8af5 40be d2d2 a7be f99b 603e
00000160: eacc b2bd b872 08bf 6b33 843e 3762 2f3e
00000170: bb7b 813e 87c6 a33e d77a cebe e991 73be
00000180: 0fc3 9dbc f679 e53e df17 923e ab61 44be
00000190: e8bd f33c 8363 07bf 2493 0bbe 3ad8 033e
000001a0: d3a5 993e 27f7 f13d 0370 883e e201 5fbd
000001b0: 1c7f 89be c176 773e 2462 383f fb51 a43e
000001c0: 4f35 ecbc 606d bfbe b4db 483e eaa3 a43d
000001d0: d2a0 ce3e 6c62 133e c8dd 383e 857b 8e3e
000001e0: 5d21 b93d 6fb9 543d dd80 f8be 0bda 94be
000001f0: 9da7 bebe f884 ff3d 5fa1 14bf 1f82 8b3e
00000200: f2b4 fd3e 58c7 b4be 0b8c 053e 6479 45be
00000210: 7f5a e53e de70 dfba d65b 82be 9e19 97be
00000220: ec8e 7d3e 21e9 193e efd0 6bbe df13 cebe
00000230: f8a8 933e ea3e 85be 3c04 21bf 2131 813e
00000240: 3392 fbbe ecb3 a13e 648d bd3e 0c27 07be
00000250: 10b9 333e 3b12 56bd 4cf9 2ebe 867d cebd
00000260: a8a8 58bc 933e 71be 3615 3c3e 4978 95bc
00000270: f67a 82be fc1d 213e a638 1e3e 4524 6d3c
00000280: 7abc c53c 60ff cabe 182b 1bbf c555 abbe
00000290: 710f 92bd 0a45 b23e 0151 b1be f12b 1e3c
000002a0: 6e5a 3b3e d8d1 723e 3182 22bd 810d 923e
000002b0: b378 62be 4c60 06bf 242c 73be fefd 6e3e
000002c0: 3c56 9d3e df55 9b3e 1429 353e 29c9 2f3d
000002d0: 2e85 d4be 203e 78be 827d dbbd 551e 0b3b
000002e0: 32f7 0abf 4865 8cbe 537c 43bf b56e 4d3e
000002f0: f93c fa3e 4363 80be 6c6f 12bf 40b9 0fbf
00000300: 7434 2fbe 4207 62bf 416d 8a3e a1fe b53d
00000310: e98c 003e 10cc 563e 9eaa a1be afb5 623d
00000320: 7b14 27bf 5674 b03c 1d5e 1ebf 0463 bfbd
00000330: 1011 173f 9285 37be 1769 033f 15ca 27bf
00000340: 0957 813e ef2d 733d 4c95 ff3c c6a7 9a3c
00000350: 7191 703d f2fc a3bc f692 30bd ece4 3cbf
00000360: fb28 b4bd c5a6 46bf 8d4a 45bc 08fd f7be
00000370: cf6e cbbe e77e 683e 9b81 ae3d ce7b b9be
00000380: 8a0d 943d e64f 2fbf c3c4 37bf 38fe b73e
00000390: ffb9 51bf 6c07 323d ae9d c53c 75f8 9f3c
000003a0: d9d6 98bd 598b 0e3e b416 303d 852a 013e
000003b0: 5a21 45be c3fe f9be 9fe8 b73b 0fd8 23bf
000003c0: 97a4 2fbf eec3 bcbe 33da 32be 56bb 633b
000003d0: 7fdd afbe bcc7 2cbf 37d0 683e 4309 e13e
000003e0: 4758 bfbe a89b 6b3d e658 753c 751c 2fbe
000003f0: 11a0 6a3e 85a7 ecbd e0c3 b2bd 9a0b 21bf

2.bias f4 [160]
-0.084066704 -0.013095576 -0.04873907 -0.08420639 -0.11834832 -0.013836053 0.1850138 0.06585405
-0.030188248 0.29588684 -0.031728234 0.17770927 -0.0040490897 -0.105079226 -0.11514138 -0.10758886
-0.039319262 0.0048510595 -0.04135083 -0.022317654 0.0122392 0.10215434 0.21758929 -0.06997392
-0.10783209 0.041395064 -0.13530135 -0.039627936 -0.062256686 -0.11390365 0.017413097 -0.07989242
-0.05620028 -0.010241867 -0.03684016 0.25810647 0.21402189 -0.14526923 0.03853801 -0.09156083
0.032897282 0.04191115 0.06534558 -0.07249337 0.061529182 -0.13581033 -0.37064615 0.015683448
-0.084769055 -0.16736683 -0.031576816 -0.10936532 -0.03644089 -0.033047006 -0.0604383 -0.20121767
-0.06593548 0.13405223 0.12956399 -0.16397329 -0.13331616 -0.06924404 0.031046085 0.096766025
0.053068373 -0.07430996 -0.09780841 -0.08086175 -0.015590094 -0.22657153 0.0009581296 -0.2539407
-0.14564404 -0.072123766 -0.0082369605 -0.0958711 0.08482637 0.07309201 -0.12584458 -0.053869378
-0.14105438 -0.06405017 0.09559336 0.075628884 -0.13930283 -0.06351594 -0.102435395 -0.016684012
0.01801357 -0.19231494 -0.15040784 -0.18513869 -0.19438586 -0.04875865 -0.065882534 0.18442334
-0.022017296 0.0851876 -0.19712932 -0.06128216 0.05632693 -0.15284565 -0.0979831 -0.046267428
0.058500294 -0.050817385 -0.049581673 -0.0871007 -0.09611001 -0.07788951 0.089381084 -0.14717887
-0.09492798 -0.06862545 0.04276394 0.09487588 0.20360233 -0.1664594 -0.029280692 -0.029361166
0.08377665 -0.067814104 -0.0037483529 0.17377067 -0.054108653 -0.05903442 0.07821484 -0.020152511
0.11733454 -0.014677678 -0.047099434 -0.044733614 0.031123051 -0.16997439 0.1556871 -0.2616353
-0.088783346 -0.05912188 0.0065113264 -0.12619646 -0.05441172 -0.052893806 -0.04870418 -0.17659691
0.26753083 0.04052988 0.10653094 -0.046499696 -0.10263484 -0.17205001 -0.0403306 -0.03862354
-0.06314601 -0.0695842 -0.16118445 0.1541065 0.09227246 0.07418133 -0.073204555 -0.13286829
00000000: 2a2b acbd d48e 56bc 9ea2 47bd 6674 acbd
00000010: 9b60 f2bd 9db0 62bc 4274 3d3e 7dde 863d
00000020: 584d f7bc 7b7e 973e 77f5 01bd 6bf9 353e
00000030: 3aae 84bb c733 d7bd 3ecf ebbd 8c57 dcbd
00000040: 3c0d 21bd a3f5 9e3b 7d5f 29bd 83d3 b6bc
00000050: ed86 483c 4b36 d13d bacf 5e3e 7d4e 8fbd
00000060: 12d7 dcbd df8d 293d 708c 0abe e750 22bd
00000070: de00 7fbd 5146 e9bd e9a5 8e3c a39e a3bd
00000080: 4432 66bd 81cd 27bc b5e5 16bd 8826 843e
00000090: 8e28 5b3e 75c1 14be 08da 1d3d 3f84 bbbd
000000a0: 4dbf 063d 07ab 2b3d e7d3 853d 6777 94bd
000000b0: 0606 7c3d dd11 0bbe 55c5 bdbe 937a 803c
000000c0: 669b adbd 3662 2bbe b156 01bd edfa dfbd
000000d0: 0b43 15bd 4c5c 07bd 278e 77bd 010c 4ebe
000000e0: 2e09 87bd fd44 093e 6cac 043e 9de8 27be
000000f0: 0884 08be d2cf 8dbd 5c54 fe3c 442d c63d
00000100: 395e 593d d22f 98bd c74f c8bd d89a a5bd
00000110: 986d 7fbc 5e02 68be fd2a 7b3a 8404 82be
00000120: b623 15be a0b5 93bd 51f4 06bc 1158 c4bd
00000130: 73b9 ad3d 44b1 953d 67dd 00be 23a6 5cbd
00000140: 8f70 10be bc2c 83bd 74c6 c33d 51e3 9a3d
00000150: 67a5 0ebe a514 82bd a6c9 d1bd e9ac 88bc
00000160: 3291 933c 35ee 44be 8304 1abe ff94 3dbe
00000170: 160d 47be 26b7 47bd 6ced 86bd 79d9 3c3e
00000180: 9e5d b4bc d676 ae3d 45dc 49be 0103 7bbd
00000190: 11b7 663d 9283 1cbe 5dab c8bd ea82 3dbd
000001a0: 019e 6f3d e425 50bd 2716 4bbd da61 b2bd
000001b0: 53d5 c4bd 8984 9fbd 6e0d b73d 0fb6 16be
000001c0: 9a69 c2bd 808b 8cbd 3e29 2f3d 494e c23d
000001d0: 217d 503e 5574 2abe 10de efbc d486 f0bc
000001e0: 1893 ab3d 1fe2 8abd eda6 75bb f0f0 313e
000001f0: 09a1 5dbd 13ce 71bd 1a2f a03d e116 a5bc
00000200: 174d f03d a57a 70bc 56eb 40bd 983a 37bd
00000210: c5f5 fe3c c40d 2ebe 706c 1f3e 10f5 85be
00000220: 0bd4 b5bd c929 72bd f75c d53b a539 01be
00000230: d3de 5ebd 2da7 58bd 097e 47bd d2d5 34be
00000240: cdf9 883e a902 263d e52c da3d 7776 3ebd
00000250: 3732 d2bd e12d 30be b331 25bd b833 1ebd
00000260: b252 81bd 2982 8ebd 890d 25be 18ce 1d3e
00000270: 58f9 bc3d 62ec 973d 45ec 95bd a00e 08be

4.weight f4 [160, 160]
0.2119505 0.31536454 0.016560832 -0.03344809 0.22454335 0.06728701 -0.21710247 -0.4622386
0.052961867 -0.8139939 0.19376731 -0.28279757 0.579622 -0.041582398 0.28029555 -0.013352961
0.18790373 0.21195239 -0.4985211 -0.27686274 -0.06570746 0.1415763 -0.23362666 0.17545557
-0.4478605 -0.4480916 0.45849586 0.34708115 0.2521562 0.119152315 -0.6636227 -0.10916152
-0.07253363 -0.15139519 -0.4388241 -0.23460841 -0.05748405 -0.85650814 -0.16347605 0.38515243
-0.5523165 0.0613694 -0.18458796 -0.07258536 -0.21601306 0.57021314 -0.12213826 -0.10586164
0.16032067 -0.08521975 0.0867619 0.17447214 0.30467734 0.16963015 -0.15414155 0.5810512
0.0014756266 -0.2954532 -0.20061322 0.3484647 0.17410572 -0.06295799 -0.19505909 -0.5138905
-0.38405493 0.053038068 0.33746785 -0.08404075 -0.16989222 0.14185625 -0.32927933 -0.49406797
-0.34400302 0.19055633 -0.065928966 0.07032545 -0.2262656 -0.019201208 0.35539073 -0.056100685
0.17165112 -0.008579605 -0.11734979 -0.056944925 0.020975288 -0.12933135 0.1538033 -0.21403033
0.075927846 0.21317163 0.17530781 -0.18230432 -0.10565441 0.15500449 0.006897886 0.15604568
-0.17155474 -0.08831169 0.010140617 0.4386342 -1.2662071 0.36518642 -0.4575503 -0.12690714
-0.17667891 0.4599188 -0.013844387 0.16573893 0.4483192 -1.0526524 -0.06446072 0.4365607
-0.083712764 0.15508072 0.12122979 0.64363056 -0.21261774 -0.47118667 -0.16798835 0.083368376
0.13557146 0.016322874 0.5494841 0.3303108 -0.04259456 -0.017602501 -0.75132364 0.77512735
0.21611165 0.036591206 0.23125207 -0.033552136 -0.71385014 0.1788443 -0.38867113 -0.4507878
-0.13159402 0.17744532 0.46943653 -0.5815452 0.04994015 0.52504194 0.16582844 -0.21062316
-0.08938057 0.14728089 -0.5653831 0.1821995 -0.11422054 -0.09979298 -0.044728205 0.12594067
-0.120952725 0.014755758 0.56436485 -0.21569595 0.17529348 -0.075205006 -0.4201037 -0.15250103
-0.24322219 0.122695066 0.08141051 -0.38590956 -0.45036602 -0.34352636 -0.2199818 0.060226023
-0.3164769 -0.030393098 -0.3427273 -0.22946562 -0.7675861 0.18909663 -1.0668406 0.48863482
-0.046256464 0.013671571 -0.08039201 0.2695998 -0.57622486 -0.21668932 -0.21216445 -0.12706405
0.15847224 -0.6954038 0.15455125 0.2741379 -0.3940137 -0.095207274 -0.28089577 0.027815076
0.046232276 0.07744478 0.39062375 -0.712455 -0.27109212 0.2160534 -0.40691954 -0.20186788
-0.39182404 -0.13799107 -0.9673533 -0.12521875 -0.18817145 0.12847148 -0.46895164 -0.271206
-0.2579236 0.22686224 0.052777845 -0.03180354 -0.6901879 -0.08868539 0.17961818 -0.04526725
0.46354967 -0.34849358 0.01182487 -0.20186341 0.16450593 0.076467685 -0.010774945 -1.0294663
-0.3924055 -0.1923845 -0.9076344 0.30632898 0.32158348 -1.4250243 -0.04529514 0.11833816
-0.61121774 0.04681364 -0.34682235 0.23822182 -0.1890572 0.26176682 0.2267344 0.15219635
0.36272302 -0.12197388 -0.4720007 0.25210357 -0.21410106 -0.09895814 -0.026887264 0.26017958
-0.7536984 0.16402486 0.18532342 -0.20204946 0.2182258 -0.079271026 -0.07068619 -0.42495975
00000000: 8d09 593e 7677 a13e 95aa 873c dd00 09bd
00000010: b1ee 653e c6cd 893d 1c50 5ebe 8aaa ecbe
00000020: 8bee 583d e761 50bf f06a 463e d8ca 90be
00000030: 1b62 143f 4e52 2abd e682 8f3e 61c6 5abc
00000040: d669 403e 0c0a 593e 283e ffbe f4c0 8dbe
00000050: a291 86bd 61f9 103e d43b 6fbe a0aa 333e
00000060: f94d e5be 436c e5be f8bf ea3e 9fb4 b13e
00000070: 9e1a 813e 2106 f43d 2de3 29bf 1390 dfbd
00000080: 838c 94bd 5707 1bbe 8dad e0be 303d 70be
00000090: 6574 6bbd 1e44 5bbf 4466 27be b332 c53e
000000a0: 9d64 0dbf 7b5e 7b3d a004 3dbe a2a7 94bd
000000b0: 8732 5dbe 7df9 113f a023 fabd fdcd d8bd
000000c0: 1a2b 243e b187 aebd 39b0 b13d d3a8 323e
000000d0: abfe 9b3e 87b3 2d3e 48d7 1dbe c5bf 143f
000000e0: d069 c13a a445 97be 8d6d 4dbe f769 b23e
000000f0: c548 323e 1ef0 80bd 92bd 47be 548e 03bf
00000100: d9a2 c4be 723e 593d 96c8 ac3e 8f1d acbd
00000110: 3af8 2dbe c442 113e 4d97 a8be 7af6 fcbe
00000120: 2a21 b0be 3321 433e c405 87bd ca06 903d
00000130: 2bb2 67be da4b 9dbc c6f5 b53e d5c9 65bd
00000140: 50c5 2f3e 7991 0cbc 1655 f0bd 153f 69bd
00000150: 5ed4 ab3c 706f 04be 9d7e 1d3e c42a 5bbe
00000160: 0f80 9b3d aa49 5a3e e483 333e fcad 3abe
00000170: 5761 d8bd 7fb9 1e3e a907 e23b 70ca 1f3e
00000180: 0cac 2fbe c2dc b4bd d524 263c a994 e03e
00000190: 1313 a2bf b7f9 ba3e 0844 eabe f2f3 01be
000001a0: 51eb 34be 7a7a eb3e 91d3 62bc 77b7 293e
000001b0: 188a e53e 50bd 86bf fb03 84bd e284 df3e
000001c0: 9971 abbd 7bcd 1e3e 5347 f83d f9c4 243f
000001d0: 77b8 59be 613f f1be 2305 2cbe 0abd aa3d
000001e0: 3fd3 0a3e 8cb7 853c fdaa 0c3f 7f1e a93e
000001f0: a277 2ebd 1f33 90bc bf56 40bf bf6e 463f
00000200: 5f4c 5d3e a9e0 153d 58cd 6c3e f76d 09bd
00000210: e2be 36bf f622 373e e7ff c6be a9cd e6be
00000220: 95c0 06be 3ab4 353e fc59 f03e 25e0 14bf
00000230: 0b8e 4c3d 2669 063f eece 293e 99ad 57be
00000240: 290d b7bd cdd0 163e f2bc 10bf 8192 3a3e
00000250: 75ec e9bd 4360 ccbd ec34 37bd 97f6 003e
00000260: 10b6 f7bd 23c2 713c 377a 103f 66df 5cbe
00000270: 2280 333e 1505 9abd d517 d7be 3b29 1cbe
00000280: 3d0f 79be 8d47 fb3d 8eba a63d f095 c5be
00000290: 6096 e6be b0e2 afbe e942 61be 90af 763d
000002a0: 4309 a2be f2fa f8bc f479 afbe 09f9 6abe
000002b0: 8680 44bf 8ca2 413e 3c8e 88bf 582e fa3e
000002c0: 6b77 3dbd bafe 5f3c 91a4 a4bd fc08 8a3e
000002d0: 7983 13bf cee3 5dbe a341 59be 141d 02be
000002e0: 8c46 223e fc05 32bf af42 1e3e ce5b 8c3e
000002f0: 2abc c9be 08fc c2bd 92d1 8fbe 71dc e33c
00000300: 0e5e 3d3d 5e9b 9e3d d6ff c73e 7363 36bf
00000310: 96cc 8abe 1a3d 5d3e c257 d0be 74b6 4ebe
00000320: 299d c8be 884d 0dbe 77a4 77bf 5839 00be
00000330: 04b0 40be 078e 033e 6e1a f0be 83db 8abe
00000340: 900e 84be 934e 683e 952d 583d 6e44 02bd
00000350: 27b0 30bf b0a0 b5bd d4ed 373e 276a 39bd
00000360: 6256 ed3e c06d b2be 19bd 413c 48b5 4ebe
00000370: 3e74 283e 179b 9c3d 6589 30bc 8dc5 83bf
00000380: 60e9 c8be 7100 45be ba5a 68bf 27d7 9c3e
00000390: 97a6 a43e 3267 b6bf 6687 39bd 475b f23d
000003a0: c478 1cbf a9bf 3f3d b392 b1be 6cf0 733e
000003b0: 3698 41be 4d06 863e 102d 683e 5cd9 1b3e
000003c0: d5b6 b93e 71cd f9bd 13aa f1be b813 813e
000003d0: 4f3d 5bbe 91aa cabd ae42 dcbc 4236 853e
000003e0: 61f2 40bf 22f6 273e 6cc5 3d3e 0ee6 4ebe
000003f0: 9676 5f3e d958 a2bd ecc3 90bd 5394 d9be

4.bias f4 [160]
-0.3016682 -0.049560472 0.014440068 -0.05152879 -0.06257983 -0.078917906 -0.19257097 -0.17830735
-0.056298178 -0.06774087 -0.07062178 -0.32464907 -0.0910122 -0.17338027 -0.17721374 -0.052446235
0.008502908 0.11566127 -0.11816564 -0.072055876 0.23919994 -0.19614123 -0.057787627 -0.14757192
-0.2188962 -0.35864067 0.08260807 -0.04553761 0.1826322 0.022050358 0.04974013 -0.009681436
-0.10206147 -0.04650927 -0.19418949 -0.10506571 -0.10340069 -0.06434785 -0.19310464 -0.10314229
0.41338724 -0.31059077 -0.16317415 0.050797455 -0.010973666 -0.1851051 -0.18204023 0.26129153
-0.054560427 0.10360621 0.09530508 -0.39541316 -0.22013396 -0.2997408 0.14900658 -0.1326915
0.088583164 -0.29148373 -0.08319182 -0.04187225 0.05410874 -0.09675652 -0.05113196 -0.18107243
0.12963557 -0.07333375 -0.07990783 -0.10016718 -0.33297166 -0.06816177 -0.10348318 -0.03503593
-0.20457688 0.32394803 -0.17809193 -0.31607172 -0.18215291 -0.25217444 -0.16113809 -0.28983372
-0.056789078 -0.23729397 0.054757766 -0.10536861 -0.0655941 -0.01917607 -0.16274305 -0.053015884
-0.19892965 -0.06825628 -0.06432825 0.3158886 -0.028087141 -0.12992108 -0.108751506 0.0262503
0.09980254 -0.3362175 -0.02812726 0.03496636 -0.17195064 -0.067816146 -0.06374364 -0.25927338
0.005937983 -0.048192844 -0.2526127 -0.109449536 0.009404657 -0.065599136 -0.23736802 -0.043321785
-0.108812496 -0.028206706 0.2966464 -0.2866756 -0.10111939 0.29164436 0.21879038 0.2250865
-0.051535815 0.1937104 -0.2567526 0.046217114 -0.07489281 0.09530553 -0.09471029 -0.17265806
-0.39389998 -0.16212068 -0.15595762 0.045458443 -0.061571077 -0.055907056 -0.031988814 0.0069325715
-0.023880744 -0.39438668 -0.07842458 -0.14427938 0.120524585 -0.4051701 -0.010462075 0.0689436
-0.055050626 0.001370645 -0.08278244 0.2591612 0.18555126 -0.08750604 -0.050070178 -0.23964737
-0.0988477 -0.071223676 -0.17497031 -0.24421233 -0.024493657 0.10130102 -0.038833153 -0.24450159
00000000: 4174 9abe ecff 4abd 0996 6c3c da0f 53bd
00000010: db29 80bd b69f a1bd 5331 45be 3496 36be
00000020: eb98 66bd babb 8abd 27a2 90bd 6738 a6be
00000030: 9b64 babd 998a 31be 8577 35be ddd1 56bd
00000040: c84f 0b3c d1df ec3d d400 f2bd 0892 93bd
00000050: d4f0 743e 3fd9 48be b8b2 6cbd 181d 17be
00000060: 5326 60be c09f b7be 6b2e a93d a585 3abd
00000070: ef03 3b3e f4a2 b43c 4ebc 4b3d e39e 1ebc
00000080: 9b05 d1bd 8180 3ebd 9cd9 46be b12c d7bd
00000090: bec3 d3bd cec8 83bd 39bd 45be 443c d3bd
000000a0: 7ea7 d33e c105 9fbe 2017 27be fe10 503d
000000b0: e4ca 33bc 318c 3dbe c168 3abe 01c8 853e
000000c0: c17a 5fbd 7e2f d43d 4f2f c33d 9873 cabe
000000d0: cc6a 61be a077 99be 2e95 183e 48e0 07be
000000e0: 176b b53d 5b3d 95be 7960 aabd 3d82 2bbd
000000f0: 20a1 5d3d 4828 c6bd bf6f 51bd 0d6b 39be
00000100: 30bf 043e 0130 96bd b7a6 a3bd 7324 cdbd
00000110: 437b aabe 6698 8bbd fdee d3bd d681 0fbd
00000120: 9a7c 51be 84dc a53e bb5d 36be 27d4 a1be
00000130: 4b86 3abe 021d 81be 6201 25be 1665 94be
00000140: aa9b 68bd 31fd 72be ae49 603d 7fcb d7bd
00000150: 3356 86bd 2217 9dbc 1da6 26be 2f27 59bd
00000160: 37b4 4bbe f3c9 8bbd 88be 83bd 27bc a13e
00000170: 0117 e6bc 080a 05be 1cb9 debd df0a d73c
00000180: 4665 cc3d b324 acbe 246b e6bc e338 0f3d
00000190: d413 30be 31e3 8abd 078c 82bd 7bbf 84be
000001a0: 6993 c23b dc65 45bd 7456 81be 1427 e0bd
000001b0: fe15 1a3c d758 86bd 9a10 73be 2f72 31bd
000001c0: 16d9 debd c011 e7bc 09e2 973e 25c7 92be
000001d0: af17 cfbd 6952 953e 960a 603e 137d 663e
000001e0: 3817 53bd 055c 463e 1475 83be 284e 3d3d
000001f0: 6761 99bd 8c2f c33d 78f7 c1bd 46cd 30be
00000200: 42ad c9be f702 26be 5bb3 1fbe a232 3a3d
00000210: f431 7cbd ccfe 64bd b406 03bd a02a e33b
00000220: 8da1 c3bc 0ded c9be 119d a0bd f9bd 13be
00000230: 98d5 f63d 7572 cfbe 1f69 2bbc 4d32 8d3d
00000240: c47c 61bd 37a7 b33a d789 a9bd c7b0 843e
00000250: 2601 3e3e 5e36 b3bd 6316 4dbd 1f66 75be
00000260: aa70 cabd b8dd 91bd 6b2b 33be cc12 7abe
00000270: eca6 c8bc e976 cf3d 830f 1fbd a05e 7abe

6.weight f4 [12, 160]
0.24956338 -0.20026441 -0.0074149715 0.109339155 0.26637366 -0.11040056 -0.3235591 0.07498675
-0.119118795 -0.13515554 0.22452688 -0.3826271 0.115755916 -0.08939008 -0.13913019 0.09676186
-0.23133428 -0.038413234 -0.19217151 -0.08774124 0.19096231 0.115644224 0.18465695 -0.2980337
0.28293875 0.24983165 0.27725625 0.19009247 0.31835014 -0.5052337 -0.052824467 0.14115158
0.03665188 0.011998268 -0.16540557 -0.12658212 -0.39082083 0.116150565 -0.026232868 -0.11368244
0.30836976 0.14565296 -0.16124023 0.14458829 0.1888771 0.13038898 0.099193476 0.056096755
-0.041954946 0.13730629 0.17612936 0.1638741 -0.067276396 -0.04200824 0.060541473 -0.12732646
0.008537348 -0.2601709 0.16286315 0.04558779 -0.07197415 0.04866657 -0.108296685 -0.011476098
0.24122304 -0.11856461 -0.13263232 0.031468082 0.12842128 0.07338662 0.30218017 0.2547184
-0.16069812 0.031016057 0.050665718 -0.06493622 0.13003203 -0.03891833 0.2681568 -0.2641029
0.108255774 0.20785716 0.19331437 -0.15276262 0.07450087 0.259425 0.08465547 -0.08024922
0.29580042 0.19083348 0.12876105 0.1627461 -0.0060677556 -0.05814548 0.18204051 0.29273492
-0.052426476 -0.3968805 0.3764919 0.09161038 0.28384808 -0.07407092 -0.005011899 -0.1101921
-0.1713623 0.16928387 0.19059879 -0.087438285 0.19438991 -0.011368322 0.35770395 -0.110581994
-0.34399736 0.22060409 0.24089706 -0.15789644 0.20065965 0.31783664 0.1566414 0.32301888
-0.022930257 0.1882234 0.3366994 0.3192324 -0.24695636 0.17615569 0.102705814 -0.3560693
-0.2553925 -0.46496654 -0.041424062 0.3061773 -0.054989982 -0.1167403 0.06707483 -0.055035423
0.4605381 -0.086444296 0.04002451 0.37641072 0.2943033 0.30517757 -0.23463815 0.16997063
0.13318959 0.16138142 -0.1675175 0.38255936 0.1655473 0.2670776 0.029225662 -0.4194749
-0.15372185 -0.21585073 0.18426688 0.11810513 0.21023642 0.18780498 0.10979034 -0.04385612
-0.10376183 -0.260947 -0.3853645 -0.001233932 -0.28317568 -0.10373233 0.03674249 -0.016492533
-0.04007607 -0.03826177 -0.28637135 0.79896647 0.06798727 0.19998707 -0.36082202 0.01711469
-0.106588006 -0.14890394 -0.49950823 -0.051798407 -0.23830673 -0.18039867 -0.024561284 -0.1012754
-0.15774047 0.025194978 -0.17680319 -0.22845581 -0.20417763 0.0062638964 -0.5070768 -0.17725074
0.042770077 -0.0014104227 0.111501545 0.15922514 0.42079777 0.05535871 -0.31577513 -0.14494413
-0.1965752 -0.4171206 0.05023176 0.009837599 -0.119631074 -0.0043046777 -0.100407764 -0.3171176
0.18326075 -0.09702976 -0.0011168256 -0.3738217 -0.11290961 0.5371955 0.11913032 -0.11441456
0.0090194 0.4643385 -0.67183447 0.14784093 -0.3353304 -0.16222736 0.018337877 0.25131145
0.15388551 -0.107133955 -0.10374187 -0.1786899 -0.0901766 -0.12352078 -0.5004797 -0.38712233
0.028936913 0.1293221 -0.38560545 0.047835458 -0.25709116 0.2787282 -0.9431781 0.31291664
-0.120165505 -0.2102161 -0.052043766 0.3526741 -0.381352 -0.2054245 -0.31610996 0.20056167
0.35592988 -0.08341944 -0.2487869 -0.17929767 -0.11868462 0.091414295 -0.0062450347 -0.00535043
00000000: 8b8d 7f3e 1d12 4dbe 4af9 f2bb 35ed df3d
00000010: 2162 883e b019 e2bd 8aa9 a5be a792 993d
00000020: 8ef4 f3bd 3766 0abe 60ea 653e b3e7 c3be
00000030: 7011 ed3d 2512 b7bd 2578 0ebe 152b c63d
00000040: e5e2 6cbe 3257 1dbd 9cc8 44be aeb1 b3bd
00000050: a08b 433e e1d6 ec3d b616 3d3e e097 98be
00000060: 59dd 903e ded3 7f3e 88f4 8d3e 9aa7 423e
00000070: cafe a23e ff56 01bf 785e 58bd 0a8a 103e
00000080: 4820 163d 6294 443c 1460 29be be9e 01be
00000090: ab19 c8be 59e0 ed3d 50e6 d6bc 57d2 e8bd
000000a0: a4e2 9d3e 0d26 153e 291c 25be f40e 143e
000000b0: 0069 413e b084 053e f325 cb3d b6c5 653d
000000c0: f3d8 2bbd 059a 0c3e 415b 343e 9dce 273e
000000d0: 35c8 89bd d510 2cbd 56fa 773d de61 02be
000000e0: 3ce0 0b3c 1f35 85be 99c5 263e 43ba 3a3d
000000f0: 2f67 93bd 9956 473d a7ca ddbd 3e06 3cbc
00000100: 2c03 773e 01d2 f2bd c4d0 07be ade4 003d
00000110: de80 033e b94b 963d 5cb7 9a3e 736a 823e
00000120: 0c8e 24be 6315 fe3c db86 4f3d 48fd 84bd
00000130: 1e27 053e d468 1fbd d94b 893e 7f38 87be
00000140: 34b5 dd3d 82d8 543e 34f4 453e ce6d 1cbe
00000150: ea93 983d 5bd3 843e d95f ad3d b459 a4bd
00000160: 2773 973e da69 433e f0d9 033e eaa6 263e
00000170: 06d4 c6bb f429 6ebd d468 3a3e 5ae1 953e
00000180: 25bd 56bd ec33 cbbe 8cc3 c03e 399e bb3d
00000190: 8954 913e 7fb2 97bd db3a a4bb 65ac e1bd
000001a0: 9979 2fbe c058 2d3e 542c 433e d812 b3bd
000001b0: 260e 473e 3342 3abc f924 b73e d078 e2bd
000001c0: 6c20 b0be 0ae6 613e b8ad 763e 9baf 21be
000001d0: b979 4d3e 7cbb a23e 9a66 203e bb62 a53e
000001e0: 3cd8 bbbc a3bd 403e dd63 ac3e 6e72 a33e
000001f0: 21e2 7cbe 2862 343e 6d57 d23d b74e b6be
00000200: cec2 82be 1810 eebe 47ac 29bd 45c3 9c3e
00000210: 2d3d 61bd 8a15 efbd 875e 893d d36c 61bd
00000220: a6cb eb3e b509 b1bd bef0 233d e8b8 c03e
00000230: ecae 963e 3c40 9c3e fc44 70be c80c 2e3e
00000240: da62 083e 2c41 253e b589 2bbe d2de c33e
00000250: 3b85 293e 65be 883e a86a ef3c 6ac5 d6be
00000260: 4369 1dbe f907 5dbe 75b0 3c3e 1ae1 f13d
00000270: 3748 573e f34f 403e c2d9 e03d 7aa2 33bd
00000280: 1581 d4bd d89a 85be 7f4e c5be e3bb a1ba
00000290: 67fc 90be 9e71 d4bd 4b7f 163d 591b 87bc
000002a0: ce26 24bd 60b8 1cbd 449f 92be 1189 4c3f
000002b0: e93c 8b3d 69c9 4c3e aabd b8be 1b34 8c3c
000002c0: d04a dabd 467a 18be 8bbf ffbe 912a 54bd
000002d0: ae06 74be 6eba 38be bf34 c9bc 7a69 cfbd
000002e0: b886 21be b365 ce3c e50b 35be 52f0 69be
000002f0: f113 51be 5f41 cd3b c9cf 01bf 3881 35be
00000300: ad2f 2f3d efdd b8ba ec5a e43d ea0b 233e
00000310: ce72 d73e d1bf 623d 47ad a1be 3c6c 14be
00000320: 024b 49be d590 d5be d1bf 4d3d e12d 213c
00000330: 2301 f5bd 410e 8dbb 96a2 cdbd 3d5d a2be
00000340: b5a8 3b3e 8ab7 c6bd 7362 92ba 8f65 bfbe
00000350: 273d e7bd a585 093f 99fa f33d 2e52 eabd
00000360: 1bc6 133c c7bd ed3e 58fd 2bbf 9d63 173e
00000370: 6db0 abbe ee1e 26be 5139 963c e5ab 803e
00000380: 2a94 1d3e 0c69 dbbd 9e76 d4bd 7cfa 36be
00000390: 82ae b8bd 76f8 fcbd 701f 00bf e634 c6be
000003a0: 1b0d ed3c 036d 043e 146e c5be 1def 433d
000003b0: 74a1 83be 76b5 8e3e 1f74 71bf 9c36 a03e
000003c0: 5519 f6bd e442 57be d82b 55bd b391 b43e
000003d0: 9240 c3be cd5a 52be 2ad9 a1be 0a60 4d3e
000003e0: 713c b63e d0d7 aabd fec1 7ebe cf99 37be
000003f0: ec10 f3bd 6b37 bb3d 26a3 ccbb a952 afbb

6.bias f4 [12]
0.21290696 -0.25110462 -0.0034804184 -0.19525726 -0.2979062 -0.21654423 0.1273732 0.11436366
0.01436883 -0.20139186 0.16970766 0.23465337
00000000: 4804 5a3e c990 80be bb17 64bb 85f1 47be
00000010: 2987 98be c5bd 5dbe 1f6e 023e 7f37 ea3d
00000020: 3e6b 6b3c ab39 4ebe d8c7 2d3e f948 703e
