demo/envs/env_net_7.pth (torch, 240783 bytes, 8 tensors)

0.weight f4 [160, 38]
000000 8b d3 c2 3e 80 80 88 3e 8c b6 a3 3e 45 5d c2 3e
       0.3805202 0.26660538 0.3197521 0.37961784
000010 39 27 b8 3e 04 25 28 3e 75 75 99 be 63 02 c9 3e
       0.35967425 0.1642037 -0.29972425 0.39259633
000020 2c 2d 22 3f 2f 3c 3e bc 68 24 ea bb d0 97 a2 be
       0.63350177 -0.011611029 -0.0071454532 -0.3175645
000030 1a e2 e6 3e 04 63 14 3f c1 3f 97 be 83 1b 25 bf
       0.45094377 0.57963586 -0.29540828 -0.64495105
000040 35 c2 97 be a1 13 12 bf 8f f0 85 be 5e 48 4b be
       -0.29640356 -0.570612 -0.26160094 -0.19851825
000050 5e 71 3a 3e f5 2c 03 3d a1 3e 2b bd 8b aa a0 be
       0.18207309 0.032025296 -0.041807774 -0.31380114
000060 db f7 2d 3e 00 a2 57 b9 bb 74 94 be c4 78 9b 3d
       0.1698908 -0.00020564348 -0.28995308 0.075913936
000070 b6 4f 42 be ac c2 3e 3e 36 70 08 bf ed 36 56 bd
       -0.1897572 0.18628949 -0.5329622 -0.052298475
000080 8b ff 2b 3e b0 e6 2b 3e 3d d3 8a bd 06 18 46 3b
       0.167967 0.16787219 -0.06778572 0.0030226721
000090 b5 0f 0d 3d 0c d8 99 3c 9a 40 e2 be ab ce 99 3c
       0.034438808 0.018779777 -0.44189912 0.018775305
0000a0 43 9c a4 3e 5d a7 e5 bd ab a2 bf 3e 54 8f ca 3d
       0.32150468 -0.11213563 0.37428793 0.09890619
0000b0 a1 30 a4 3d 4a 1a a7 3e c9 5e 14 be d8 0e fb bd
       0.08017088 0.32637244 -0.14489283 -0.122586906
0000c0 ea 8b 20 be 26 3a 81 3e cb b3 2e 3f 14 6e a8 be
       -0.15678373 0.25239676 0.6824309 -0.32896483
0000d0 05 17 d8 be 7e 37 c3 be db 5d a4 bd 17 f1 e7 3d
       -0.42205063 -0.38128275 -0.08025714 0.11325281
0000e0 9b 6d b5 3e 4a 77 25 3e 1d 0f 84 bd b7 7d 73 3e
       0.35435185 0.16158786 -0.06448195 0.23778425
0000f0 cc 40 38 3d 82 f9 3e be 84 ca 46 3d 7a d2 c0 bd
       0.04498367 -0.18649867 0.048532978 -0.09415145
000100 c8 d9 28 3e ef 93 bc 3e b0 0b 91 3d 82 53 97 3d
       0.16489327 0.36831614 0.07082307 0.07388975
000110 5d 87 5b bf f1 2c 0f 3e ed fe 79 3f c4 94 04 3e
       -0.8575342 0.13981988 0.9765461 0.12947375
000120 ec a4 0b bf fe f4 fc 3e a3 04 70 bf 00 96 51 3e
       -0.54548526 0.49405664 -0.93757075 0.20467377
000130 5c 36 cf be 20 81 a5 3d 53 ea 02 3e 46 52 e4 be
       -0.4047116 0.08081269 0.127847 -0.4459402
000140 5d 87 bf bc eb b5 31 be aa f8 9b ba 09 a3 ed 3e
       -0.023379976 -0.17354552 -0.0011899669 0.46413448
000150 5f 37 01 bf 30 83 cc 3d 48 6a c1 bc 9f 30 4d 3e
       -0.50475115 0.099859595 -0.02361025 0.20038079
000160 cc 0e ad 3d 8b ee e0 bd a6 2a 99 3e c5 bf 8a be
       0.08450088 -0.109829985 0.2991535 -0.27099434
000170 1a 91 b4 3e 98 30 96 3e 6e b4 e2 3e 5b e5 67 be
       0.35266954 0.2933395 0.44278282 -0.22646086
000180 c2 d6 f5 3e 04 8a 05 3e 16 cb 55 bf ca 53 1b 3e
       0.4801541 0.1304093 -0.8351301 0.15168682
000190 60 b9 c6 bd f4 1e 0f bf 1a 56 44 be 67 62 e9 3d
       -0.09703326 -0.55906606 -0.1917347 0.11395722
0001a0 87 9b 07 bf 81 30 69 be c6 35 5c be 9d a9 a3 be
       -0.5297169 -0.22772409 -0.21504888 -0.31965342
0001b0 98 dc e8 be a1 22 f7 3d f3 ef c7 be 19 09 bd 3d
       -0.454808 0.12067152 -0.39050254 0.09230251
0001c0 93 3e a1 be 68 27 e4 3e 79 a4 84 be 32 b1 09 be
       -0.31493053 0.44561315 -0.25906733 -0.13446501
0001d0 ec 13 b5 be eb 47 15 3e f9 5e 2f bf 5a 5b b1 bd
       -0.35366762 0.14578216 -0.6850429 -0.08660002
0001e0 9a 2d 87 be a2 ec d9 be 38 5c 9c be be af d1 3d
       -0.2640198 -0.4256335 -0.30539107 0.10238598
0001f0 8a c3 18 bf fe db 56 bd e2 9d 53 bf 8a b8 f8 be
       -0.5967337 -0.052455895 -0.82662785 -0.48578292
000200 94 20 eb be 59 44 49 3f d0 25 0c bf 2e ab c7 be
       -0.45923293 0.78619915 -0.547452 -0.38997787
000210 d0 c1 29 bf 11 9c e0 bd 92 1a 64 3e 5a 65 5e 3e
       -0.6631136 -0.10967267 0.22275761 0.2171835
000220 b4 21 6b bf 2b f1 8d be ba 62 f0 bc 92 5d 2d 3f
       -0.918483 -0.2772306 -0.029343951 0.677209
000230 fc aa 59 be 18 7a 56 3f de a6 cd 3e 5d ac 76 bd
       -0.21256632 0.8378005 0.40166372 -0.060222972
000240 06 c9 8f 3f 8c 6e ad 3e 3d e1 5a bf 53 1a 03 3d
       1.1233222 0.33873403 -0.85499936 0.032007527
000250 cd cc 93 bf ec 92 19 bd e7 2d a1 be 92 cc 8f bf
       -1.1546875 -0.03749363 -0.31480333 -1.1234305
000260 7a 7c 88 be 79 1b 32 be 70 7f 9a 3d fe 73 57 3d
       -0.26657468 -0.17393292 0.07543838 0.052600853
000270 23 11 fa be 71 84 ca be 91 65 a8 3d ac 0e 37 bf
       -0.488412 -0.3955417 0.08222497 -0.7150676
000280 43 96 9a bd 8b 04 0f 3f bc fb 3b bd e9 21 13 be
       -0.075481914 0.5586631 -0.04589437 -0.14368404
000290 e7 15 69 be 21 3d 91 bd 6e 02 1e 3d 88 08 75 3e
       -0.22762261 -0.070917375 0.038576536 0.23929036
0002a0 a5 37 0a bf 72 f8 ce 3e b6 6a b4 3e a8 33 f8 bd
       -0.53991157 0.40423924 0.35237664 -0.12119228
0002b0 4a d8 9f be 91 09 4c 3d 26 2a 16 3e a6 03 0f 3e
       -0.31219703 0.04981381 0.14664516 0.13966236
0002c0 ac 25 98 3d 74 18 19 3e 4e ce 81 3c ca e9 09 bf
       0.0742906 0.14950734 0.015845444 -0.5387236
0002d0 fc ec 84 bd b1 03 07 3d 85 3b 1b 3f 4b a5 12 be
       -0.06490514 0.032962505 0.60637695 -0.14320867
0002e0 43 07 f1 3d b6 94 5e bd a3 f2 51 be f6 35 53 bd
       0.11768963 -0.05434104 -0.20502715 -0.051565133
0002f0 3e 9c 93 be 2c a1 80 bc f3 9a ee 3e 6b d6 f7 be
       -0.2883014 -0.015701853 0.46602592 -0.48405775
000300 95 67 37 be dc f0 a2 bd ff f0 23 bd 73 71 f2 3e
       -0.17910607 -0.079560965 -0.040024754 0.4735218
000310 e5 cd 6f 3e b3 5e ff be 60 74 c7 3d af b4 01 bf
       0.23418386 -0.49876937 0.09738994 -0.50666326
000320 d1 4c 8c 3e 4a a6 3d 3f b3 84 da 3e cc 01 0a 3e
       0.27402356 0.7408186 0.42679366 0.13477248
000330 58 7a 81 be 56 17 05 3d be 26 cf 3d 3a a2 af 3e
       -0.25288653 0.032492958 0.10114811 0.34303457
000340 d1 63 9f be b0 90 ef bd d3 c8 5a 3e 7f af a4 bd
       -0.3113084 -0.11697519 0.21365671 -0.08041286
000350 73 f7 09 3d 0a eb 18 be 66 32 51 bd 0e 0d 29 3e
       0.03368325 -0.1493341 -0.051073454 0.16508886
000360 10 64 b5 3d d6 61 8d be 70 e9 81 3e 33 e7 bb 3d
       0.08856976 -0.27613705 0.2537341 0.09174957
000370 eb 71 b8 be 34 2e 2c 3e 89 00 f6 3e 01 a3 85 3d
       -0.36024413 0.168145 0.48047283 0.06525231
000380 90 62 3c 3f af c1 a6 be e9 ae e2 3d 24 ed 00 be
       0.73587894 -0.32569644 0.11068518 -0.12590462
000390 2b 0d 41 3e f5 37 5c be 85 03 f1 3d b9 10 83 be
       0.1885268 -0.21505721 0.117682494 -0.25598696
0003a0 c9 07 83 bd cb 73 03 3e c4 3d 81 be 50 07 a0 3e
       -0.06397969 0.1283714 -0.25242436 0.3125558
0003b0 a3 e4 9e be cf 1a 24 bc ea 2e 12 3f ba 90 ba 3e
       -0.3103381 -0.010016157 0.57102835 0.36438543
0003c0 49 49 1d 3f 13 dd 0f bd 6e 59 b0 3e aa 0e cb 3d
       0.6143995 -0.035122942 0.3444323 0.09914906
0003d0 11 65 ef bd 26 70 86 3e be 24 3d 3e 8e 67 0a be
       -0.11689199 0.26257437 0.18471047 -0.13516065
0003e0 f1 9b 1e 3e 96 b9 6d 3e 11 ce 93 3c 2f f7 5b be
       0.15489174 0.23215327 0.018042596 -0.21481012
0003f0 0e b2 79 be f6 ea b4 3d fe b1 b6 3e 02 0e 33 bd
       -0.24384329 0.08833878 0.35682672 -0.04371453

0.bias f4 [160]
000000 9c b8 c4 bd 15 14 9b bc b4 51 ee 3c 48 27 65 bc
       -0.09605524 -0.018930474 0.029091693 -0.013986416
000010 d1 5d bf bd 1e c1 d1 3c 7c 85 9e bd 48 de 2c bd
       -0.09344066 0.02560478 -0.07740304 -0.04220417
000020 dd 1f b1 bc b0 dd dc bc 86 be 82 bd 71 09 52 bd
       -0.021621639 -0.026961178 -0.06383996 -0.051278535
000030 fb 4f 56 bd 76 14 14 bd a2 8f 38 bc fc 66 bf bd
       -0.05232237 -0.036152326 -0.0112647135 -0.093458146
000040 22 88 b6 bd 5e 00 fc bc 50 48 ff bd 59 56 b4 bd
       -0.08912684 -0.030761894 -0.124649644 -0.08805532
000050 96 43 35 bd bc d3 05 3d 3f 05 0f bd 70 7f 25 bc
       -0.044253908 0.03267263 -0.034917112 -0.010101184
000060 cd 3f a3 bd 08 44 71 bd 91 c9 f3 bc 69 ed 92 3c
       -0.079711534 -0.05890277 -0.0297592 0.017935472
000070 06 24 36 3d ca 25 30 bd 9b 25 9f bd 7a d2 a8 3c
       0.04446795 -0.04300479 -0.077708445 0.020608176
000080 56 da 7f 3d d1 14 e4 bd 73 2c 8a bd 3b 86 09 be
       0.06246408 -0.11136783 -0.06746759 -0.13430111
000090 c7 5d 28 bd 93 ca 63 bb e4 d9 92 3c 09 a9 80 3b
       -0.041105058 -0.0034758195 0.017926164 0.0039264006
0000a0 70 cc 02 bd 67 c3 a0 bd 7c 23 ed bd 68 51 91 bd
       -0.031933248 -0.0784977 -0.11579034 -0.07095605
0000b0 00 1b 61 bd 83 cf 8b 3d 80 8b cd bd 86 3f da bd
       -0.05495739 0.06826689 -0.10036373 -0.106566474
0000c0 d1 0b 80 bd 85 22 87 bb 4d 4e ab bc c3 9a 8b bd
       -0.06252254 -0.004123988 -0.02091136 -0.06816628
0000d0 c3 00 c8 bd 8b 5b 9d bb 36 97 b2 ba 07 c6 8a bc
       -0.0976577 -0.0048021725 -0.0013625387 -0.01694013
0000e0 82 61 43 3d 18 8f 8e bd 8a ff 84 bb be ee dd bd
       0.047700413 -0.06960887 -0.004058783 -0.10836552
0000f0 39 da 10 bc 92 d5 42 3c 57 8d 7f bd 1a a3 84 3c
       -0.008841091 0.011891739 -0.06239065 0.016191054
000100 70 b9 88 3d b8 ed 9d bd 13 ae 8a bd cc a8 9b 3d
       0.066759944 -0.07711357 -0.06771483 0.07600555
000110 0a 29 09 3e 44 cf 65 bd 3e 72 aa bd 81 21 29 bd
       0.13394561 -0.056105867 -0.08322571 -0.041291717
000120 ed 39 41 3a df ad 8f 3c 3f 2b 6d bd 0b 60 35 bd
       0.00073709973 0.017538963 -0.05790257 -0.044281047
000130 35 00 1b be ae 25 27 bd 4c e8 c1 bd fd 17 16 bb
       -0.15136798 -0.04080742 -0.09468135 -0.0022902482
000140 88 0b d5 bd 05 ad 32 bd 9e 47 8b bd 44 2f 6b bd
       -0.1040259 -0.043622036 -0.06800769 -0.057418123
000150 92 48 d3 3d c8 59 43 3b 8b e6 19 bc 53 8e d8 bd
       0.10316576 0.0029808152 -0.009393345 -0.10574021
000160 3e be 87 bd ff 1f 07 3d 95 90 97 bd e4 c3 fd bc
       -0.06628083 0.0329895 -0.07400624 -0.030977197
000170 03 4d 60 bc 32 15 ac bd 34 ac 30 bd 9b b8 ed bc
       -0.013690236 -0.0840248 -0.043132976 -0.02901869
000180 6e 0f db bc 6d c0 6c 3c d9 db 77 bd 58 b2 9c bd
       -0.026740756 0.014450175 -0.060512397 -0.07651204
000190 b1 e0 4a bd be 25 33 3c ea b0 e6 3c 11 a5 e4 bc
       -0.04953069 0.010934291 0.028160531 -0.027910741
0001a0 bb 69 19 bd 1b db a3 bc 8c bf 06 be 9b 91 00 3d
       -0.037454348 -0.020001939 -0.13159007 0.03138886
0001b0 6a a6 75 bd 12 6f b4 3b 92 df 82 3b f0 d1 63 bd
       -0.059973158 0.0055064047 0.003993937 -0.055620134
0001c0 b2 7b ee bb 2d e9 52 bd 90 45 c3 bd f2 33 97 bc
       -0.007277929 -0.051491905 -0.09534752 -0.018457387
0001d0 c6 7a bc bd 7c 66 71 bc 70 c1 0a bd 82 9a d3 bd
       -0.09203105 -0.014733907 -0.033875883 -0.103322044
0001e0 e5 b2 f9 3c c1 d9 4e bd d8 82 8c bd 9c 87 d3 bc
       0.030480811 -0.050500635 -0.06860894 -0.0258215
0001f0 c2 9b 5a bc 51 79 5c bb e8 e8 03 bd fb fe 47 3d
       -0.0133428 -0.0033641646 -0.03220454 0.048827153
000200 bf f0 cc bc 30 90 74 bd 38 f6 83 bd 5d 9d 88 bb
       -0.02501714 -0.05970782 -0.06443447 -0.00416915
000210 c6 5d b8 3d 2c 57 f6 bb 06 47 20 3d 69 97 5a 3b
       0.09002261 -0.007517716 0.039130233 0.0033354408
000220 cc ed 2e bc 8e b1 5a bd b1 e3 ec 3c fc 2b 00 bd
       -0.010676812 -0.053391986 0.028917165 -0.031291947
000230 1c 87 42 bc 4a 78 19 bd ec d2 9d bc 95 e0 a1 bc
       -0.011873033 -0.037468232 -0.019265614 -0.01976041
000240 a1 3e 9f bd d7 90 d8 bc 1d 6f 03 be ae cb 26 bd
       -0.077756174 -0.026436253 -0.12835355 -0.040721588
000250 99 55 3d 3c 48 6f ca bc 33 a2 f5 bc 65 1a f7 bd
       0.011556053 -0.024711266 -0.02998457 -0.12065581
000260 3a 06 02 bd 85 4d 98 bd cc 04 00 be a1 40 0a be
       -0.03174422 -0.07436661 -0.1250183 -0.13501216
000270 db 6b 5f 3d 4e 45 3b bd cd 61 01 3d 08 f4 6f bd
       0.05454622 -0.04572039 0.03158741 -0.058582336

2.weight f4 [160, 160]
000000 ba f0 16 bd c9 be 3e 3e f0 c9 12 be d7 1c 23 bd
       -0.03685067 0.18627466 -0.14334846 -0.039822426
000010 52 52 59 be 41 9b 17 3e bb 4c 41 3d 95 5b 8c 3d
       -0.21222809 0.14805318 0.047192317 0.068534054
000020 38 c3 ae be 90 d8 86 be 99 36 05 3c 49 9b 00 bf
       -0.34133315 -0.263371 0.008130693 -0.50236946
000030 c2 2b ef bd c9 b4 ee 3d 35 4b 42 be 12 da b7 bd
       -0.11678268 0.11655576 -0.18974002 -0.089771405
000040 4f 12 61 3e e1 6b 0b bd 6f 02 e3 bd 45 ed e2 bd
       0.2197964 -0.03403843 -0.110844485 -0.11080412
000050 2e 27 a3 3d 63 10 1c 3d 6a a5 ff bc 6b 8f 46 3e
       0.07966457 0.038101565 -0.031206805 0.19390647
000060 fd 36 ae 3b d4 bd 2e be cb 97 d0 bd 1f 48 05 3e
       0.0053166137 -0.17064601 -0.10185202 0.13015793
000070 af dd a9 be d9 b5 c8 bc b7 d0 05 bf c1 a4 3c 3e
       -0.33176944 -0.024500774 -0.522716 0.18422224
000080 65 f2 a4 3e c6 7f ae be 1c fd 67 3e 48 5a e7 3d
       0.32216182 -0.34081858 0.22655147 0.11296517
000090 df ac 8b bd d3 25 a6 3e 05 6a 68 bd 15 9e 5c 3e
       -0.06820082 0.32450733 -0.056741733 0.21544679
0000a0 39 5b be bd 88 bd 63 be e8 2a 57 3e f8 34 68 3e
       -0.09294743 -0.22240269 0.21012461 0.22676456
0000b0 42 d3 1e 3e b1 3a c8 3e 76 ff 7d be ab 67 82 3d
       0.15510276 0.39107278 -0.24804482 0.06367429
0000c0 d7 a8 23 be 1b 63 29 be a8 51 5c be b3 d2 03 3d
       -0.15982376 -0.16541712 -0.21515524 0.03218336
0000d0 2d 3f 41 bd 8b 5d 80 be 7c 6a 8e 3e b6 71 14 3d
       -0.04717939 -0.25071368 0.27815616 0.036241256
0000e0 8c 68 ec 3e 9f 6b 80 3c ed bc 7e 3e af 08 0a be
       0.46173513 0.015676318 0.24876757 -0.13479875
0000f0 91 19 af 3e ef d2 7a 3e 37 79 62 3d bc 6d f0 be
       0.34199193 0.24494527 0.05529138 -0.4695872
000100 ca 67 89 3e 3c 17 83 be bd e0 b6 3d c3 18 68 3e
       0.26836997 -0.25603664 0.08929584 0.22665696
000110 4d ff 05 3e cd 7d 80 bd dd 24 00 3e 2a 3b bf be
       0.13085671 -0.062739946 0.12514062 -0.37349826
000120 20 f7 8b be c8 ae 14 bd e6 df 9e 3c 74 18 b0 be
       -0.2733698 -0.036299497 0.019393872 -0.34393656
000130 6e 6b 73 3c e5 ff 98 3e cc ad d1 be ca 6a 1d bd
       0.014857156 0.29882732 -0.4095291 -0.03843192
000140 f3 39 ba 3c 0b 32 fe bc 90 47 b7 3e e3 0e 99 bc
       0.02273271 -0.031029722 0.35796785 -0.018683856
000150 9c a2 57 3e 68 07 54 bd 72 44 e6 3d f1 9c ba 3d
       0.21058124 -0.051764876 0.11243524 0.091119654
000160 bf 1f 91 be d5 c4 e7 3d a1 b7 71 3e 3c ca 2b be
       -0.28344533 0.113168396 0.23605205 -0.16776365
000170 47 57 d8 bd fd 47 80 3e e2 a7 49 be 97 16 01 be
       -0.10563522 0.25054923 -0.19692948 -0.12606274
000180 34 e3 b3 3d 97 85 2a be 50 00 f6 be c0 ef 5e 3e
       0.0878357 -0.16652523 -0.48047113 0.21771145
000190 d5 7d 2a 3e aa 9d c2 be da 53 aa be 03 30 ef bd
       0.16649564 -0.38010913 -0.332671 -0.116790794
0001a0 46 97 8c bb 92 96 29 be 48 de b8 3d ad 18 9e be
       -0.004290494 -0.16561344 0.09026772 -0.308782
0001b0 f7 00 7d 3d e8 fc 51 be 87 58 79 be d1 0b e5 be
       0.0617685 -0.20506632 -0.24350177 -0.44735578
0001c0 ad fa a2 be 99 9c 91 3e 9f 0e 27 3d b5 f8 f9 be
       -0.31831875 0.28439787 0.040785428 -0.4882256
0001d0 f0 b4 56 3e ac 38 e7 3e 54 62 e6 bd f0 5e 00 3e
       0.2096746 0.45160425 -0.11249223 0.12536216
0001e0 8b 38 77 3c 4b e5 58 3e d3 d0 0d 3e 3b 9c a3 3e
       0.0150891645 0.21181218 0.13849191 0.31955132
0001f0 7e 2d 5b be 8a f3 b0 3d e4 a6 a9 bb f2 c6 51 bd
       -0.21404073 0.086402014 -0.0051773656 -0.05121512
000200 3a 6c 98 be 36 dd 62 be 2c b5 aa 3e 68 79 73 3e
       -0.2977007 -0.22154698 0.33341348 0.23776782
000210 01 00 32 3e 5b 6d 91 be 55 5d a1 be 37 37 0d be
       0.17382814 -0.28403744 -0.3151652 -0.13790594
000220 3b fa 5f be 38 a6 2b be a8 23 09 3e 2d 4d 54 3e
       -0.21872799 -0.16762626 0.13392508 0.20732565
000230 33 68 ab 3e 39 65 c1 3e 1c 02 e3 bd 10 08 43 be
       0.33477935 0.3777254 -0.11084387 -0.19046044
000240 9a 94 70 be 51 7f 93 3d cc c1 1a 3e 3a af 4f 3e
       -0.23494187 0.07202018 0.1511299 0.20281687
000250 f3 85 7d be b8 24 f8 3d ea bd 3e 3d 51 48 c9 bd
       -0.24758129 0.121163785 0.046567835 -0.098282464
000260 6c 2b aa be ce 70 49 bc e0 13 05 3e af e3 7e 3e
       -0.33236253 -0.012294961 0.12995863 0.24891542
000270 05 de cd bd 11 49 81 be 2a 31 f8 bd a3 0e c7 3d
       -0.100521125 -0.25251058 -0.12118752 0.097195886
000280 21 77 17 bf 8c 9e fe bd b6 08 f5 be c8 ea dd 3e
       -0.5916615 -0.12432584 -0.47858208 0.43343186
000290 db 51 9b 3e 83 30 bf be 34 c2 0c bf 58 e4 68 be
       0.30335888 -0.373417 -0.5498383 -0.22743356
0002a0 07 df 24 bf b6 dc f7 3d a8 84 ae 3d ea d0 a1 be
       -0.6440281 0.12102644 0.08521396 -0.316047
0002b0 df 8c 3c bf ac bf 8b be e7 22 6f bf 16 76 a0 be
       -0.7365245 -0.27294672 -0.9341263 -0.31340092
0002c0 42 7a a5 3d 9f 47 85 3e 85 dc de 3e e2 62 65 be
       0.080799595 0.26031205 0.43527618 -0.22401002
0002d0 71 1d 20 bf 69 c0 60 be 9d 4c 4b bf c3 6b b6 be
       -0.62544924 -0.21948399 -0.7941378 -0.3562909
0002e0 ca 13 06 be 76 68 60 be 82 c8 a8 be d1 6b 09 3e
       -0.13093486 -0.21914849 -0.32965475 0.13420035
0002f0 01 e3 f0 3e d3 28 1b be 9e 01 b0 3e a3 ea 60 3e
       0.4704819 -0.15152292 0.34376234 0.21964507
000300 42 f8 f6 bc 28 49 5a be fe 35 cb be 29 00 c7 be
       -0.030147675 -0.2131697 -0.3968963 -0.3886731
000310 2d eb 2c be dd b6 09 bc 3b 17 d6 3e 36 b9 09 3e
       -0.16886587 -0.008405414 0.41814598 0.13449559
000320 8b 2b 90 3d 05 44 8e be e7 3e 92 3e a5 6b a3 be
       0.07039555 -0.2778627 0.28563616 -0.31918064
000330 0e 45 6f be 2a f8 1e be 69 4a 50 3c d0 58 ac 3d
       -0.23366186 -0.15524355 0.012713053 0.08415377
000340 fa 03 81 3e 61 5d 99 3e f1 d1 84 be b0 e1 d1 be
       0.25198346 0.29954055 -0.25941423 -0.40992498
000350 b3 10 e2 bd cc d5 4b be 6a 67 ba be b3 d9 0f be
       -0.110383414 -0.19905776 -0.36407024 -0.1404789
000360 de e4 20 be 7f 1e 9f 3e c0 93 8d bc f6 2e 12 3b
       -0.15712306 0.31077954 -0.017282367 0.0022305823
000370 ec 23 ee bc ef 9e 72 3d 3c f3 be be 72 de 1a 3e
       -0.029069863 0.059233602 -0.37294948 0.15123919
000380 1a 74 6b be 0a 4c 17 3e d1 60 68 bf 63 32 30 be
       -0.22993508 0.147751 -0.9077273 -0.17206721
000390 11 7b 2d be e8 d9 da be c0 5e 4c be 1c e2 c5 be
       -0.16941477 -0.42744374 -0.1995802 -0.3864907
0003a0 f3 a9 34 bd 99 54 0b bf e2 76 68 3d 12 61 ad 3d
       -0.04410739 -0.5442596 0.056754 0.0846578
0003b0 5f aa d4 be 54 66 1c bf 1d 81 4c 3e ee 36 0f 3f
       -0.41536233 -0.6109364 0.19971128 0.5594319
0003c0 32 60 97 3d e4 14 34 3c e1 e7 13 bf 39 a4 90 3e
       0.07391395 0.010991309 -0.57775694 0.28250292
0003d0 6e 9b 4b 3e 12 b2 f7 3c 28 59 b2 ba 58 f5 9e be
       0.1988351 0.030236278 -0.0013606893 -0.31046557
0003e0 63 58 61 bf dd c9 5a 3e 2f 1a 80 be f1 65 dc be
       -0.8802549 0.21366067 -0.25019976 -0.43046525
0003f0 63 e6 ba 3e 7c 63 90 be 7f 06 e9 be e1 24 ec be
       0.36503896 -0.282009 -0.4551277 -0.46121886

2.bias f4 [160]
000000 e4 24 ad 3d 60 9d 9d 3d 07 bf 8b 3d cd 4e 9f bd
       0.08454302 0.076960325 0.06823545 -0.07778702
000010 6e 56 4a bd f1 7d 71 bd c6 f5 91 bd 6e 10 ef 3d
       -0.049398832 -0.058957998 -0.07126956 0.116730556
000020 50 4d dd 3d f4 1b 54 bd 1c da a7 bb 5d 53 ce 3b
       0.10805762 -0.05178447 -0.005122436 0.006296559
000030 7c 4a 72 3d f1 3d 4b bd 13 f3 0c be 95 52 80 be
       0.059153065 -0.04961962 -0.137646 -0.25063005
000040 42 48 90 bd e5 e9 66 be 19 60 2a 3d b3 2f fe bc
       -0.07045032 -0.22550161 0.041595552 -0.031028604
000050 f5 4d 10 3e b3 53 cc 3d 59 bb 8d be 9e 39 f2 3d
       0.14092238 0.09976902 -0.27681997 0.11827396
000060 7d 6c 79 3d 2b 50 7e 3b 7a 4d 53 bd cf 07 81 bd
       0.060894478 0.0038805108 -0.05158756 -0.063003175
000070 7e f0 ad bd a3 8a b5 bc 10 5b b1 bd 58 ef 59 be
       -0.08493136 -0.022160834 -0.08659947 -0.21282709
000080 f5 68 52 bc ac a6 49 be 29 5b 84 be 81 52 97 bd
       -0.0128424065 -0.19692487 -0.258508 -0.07388783
000090 df b1 30 be df 0f 47 3d 2a 99 b6 3d d0 96 73 bd
       -0.17255352 0.04859912 0.089159325 -0.059469998
0000a0 b3 8e ff 3c 28 58 48 bc ac ce 66 3d 85 80 84 3b
       0.031195974 -0.012228049 0.05634944 0.004043641
0000b0 ec 90 cf 3d d6 21 9d bd 0a 67 20 3e 58 b5 1b 3c
       0.101350635 -0.07672469 0.15664306 0.009503685
0000c0 62 44 31 bc b4 1b 9a bd 15 f3 5c be 41 be 06 be
       -0.010819526 -0.07524815 -0.21577103 -0.13158514
0000d0 90 eb b3 3c c8 43 de 3d 9f 95 0d bd ae 0c 35 3e
       0.02196291 0.10852772 -0.034566518 0.17680618
0000e0 94 2f a2 3d b2 e4 24 bd 80 18 e5 3c 80 4f 3e bd
       0.07919231 -0.040257163 0.027965784 -0.046462536
0000f0 e7 ed 87 3d e5 da 14 3d 2f 0c 46 3e a8 a5 0e be
       0.06637173 0.036341567 0.19340585 -0.1393038
000100 4b a5 82 bd 53 85 42 3d b5 13 c1 be a1 bf c4 bd
       -0.063791834 0.04749043 -0.37710348 -0.09606863
000110 a9 94 5d 3d d3 85 46 3c 2c 8a 50 bd e3 da e2 b9
       0.05409685 0.012116867 -0.05091302 -0.00043269162
000120 e0 a2 d0 3d 8f fa 38 3c e4 e5 54 be 9c 86 4a bd
       0.10187316 0.011290207 -0.20790821 -0.04944478
000130 ba e7 5b 3d fe 6a 9e bd bc 49 01 be c6 50 72 bd
       0.05368779 -0.07735251 -0.12625784 -0.059159063
000140 33 c7 1c 3e b4 59 28 3e 50 0c 00 3c 11 20 2b bd
       0.15310363 0.16440469 0.0078154355 -0.041778628
000150 cc 1d 5b bd d6 ed 86 3d a9 b2 de 3d 98 dc b7 3c
       -0.053495213 0.06588332 0.108739205 0.022444054
000160 1b c4 c9 3c 9e f3 c8 3d 3a 14 5e 3d a9 76 cf bd
       0.024629643 0.09812091 0.05421851 -0.101300545
000170 08 5d aa bd 7c 71 7c bd 0a 28 64 3c 3a ad 10 3e
       -0.083185256 -0.061631665 0.013925562 0.1412858
000180 bf ed 90 bd 63 c9 14 3e 7b c6 f7 3a 02 b6 58 bd
       -0.070765965 0.14529948 0.0018903756 -0.05290795
000190 df b6 f8 3c 15 03 93 3c fe 5a 19 bc bf 2d 5c 3d
       0.030360637 0.017945806 -0.009360073 0.053754564
0001a0 2a 56 2e bd 63 db 82 3d 9f 2d 6e be ba ce 08 3e
       -0.04256264 0.06389501 -0.2325959 0.1336011
0001b0 46 ff ab bc 58 47 66 bd a8 42 ea 3d 1c 78 e8 3d
       -0.020995747 -0.056220382 0.11438495 0.11351034
0001c0 99 d4 1f be 48 6f 04 be 1f 50 b8 bd 0c 5d 3d 3d
       -0.15608443 -0.12933075 -0.08999657 0.046231315
0001d0 d6 87 8f 3d 45 6a d1 3c c0 72 0d bd 81 21 6c be
       0.070083305 0.025563369 -0.034533262 -0.23059656
0001e0 90 5e ed 3c e8 0d c5 bd 82 20 da 3d a9 b1 f7 3d
       0.028975755 -0.09621793 0.106507316 0.12094433
0001f0 cd 90 31 bd 26 7e 18 3e 77 22 60 3d fd dc 8c 3d
       -0.043350983 0.14891872 0.05472037 0.06878088
000200 ac 4d 1d 3e cb f8 93 be 0e d2 a9 bd 39 37 dc 3d
       0.1536166 -0.2890075 -0.08292018 0.107527204
000210 43 21 50 bd 10 33 d1 3b bd d9 68 bd 30 2c 64 3c
       -0.05081297 0.006384261 -0.056848276 0.013926551
000220 5e 2a 4f bd a1 1a ce bd f8 04 1d bd 89 80 d6 3d
       -0.050577514 -0.10063673 -0.038334817 0.10473735
000230 6b c2 0f bd 35 a3 89 bd 1a ed b9 bc c5 1e 28 3e
       -0.03509752 -0.067205824 -0.022696067 0.16417988
000240 1f d1 2c bd 53 9a 38 bd ba 35 93 bd a1 5c a6 3c
       -0.04219162 -0.04506905 -0.07187982 0.02030784
000250 ae 9e 49 3c 28 90 23 3c e9 25 34 3c cb b3 b9 3c
       0.012305899 0.0099831 0.010995367 0.02266874
000260 2c 42 6b 3d cb a9 b8 3c 55 23 a1 3c a9 ec cf 3c
       0.057436153 0.022541901 0.019670168 0.025381403
000270 c0 f2 82 bd b2 81 29 3d 84 0d e7 3d 9e 20 72 bc
       -0.06393957 0.041383453 0.11281875 -0.014778284

4.weight f4 [160, 160]
000000 f4 12 fd be 35 15 ed 3e 7c d4 40 bd 63 d7 33 bc
       -0.49428523 0.46305242 -0.04707764 -0.010976645
000010 46 b7 9f 3e 61 75 36 3e d7 2b 26 be 07 ab 02 3e
       0.31194514 0.17818214 -0.16227661 0.12760554
000020 a9 0e 16 3e 5f 1a 64 bd 20 8b 8f 3e c9 df b8 be
       0.1465403 -0.055689212 0.2803583 -0.36108235
000030 f3 f3 09 3e 3f 69 e8 3d 56 04 10 bd ec b5 f6 bd
       0.13471965 0.11348199 -0.035160385 -0.120464176
000040 fc dd fe bd 40 a9 0b be d1 6c a7 3c 49 ef a2 3d
       -0.12444684 -0.13638783 0.02043763 0.07955796
000050 62 c1 ea be eb a7 bc bc ae 96 5a bd 1c b3 a6 3e
       -0.45850664 -0.023029288 -0.053366356 0.32558525
000060 01 0b b9 be cd f6 d7 be 12 2e 02 3d 33 d0 29 3c
       -0.36141208 -0.42180482 0.031782217 0.01036458
000070 06 3a d5 3d 6c 37 c8 bd 0b 1a 8f be c9 30 ba bd
       0.10411458 -0.09776196 -0.27949557 -0.09091336
000080 8c d2 2d 3d 0c 5c 1c be b0 f2 b9 3d e9 a7 91 3d
       0.04243712 -0.15269488 0.09079492 0.071121044
000090 39 14 d5 bc cd f5 1f 3f aa fe b0 3e 0c ed ed bd
       -0.02601062 0.6248444 0.34569293 -0.11617479
0000a0 18 0c e5 3b 52 e3 b9 be 26 13 59 be 63 4a fc 3c
       0.006989967 -0.36306244 -0.21198711 0.03079719
0000b0 64 97 5b bd 0e 93 54 bd 0f e4 16 bf 05 f3 7b be
       -0.053611174 -0.051898055 -0.5894174 -0.24604423
0000c0 13 2e a3 bd fa 7c c4 3d 21 46 d2 3c c2 8f 96 be
       -0.07967772 0.0959415 0.025668206 -0.29406554
0000d0 40 b3 fc be 96 b7 80 bc a5 52 c8 bc 80 ee 15 be
       -0.49355507 -0.01571254 -0.02445347 -0.14641762
0000e0 de f5 45 3d 92 c0 0c 3e 41 c7 e4 39 75 a6 03 bf
       0.04833018 0.13745335 0.00043636005 -0.5142587
0000f0 88 7a d5 3d 71 2f 2e be cf b2 d1 be 35 b3 11 be
       0.104237616 -0.17010285 -0.40956733 -0.14228518
000100 a6 61 9b bd 2c dd 9f be 58 2d 37 be d3 cc ec 3e
       -0.07586984 -0.31223428 -0.17888391 0.46250018
000110 92 a7 0d be 62 84 e6 be 30 34 11 be 4a df fa 3e
       -0.13833454 -0.45022875 -0.14180064 0.4899848
000120 1e 9f 37 bd 43 63 12 3d e0 5c b7 3e a2 12 dd bc
       -0.04482948 0.035739195 0.35813046 -0.026986424
000130 5e ff 11 be 7f de bf be cc 40 a7 be bb 1d 80 3d
       -0.14257571 -0.3747444 -0.32666624 0.06255671
000140 83 36 38 3e 4b bc 2c be 3a 92 d3 be 5c c8 81 3e
       0.17989545 -0.16868703 -0.413225 0.25348175
000150 e7 aa 1d 3e a2 a0 5d bf 97 b8 18 3e b8 e2 ad bd
       0.15397225 -0.8657323 0.14914165 -0.08490509
000160 a8 ee d2 3e ad 46 0c be 70 cf 97 3e f2 09 bb bd
       0.41197705 -0.13698836 0.2965045 -0.09132756
000170 d0 4c 25 3f 7c fc a5 3d a5 16 87 3c 25 2c b7 bd
       0.6457033 0.08104798 0.01649029 -0.08943967
000180 df b1 b1 be 6e a2 b5 be c0 32 ad 3e 2e 34 12 be
       -0.34706017 -0.35475487 0.33827782 -0.14277717
000190 56 77 22 bf b5 6e ab be f3 58 c5 3d 56 fc da be
       -0.6346334 -0.334829 0.09636106 -0.42770642
0001a0 27 ef a0 be 24 8e 08 bf ac e0 2c be c6 e7 c0 3d
       -0.3143246 -0.5334189 -0.1688258 0.09419207
0001b0 b8 b3 45 be 7c d1 f9 3d ce 15 16 3e 35 79 d6 bd
       -0.19306839 0.12198159 0.14656755 -0.10472337
0001c0 e2 0d 8a be 4a b0 24 3d 98 e4 b9 3d 47 4c 3e 3e
       -0.26963717 0.040207185 0.09076804 0.18583785
0001d0 94 a4 fa bd cd 23 e6 be 23 fd 80 bd fa ca 08 3e
       -0.12238422 -0.4494919 -0.06298282 0.1335868
0001e0 7c 21 03 3e 70 cc d4 be ef 17 6b 3d 57 2f 1e bf
       0.12805742 -0.41562223 0.05739587 -0.61790985
0001f0 74 41 9f be 2c b5 71 be a2 b8 bf 3e 69 c4 08 bf
       -0.31104624 -0.23604268 0.3744555 -0.534247
000200 9b 60 76 3d e7 6e 0f be 79 67 bc be 6a c7 1f 3f
       0.060150724 -0.1400715 -0.36797693 0.62413657
000210 57 12 4d be 06 48 2a bf 2d 38 bb bd 19 96 03 be
       -0.20026527 -0.6651615 -0.09141574 -0.12850226
000220 dd af d9 3d 01 f4 d1 be 1e 73 19 3e 89 79 28 be
       0.106292464 -0.41006473 0.1498532 -0.16452612
000230 fb f6 e8 bd 6e e7 30 bf c0 4d 5d bd 45 cc de be
       -0.11375233 -0.69103134 -0.054029226 -0.4351522
000240 c5 8e 58 3d 53 b3 d1 bd 26 03 e6 bc 3e 02 ac 3e
       0.05287053 -0.102392815 -0.028077673 0.3359546
000250 9c 59 d9 3d 95 45 4e bc 71 1e c1 be 2a 95 dc be
       0.10612795 -0.012589832 -0.37718537 -0.43082553
000260 ad ab 8d be 7c 22 63 bf 20 36 63 be 61 08 9f 3e
       -0.2767004 -0.88724494 -0.22188616 0.3106108
000270 02 8b 7e 3c fc 9e 40 3e f7 22 10 bf 4c 5b ab bd
       0.015536072 0.18810648 -0.5630335 -0.08367023
000280 a9 4e 21 be a8 75 91 3e 17 bf 60 3e 4d cc e7 3e
       -0.15752663 0.28410077 0.21947895 0.45273057
000290 18 2e b0 be d2 f3 3a be 76 96 32 3e 95 eb 27 3e
       -0.34410167 -0.18257073 0.17440209 0.16398461
0002a0 61 15 73 3e b1 5b bf 3d 04 a9 14 3e 3e ca 77 be
       0.23738624 0.093436606 0.145176 -0.24198243
0002b0 77 47 0a be 16 33 ed bd ed f8 8b be 70 02 82 bd
       -0.13503824 -0.115820095 -0.27338353 -0.06348121
0002c0 37 b3 26 be 25 d5 24 3f 3d 1f be bc 1f 5c 1a bf
       -0.16279303 0.6438773 -0.023208255 -0.60296816
0002d0 6c fd 3a be f8 2f fd bd 85 c3 9c bc 79 00 f2 bd
       -0.18260735 -0.12362665 -0.0191362 -0.118164964
0002e0 4b 73 e8 be ad b6 03 be fa ed 09 3e 98 a4 38 be
       -0.45400462 -0.12862654 0.13469687 -0.18031538
0002f0 c8 b5 85 bd b3 93 44 be f5 48 ed 3d a3 a6 91 be
       -0.06528813 -0.19196968 0.11586181 -0.28447446
000300 5d 52 1c 3e 6d 96 16 3e 83 03 90 3e 6c 76 bc bd
       0.15265794 0.1470582 0.2812768 -0.09202275
000310 41 d8 b0 be 90 16 fd 3e 6c 56 89 be 11 be 0d 3e
       -0.3453999 0.49431276 -0.26823747 0.13842036
000320 b5 4d 11 be 5a a3 9a 3e 02 43 78 be 07 da 09 be
       -0.14189799 0.30202752 -0.24244311 -0.13462077
000330 cd 06 2b be e3 9a f3 bd 67 b3 92 bd e7 37 bb 3d
       -0.16701813 -0.11894777 -0.071631245 0.09141522
000340 55 d1 3e 3e e6 09 a4 bd 22 45 a7 be 88 a3 69 be
       0.18634541 -0.080097005 -0.32669932 -0.22816288
000350 b2 0f d3 be 5e 65 88 bd 1f 50 c7 3d 65 52 b1 3d
       -0.41222912 -0.06659959 0.09732079 0.08658294
000360 75 9e 3c be c5 eb 31 be c2 7d d3 3d 9c bf ce 3d
       -0.18419822 -0.17375095 0.10326721 0.1009514
000370 b8 3d fc be eb 11 67 bd 8e bb bb bd 2c c6 02 be
       -0.49265838 -0.056413572 -0.091666326 -0.12770909
000380 af d8 86 3c 1a b7 85 3d be 8d 11 be ee 8a 7c be
       0.016460745 0.065290645 -0.14214227 -0.24662372
000390 67 ec c7 3e 92 0f fd bd c9 59 b9 3d bb 22 54 bd
       0.39047548 -0.123564854 0.09050328 -0.051790934
0003a0 b7 9e f0 3d d6 56 00 3d 9c 73 63 3e 8f 06 4b 3d
       0.117490225 0.031332813 0.2221207 0.0495668
0003b0 f8 16 58 3e 3c b9 30 be 9f d2 9e bc 70 6d a2 bd
       0.21102512 -0.17258161 -0.019387541 -0.0793103
0003c0 e7 98 5b bc 2b b8 08 be 97 bb 0e 3e 85 86 b1 3e
       -0.013403154 -0.13351505 0.13938747 0.34672943
0003d0 70 3d 2c be c0 23 ea be c7 13 a1 bd e0 f8 be bc
       -0.16820312 -0.457304 -0.078651 -0.023312032
0003e0 63 e7 68 3e 88 69 3f bf 88 ea 9a 3e 3c 40 a6 3d
       0.22744517 -0.747704 0.30257058 0.081177205
0003f0 e2 53 e3 bd 3a 30 04 3d 08 9a 9e bd f7 b8 db be
       -0.11099984 0.032272555 -0.07744223 -0.42914554

4.bias f4 [160]
000000 05 9c 32 3c 30 63 30 bd e7 45 3c bd 3c d4 62 3d
       0.010901456 -0.043063343 -0.0459651 0.055378184
000010 fa 87 00 be b0 38 b8 bd 06 09 f2 bd c2 ea a1 3e
       -0.12551871 -0.08995187 -0.11818127 0.31624418
000020 51 5d 38 3e fb bc 79 3e 7c 40 bf 3d 0c 3e 04 be
       0.18004347 0.24388497 0.09338471 -0.12914294
000030 ca a6 bb bd a8 66 30 be 14 d1 c1 bd 47 f2 72 bd
       -0.09162672 -0.1722666 -0.094637066 -0.059313085
000040 39 3e 6b bd 37 b7 22 bd 84 7a 13 be 28 2a a5 bd
       -0.057432387 -0.03972551 -0.14402205 -0.08064681
000050 11 94 3f bd bc d2 27 3d d2 58 35 be 9d c1 cb bb
       -0.046772067 0.040972456 -0.17709664 -0.006218149
000060 9e b0 67 bc 29 e7 da bb be 9d ca 3c 55 9e a4 3d
       -0.01414123 -0.0066803885 0.02473342 0.08038012
000070 ca 3c cc 3c a2 68 94 be cf e1 ff 3b df 34 d2 bd
       0.02493133 -0.28986079 0.007808901 -0.102639906
000080 fd 86 96 be ad b4 ac bd 8e 37 9d bd 25 17 65 3e
       -0.29399863 -0.08432899 -0.07676612 0.2237211
000090 ee f9 15 bd b7 28 b9 bd 8f ea 5a bd 21 de ba 3c
       -0.036615305 -0.09040969 -0.05344635 0.022810997
0000a0 f4 26 d5 bd 4c 31 c1 3d bb 71 c8 bd 01 27 03 be
       -0.1040782 0.09433231 -0.09787317 -0.12807848
0000b0 6a 28 f1 bd 51 f7 16 be 78 05 76 3c 06 8a 99 3c
       -0.117752865 -0.14742781 0.015015952 0.018742573
0000c0 d5 74 6b bd dc 2a 2f be 77 93 97 bd ef 6b c8 bb
       -0.057484467 -0.17106193 -0.074011736 -0.0061163823
0000d0 61 45 21 be 0e e8 72 bd 6f 0f 73 3e a1 75 4e be
       -0.15749122 -0.059303336 0.23736356 -0.2016206
0000e0 0a d9 ec bc 4b d8 79 bd 6f 35 2f 3e f2 bf 57 ba
       -0.028912086 -0.06099729 0.17110227 -0.0008230201
0000f0 61 36 97 bd 2f bb 40 3d e1 76 43 3e be 0b 84 3d
       -0.07383419 0.047053512 0.19088317 0.06447552
000100 ad 1b 9d bc 20 e0 bc bd 17 47 fb bd b8 c9 ba bd
       -0.019178236 -0.09222436 -0.12269419 -0.09120506
000110 a9 b2 bb bd 53 87 94 bd d2 c1 5a bd 8b d5 90 3e
       -0.09164936 -0.072523735 -0.053407498 0.2828792
000120 7a 26 6a bc e7 8a cc 3d e8 b4 16 bd f9 82 d6 bd
       -0.0142914 0.09987431 -0.03679362 -0.104742
000130 bf 0f 36 3b 59 20 54 bd 5d a5 9c bd db 42 b4 bd
       0.0027780381 -0.05178866 -0.07648728 -0.08801814
000140 a0 1f 00 be ad d8 82 3e 33 f6 48 bc 09 d5 b4 bd
       -0.12512064 0.25555936 -0.01226573 -0.08829696
000150 7a 87 bf bd 54 05 ce bd bd 41 63 3d 5d c1 75 3e
       -0.09352012 -0.1005961 0.055482615 0.23999543
000160 72 f7 07 be 39 2f 1e 3d 1e 3e be 3d 11 52 58 bd
       -0.13277987 0.038619254 0.09289192 -0.05281264
000170 06 76 54 be fa 05 87 3e 6b 9b 32 bd f0 a4 ee 3c
       -0.20748147 0.26371747 -0.04360525 0.029131383
000180 87 f2 14 be ef 12 91 bd c1 68 d7 3c b7 c9 fc bd
       -0.14545642 -0.070836894 0.026295068 -0.123431616
000190 3b 93 84 be 95 64 ff bd 40 be 07 be a7 30 53 be
       -0.25893578 -0.124703564 -0.13256168 -0.20624028
0001a0 46 e0 e2 bd f4 ce 7d bc 85 de 7f be 97 cf 47 be
       -0.11077933 -0.015491236 -0.24987228 -0.19512783
0001b0 4e 11 3a bd 0c 17 23 bd 93 cf 31 be 20 26 95 bd
       -0.04542666 -0.0398169 -0.1736434 -0.072826624
0001c0 c4 ca df 3a 39 6b 01 3e b5 e0 b3 3c 6f bf d2 3c
       0.0017073979 0.12638558 0.021957735 0.025726048
0001d0 58 84 da bd 4f 73 47 bd 32 d2 f7 bd 8d 45 92 3d
       -0.10669774 -0.04869395 -0.121006384 0.07142172
0001e0 bc aa a4 bd 59 36 be bd e3 94 9f 3d 0e ff 9d bd
       -0.080403775 -0.0928771 0.0779207 -0.077146634
0001f0 2f b4 7f bd 40 93 8f bd 28 a7 89 bc 01 cd 52 3c
       -0.062427696 -0.070105076 -0.01680334 0.01286626
000200 aa 1b 5b bc d4 9f 23 be 3b 0f c0 bd 9d ee 51 be
       -0.013373295 -0.15978938 -0.09377905 -0.2050118
000210 7f 1b 38 3c db ba ef bd 3c 2d 48 bd c1 d8 dd bd
       0.011237024 -0.11705562 -0.048871264 -0.10832358
000220 d3 ae 47 3e 40 c2 b9 3d 8c ac 4c be 9a c8 4f be
       0.19500284 0.09070253 -0.19987696 -0.20291367
000230 f0 87 14 be 21 e6 0d 3e 27 f8 f7 3d 89 41 f9 bd
       -0.14504981 0.13857318 0.12107878 -0.12170703
000240 69 b8 0c be f7 76 54 be 72 0c 24 bc f5 fe 4f 3c
       -0.13742222 -0.20748506 -0.010012733 0.012695064
000250 1c dc ab 3d 09 e9 36 bd 22 e2 4f 3d c5 65 22 3e
       0.08391592 -0.044655833 0.050752766 0.15859134
000260 f0 ce 9c 3d 6d a1 ba bc ec 57 0b bd f8 08 60 3d
       0.07656658 -0.022782052 -0.034019396 0.054696053
000270 c6 56 2a bc 12 9a 26 be 13 1f 84 bd d7 ae 7a bd
       -0.010396665 -0.1626971 -0.064512394 -0.061201897

6.weight f4 [12, 160]
000000 4e 52 bd bd c1 ee 93 be 8d 06 cf bc 74 98 02 3e
       -0.09244214 -0.28893092 -0.025271678 0.12753469
000010 27 1a fd be f8 84 99 3d 9a a9 77 3d 7c b1 9f 3d
       -0.49434015 0.07496065 0.06046448 0.07797524
000020 e5 d1 1b 3c 25 67 ca bd 21 b3 c9 be 75 b7 08 3f
       0.009510492 -0.098829545 -0.39394477 0.53404933
000030 6d 6d 1d be 8e ad 0d be 77 2e 32 3d da 4e 0b be
       -0.15373774 -0.13835737 0.043501344 -0.13604298
000040 33 1e 55 be 32 9a 3d 3e 2d 6c e1 bd 7c 40 f6 bd
       -0.20812301 0.18515852 -0.11006961 -0.12024018
000050 db ba cc 3b fe 84 83 be 47 c3 13 3e bc d5 ad bc
       0.006247861 -0.25687402 0.14429961 -0.02122008
000060 93 ea 20 be 81 82 86 be bc bd bc ba d7 eb 3f be
       -0.15714483 -0.26271442 -0.0014399807 -0.1874231
000070 32 02 76 be 85 71 8c 3e 5e fd 89 3d 3f 4f 11 3e
       -0.24024275 0.2743036 0.06737779 0.14190386
000080 e2 ea 14 be 60 a3 6a be 59 5d bb 3d 99 b6 01 3e
       -0.14542726 -0.22913885 0.09148664 0.12667312
000090 7a 2f e7 3d 9c d8 21 3e 09 6a 73 3e 24 7e 6d bd
       0.11288352 0.15805286 0.23770918 -0.057981625
0000a0 02 c1 38 bf f8 71 c1 be ae ea 05 3e 07 66 1f 3e
       -0.72169507 -0.37782264 0.13077804 0.15566264
0000b0 7e c3 ac 3e da 45 ab 3e 29 98 57 3d 08 ce 2d be
       0.337429 0.3345173 0.052635346 -0.16973126
0000c0 29 7b 4f be 3b 22 eb 3e 59 af 06 bd 61 74 e8 be
       -0.20261826 0.45924553 -0.03288207 -0.4540129
0000d0 f4 e1 0b 3e 4c 23 3c 3e 0b e9 95 bd e9 70 73 bd
       0.13660413 0.1837284 -0.0731984 -0.05943385
0000e0 fb 4d 83 3e 9c f6 06 3e 2d 1f bd 3e 14 bc 63 be
       0.25645432 0.13180012 0.36937848 -0.22239715
0000f0 07 ff 9a 3e 2b d4 e8 3e ce f7 16 bf 63 75 dc be
       0.30272695 0.4547437 -0.5897187 -0.4305831
000100 67 31 86 be 2b 0c f0 bd b5 67 68 3e af ef ee bd
       -0.26209566 -0.11721071 0.22695811 -0.1166681
000110 81 1f 15 bd 9a 44 87 3d ff 80 28 be e5 a4 8a 3e
       -0.036406998 0.066048816 -0.16455458 0.2707893
000120 8b e6 40 bc ea 04 49 bb 5a 83 53 be ab fc 83 3b
       -0.011773716 -0.0030673095 -0.20655575 0.004027923
000130 32 eb b6 3a e1 93 07 3e 98 b7 b6 be 66 73 d0 3d
       0.0013955592 0.13240005 -0.35686946 0.101782605
000140 7b 2d 80 3e 5c 5d c5 3d e3 d4 ab 3e 65 48 aa be
       0.250347 0.096369475 0.33560857 -0.33258358
000150 f5 09 25 be d9 c3 0b be 9c 08 57 3e 22 46 17 3e
       -0.1611708 -0.13648929 0.20999378 0.14772847
000160 0b 9a b4 3c 97 f1 cc 3e 51 ff 1f be f0 22 8d 3e
       0.02204611 0.40028068 -0.15624739 0.27565718
000170 9f 3e c8 bd b4 9b b2 3e 4f 32 f3 bd 7c 5f 31 3e
       -0.09777569 0.34884417 -0.1187483 0.1732158
000180 bd d0 1c bc 82 e5 d0 3d 18 2c be be 7d e1 d8 bd
       -0.009571251 0.10200025 -0.37143016 -0.105898835
000190 6a 1d 32 3d 9d 01 4e 3e 22 17 b4 bb c8 df 09 be
       0.043485083 0.20117803 -0.0054959217 -0.13464272
0001a0 2a a4 9a 3e a0 2b 85 3d 91 8c 91 3e 46 97 85 bd
       0.30203372 0.065024614 0.28427556 -0.06522994
0001b0 d9 ba 0a bd 1f dc 77 3e 7b cc 35 bf b6 6c 1d 3e
       -0.033869598 0.24205063 -0.7101514 0.15373501
0001c0 ac 74 82 3e f6 24 44 3e f9 c7 6a 3e 27 f2 94 be
       0.2547964 0.19154724 0.22927846 -0.29090998
0001d0 e1 1d ad be 14 15 89 3e 52 44 45 3e e2 96 51 3e
       -0.33811858 0.26773894 0.19264343 0.20467713
0001e0 9f df 66 3e 15 41 94 be 63 fa ea 3e ac 4d f1 be
       0.22546242 -0.28955904 0.45894155 -0.4712957
0001f0 ee b8 4b be 5f 33 a9 bc 31 7b 41 be 7b 18 cf be
       -0.19894764 -0.020654378 -0.1889465 -0.40448365
000200 9c 58 b2 be 33 85 d5 3e 4a a9 fc 3d 3d 67 39 be
       -0.3483323 0.41703185 0.12336977 -0.18105789
000210 03 d6 fc bb dd e2 8b be a5 c3 aa 3e 22 f0 cd 3c
       -0.007715942 -0.2732152 0.3335239 0.025138918
000220 a3 98 c9 3c 25 88 15 bd 3f cf 83 be 85 c1 24 3e
       0.024608916 -0.03650679 -0.25744054 0.16089447
000230 7e d9 3b 3e ce 05 c2 3c ff 89 0f 3e 42 9d f4 bb
       0.18344685 0.023684409 0.14017485 -0.0074650357
000240 22 45 32 3d 0c e6 35 be dc 35 9c bb 7b a5 f6 be
       0.04352296 -0.17763537 -0.0047671627 -0.48173127
000250 0f e0 66 be ac c1 cb be 91 fb bf bd 42 2a 03 3e
       -0.22546409 -0.39796197 -0.09374154 0.12809089
000260 80 03 64 3d 77 ab 4c 3e 41 a7 26 3e 9d 78 a3 3e
       0.0556674 0.19987284 0.1627474 0.31927958
000270 0b e8 7a 3e 7b 88 67 bd 85 36 c4 bb 76 78 88 3d
       0.2450258 -0.056526642 -0.0059879445 0.06663601
000280 8e c2 a2 3e 92 8f 8b 3e f4 33 00 bf 35 af 97 be
       0.31789058 0.27257973 -0.50079274 -0.2962586
000290 8d 60 91 3e 6b e7 d0 bd 06 9f bc 3e 8d 0b 51 bf
       0.28393975 -0.102003895 0.36840075 -0.8165825
0002a0 aa 5f 0e bf 90 f3 d4 be 31 68 30 bf 3b 21 c3 3e
       -0.5561472 -0.41592073 -0.68908983 0.3811129
0002b0 73 d1 07 3e 20 0d 88 3d 33 bd f3 3d e3 47 d3 be
       0.13263492 0.066431284 0.11901321 -0.41265783
0002c0 fe ea 88 be 18 e6 f6 3d 50 21 a1 3d 3d 19 1f 3f
       -0.26741785 0.12055606 0.07867682 0.62147886
0002d0 c7 2f 38 be 65 22 d9 be 03 8a 03 3c 3a 97 51 3e
       -0.17986976 -0.42409053 0.00802851 0.20467845
0002e0 20 e9 b7 be 6f f9 4d be da c2 8c 3e d0 78 1f be
       -0.35920048 -0.20114683 0.2749241 -0.1557343
0002f0 15 2b 69 be 62 af bb 3d ca b1 cc be a7 e2 a3 bd
       -0.2277034 0.09164311 -0.39979392 -0.08002215
000300 5f 77 58 3e 9f 78 cd 3d c0 ca b5 3d 5a 7a a0 be
       0.21139286 0.10032772 0.08876562 -0.31343347
000310 ad 17 3e 3e dc 1f 95 3c 59 1c dc be 9d a9 c1 3d
       0.18563719 0.018203668 -0.42990378 0.09456179
000320 ec c2 23 3f bc 7d d4 3b 04 20 85 bd 9b e7 27 3e
       0.639693 0.0064847153 -0.06500247 0.16396944
000330 e4 ef 9f be ab 1a 67 be 6e 4b ff bd e6 39 22 bc
       -0.3123771 -0.22568767 -0.12465559 -0.009901499
000340 ab a0 83 bd 56 b7 6a 3e 4a a7 5e 3d 55 67 e2 3d
       -0.06427129 0.229215 0.054358758 0.11054865
000350 e7 07 c3 3e 2a 68 73 3d aa 9d 41 bf 35 29 0c 3f
       0.38091967 0.05942551 -0.756312 0.54750377
000360 c1 5d 1d be 77 0a 5f be 6d 12 e3 be a9 67 d6 bd
       -0.15367796 -0.21781336 -0.44349995 -0.1046899
000370 25 3c 8b 3d 81 a0 17 be 0b 9f e0 be d4 70 b2 be
       0.06798581 -0.14807321 -0.4387134 -0.34851706
000380 7b 3b 18 3c 3a bd 29 be 32 aa e0 be e3 ce 4a be
       0.009291525 -0.1657609 -0.4387985 -0.19805484
000390 68 7b 3c 3e 4f ff 3f bd a8 d9 a3 3d 7c 87 a4 be
       0.18406451 -0.04687434 0.08000499 -0.32134616
0003a0 54 ba ba be 6c 83 94 3e d4 79 d9 be c7 8d ea 3b
       -0.36470282 0.29006517 -0.4247576 0.0071580145
0003b0 82 16 d6 bd 3d e5 85 3e 71 b5 fc bc 6c 6f 1e 3e
       -0.10453512 0.26151457 -0.030848237 0.15472192
0003c0 11 39 cf bd d9 bc 07 bf b8 d0 89 bd 6e 08 03 bf
       -0.101183064 -0.53022534 -0.06729263 -0.5118474
0003d0 99 7e ee bc a6 7f b3 bd 00 3d a9 be e4 5f 18 bf
       -0.0291131 -0.087645814 -0.33054352 -0.5952132
0003e0 ce c3 cd 3c 3b d7 5e be e6 77 d8 be 54 b4 b8 3e
       0.025117781 -0.21761791 -0.42278975 0.3607508
0003f0 a0 91 51 3e 91 f8 fa be d3 f4 b9 3d 4c 38 c3 bd
       0.20465708 -0.49017766 0.090799 -0.09532222

6.bias f4 [12]
000000 75 8a b0 bd 9f 9c ec be 2e 37 36 bd 83 b6 0a 3f
       -0.086201586 -0.46213242 -0.044486217 0.5418474
000010 d4 ee 48 be a1 1f a5 3e aa e7 cb bd 97 72 15 bc
       -0.19622356 0.32250693 -0.09956296 -0.009121559
000020 57 a3 76 3b 7f 24 80 3d d0 ec 1f 3e d6 cf d1 be
       0.003763398 0.06256961 0.1561768 -0.4097888
