ckpts/rendering_mlps.pth (torch, 71675 bytes, 18 tensors)

diffuse_net.0.weight f4 [32, 24]
000000 fe 3e 3f bf ce 31 c0 be 18 6d 04 bf b7 b7 2b 3e
       -0.74705493 -0.37537998 -0.51728964 0.167693
000010 2d 9b 70 3e 9d 3d 0b 3f e8 5f bc be b4 5f 06 3f
       0.23496695 0.5439089 -0.3679192 0.5248978
000020 7a ca b3 3e 9b 58 93 be 59 c1 1d 3f b5 91 62 3e
       0.35115415 -0.28778538 0.6162315 0.22125895
000030 c9 12 a1 3e 64 18 b9 be 3d 78 df 3d 6a 6e 8b be
       0.31459644 -0.3615142 0.109116055 -0.27232677
000040 83 1c 8e 3c 4b 66 a0 be 5b 45 a0 3e f1 ed 65 3e
       0.01734758 -0.31328043 0.31302914 0.22454049
000050 6c 02 1f bf f5 a4 04 3c a9 60 21 3e a8 c7 0f be
       -0.6211307 0.008095969 0.15759529 -0.14041007
000060 da 37 d2 3e 3e d0 c8 3e 13 96 5c be ab c4 73 bd
       0.41058236 0.39221376 -0.21541624 -0.05951373
000070 6c 05 6a 3e 81 2a 37 bf 52 13 35 3f 71 c9 a4 be
       0.22853631 -0.7154923 0.70732605 -0.32184938
000080 ee 0c 4d be dc 93 8b 3f 6a fd 9e be 2f 94 b0 3c
       -0.20024464 1.0904498 -0.31052715 0.021555034
000090 8a 8c 1a 3e 72 a5 45 be 0b 8e eb bd bd 2c 18 be
       0.15092674 -0.19301394 -0.11501702 -0.14860816
0000a0 ff d0 1b be ce 39 7c 3d d2 28 a0 bd 5e b8 32 3e
       -0.15216444 0.061578564 -0.07820286 0.17453143
0000b0 8a f0 92 bd a2 56 52 be 80 bf 94 bd 99 2a 09 be
       -0.071747854 -0.2054086 -0.07263088 -0.13395156
0000c0 8b fa 33 3e bc 5b d0 3e a6 3c 85 bd d7 cf 04 be
       0.17576043 0.40694988 -0.065057084 -0.1296991
0000d0 6f 4c 40 3d c5 41 31 be 71 67 52 3e b5 7f 02 be
       0.046947893 -0.17310245 0.20547272 -0.12744029
0000e0 43 ff b5 be db 53 e7 3d a6 1a 9a 3d 56 48 e7 be
       -0.35546312 0.11295291 0.07524614 -0.45172375
0000f0 e1 df 5f bd 0a 87 58 3e b8 1f 2c 3d 8a 30 33 bf
       -0.054656867 0.21145263 0.042022437 -0.6999594
000100 b2 16 87 3f 12 38 20 3e cf 5d 1d 3f 74 c0 01 3e
       1.0553801 0.15646389 0.61471266 0.12671071
000110 1f cb 13 be 4e cf c8 3e 14 a8 d9 be 4d 67 d7 3e
       -0.14432953 0.3922066 -0.42511046 0.42071
000120 b8 af c1 be d5 3d f0 3e ef 73 a6 bd e6 db ee be
       -0.37829375 0.46922174 -0.08127581 -0.46652144
000130 fb 99 bc be 00 3f 08 3f 5d e1 d9 be 5d e8 da 3e
       -0.36836228 0.5322113 -0.4255475 0.42755404
000140 00 59 af bd d7 b4 2b 3f fd 06 ed be d3 63 1b bf
       -0.08561897 0.67072815 -0.46294394 -0.60699195
000150 66 7d 0c 3e 2e ce 08 be 73 f9 8d 3d 4a 42 35 3e
       0.1371971 -0.13359901 0.06932344 0.17701069
000160 5e f8 8e be 6d d1 32 3e 65 36 8c 3e 53 2a d0 3e
       -0.27923864 0.17462702 0.2738525 0.4065729
000170 df de de 3d e1 7c bc be b0 48 c8 be 83 c9 de be
       0.10882353 -0.36814025 -0.39117956 -0.43513116
000180 09 69 b2 bd 17 e5 1d 3d d3 c9 fd 3d e0 10 96 be
       -0.0871144 0.038548555 0.123920105 -0.2930975
000190 ed 45 31 3f d8 30 bb 3e 44 7e 2d bf 91 39 6a 3e
       0.69247323 0.36560702 -0.6777079 0.22873522
0001a0 42 42 f4 3d 37 87 37 bf 0d bb 51 3f c0 80 b9 3e
       0.119267 -0.71690696 0.8192604 0.3623104
0001b0 b5 16 4c be d1 00 69 3c 75 98 08 bf c5 df 79 3e
       -0.19930537 0.014221386 -0.5335763 0.24401768
0001c0 3a f3 60 be 58 1a b2 bd 35 ae 2b 3f 24 38 15 be
       -0.21967784 -0.08696431 0.67062694 -0.14572197
0001d0 23 17 88 be 50 e7 31 3e 22 37 39 3e af 56 56 3e
       -0.26580152 0.17373395 0.18087438 0.20931505
0001e0 f3 60 49 bf 94 7c 23 bf bd 3d 4b 3d 93 fd f4 be
       -0.7866356 -0.63861966 0.049619425 -0.47849712
0001f0 ec 59 52 3f 5f dd 1e bc 0b 8a c4 bd be 91 2b 3f
       0.8216846 -0.009696334 -0.09596642 0.6701926
000200 10 96 8d 3e 61 93 06 3f 9e 89 24 3f 91 df d6 3e
       0.2765355 0.5256863 0.6427249 0.41967443
000210 e5 74 9e be dd 91 2b 3c 00 9a e8 be fd 57 ed 3e
       -0.30948558 0.010471788 -0.45429993 0.46356192
000220 3f bb 8e 3e b1 5d b7 be b9 9d e7 3e 97 b2 9b be
       0.27877232 -0.35813668 0.4523752 -0.3040969
000230 f4 c8 09 bf 0f af 88 bd 4f db ed 3e bb b5 ee 3d
       -0.53822255 -0.06674015 0.46456382 0.11655756
000240 f1 ba 65 bf a2 76 25 bf 1d 3a 7e 3f 51 1d bc bd
       -0.89738375 -0.64634144 0.99307424 -0.09185279
000250 1f 4e 39 3e aa 5b 8a 3e 2a a0 06 3f 5b 9c d2 3c
       0.18096207 0.2702306 0.5258814 0.025709322
000260 91 64 ae 3e 73 da 8b bf 9d 73 15 3f 65 b7 33 3f
       0.340611 -1.092604 0.58379537 0.7020171
000270 fb 1e 76 3d 7b e8 38 3f f6 3c 0a 3f 82 10 62 bd
       0.06008814 0.7222974 0.5399927 -0.055191524
000280 3b 32 ae 3d 90 75 cb be f5 ad 5a be d1 4b 47 bd
       0.085056745 -0.3973813 -0.21355422 -0.04865629
000290 62 1d 62 3e ad 95 be bd 00 b8 b3 3e 6e 42 06 bd
       0.22081521 -0.09305892 0.35101318 -0.032778196
0002a0 e1 51 bd 3d ea c0 08 bd 60 e2 3f 3f db 3b 09 bf
       0.09244133 -0.033387102 0.74954796 -0.5360696
0002b0 99 c4 8f 3f f0 57 be bd eb 48 8f 3e 61 c9 91 3e
       1.1231872 -0.092941165 0.2798532 0.28473952
0002c0 30 cd b9 3e dd a4 0b 3f 0f 30 e1 3d 15 60 87 3f
       0.36289358 0.54548436 0.109954946 1.0576197
0002d0 2c 48 8d be 21 c7 74 be c4 f1 11 bf 54 ec 17 be
       -0.27594125 -0.23904087 -0.5700953 -0.14836246
0002e0 0d c8 d2 bd d8 2d 35 be 78 03 fe 3e cd 40 df bd
       -0.10292063 -0.17693269 0.4961202 -0.10901032
0002f0 7e 90 0a bf 57 3e 18 3e be 4c d8 3e 37 56 1f be
       -0.5412673 0.14867531 0.4224605 -0.15560232
000300 4d 1c 1f 3f 1b 46 c6 3e fa 35 04 bf 24 5b 03 be
       0.6215256 0.3872536 -0.5164486 -0.12827736
000310 76 d5 11 bf 53 5d 07 3f 47 27 62 bd 36 c8 04 3f
       -0.5696634 0.52876776 -0.05521324 0.51868
000320 27 45 be 3d f8 fa 06 3e 94 cd 42 be 5b 6e e5 3c
       0.092905335 0.13181674 -0.19023734 0.028006723
000330 0d c4 7a be 46 5a 55 3b f1 5a eb bd 57 32 57 3c
       -0.2448885 0.0032555028 -0.11491955 0.013134561
000340 9b b5 6c bd 10 54 a7 bd 22 64 92 bd cd 75 83 3e
       -0.05779038 -0.081703305 -0.07148005 0.25675812
000350 4f e3 e4 3e 06 1f f0 be 52 cc 99 3e 02 56 90 be
       0.44704673 -0.4689867 0.30038697 -0.2819062
000360 39 eb c6 be c9 e3 44 3d 91 68 80 3e b5 92 c7 be
       -0.38851336 0.048068795 0.25079778 -0.38979116
000370 6e dc 5a 3f 3f d0 93 3d 8b 98 36 bf 4b 28 36 3e
       0.854926 0.07217454 -0.7132651 0.17788808
000380 52 20 bc 3d 28 f6 45 bf 71 33 1b 3f 04 7c 6b 3f
       0.09185852 -0.7732873 0.6062537 0.9198611
000390 b9 09 b5 bd ed 96 be be 7c 20 a7 be b0 03 59 3e
       -0.08839745 -0.37224522 -0.3264197 0.21192813
0003a0 17 34 86 3e 5a ee 9a 3d db be 03 3e 95 44 d4 bb
       0.26211616 0.07564993 0.12865774 -0.006477902
0003b0 7b e1 9c be 00 8d dd ba fd 99 10 3f 88 6c 8b 3e
       -0.30640778 -0.0016902983 0.5648497 0.2723124
0003c0 93 1a c4 3e e3 ed 5e 3c b2 83 87 be 15 1c 84 bd
       0.38301525 0.013606521 -0.26467663 -0.06450669
0003d0 12 88 4a bf d6 8d 23 3e cf 30 80 be 0b 97 4f 3e
       -0.79113877 0.15972075 -0.25037238 0.20272462
0003e0 f0 cb 4e be 60 61 6a 3e 9f a3 bb 3d 19 d0 d9 be
       -0.20194983 0.22888708 0.091620676 -0.42541578
0003f0 17 c0 f1 3e 27 3c c0 3e c7 ef ce bd e6 66 5e bd
       0.47216865 0.37545893 -0.10104328 -0.05429735

diffuse_net.0.bias f4 [32]
000000 bd 94 b7 3e e2 3c 9a bb ac 5e 3d 3d a2 8e 84 3d
       0.35855666 -0.004706965 0.046232864 0.064725175
000010 43 07 9f 3e 3c 98 94 3e c7 22 51 3e 3b 0a 97 3e
       0.31060228 0.29022396 0.20423423 0.29499993
000020 cf dc 40 3d 45 23 c3 3e 3e 04 62 bc 55 ef 89 bd
       0.04708558 0.38112846 -0.013794957 -0.06735102
000030 4c 1a 98 3e 61 f2 78 bd 1f c6 8e 3e 20 d5 fd 3d
       0.29707563 -0.060778026 0.2788553 0.12394166
000040 d4 9c 91 3d 8d 53 84 3e 60 7a 6d 3e aa ca 98 3e
       0.07109991 0.25844994 0.23191214 0.2984212
000050 ec 72 b8 3d 58 43 5b bc 18 fa e8 3c a2 ea bc 3d
       0.090062946 -0.013382755 0.028439566 0.0922444
000060 48 3f 80 bd 04 d0 b0 3e 84 04 db bc 7a 1f 5d 3e
       -0.0626207 0.34533703 -0.026735552 0.21594039
000070 25 ef 4f 3e e8 98 15 3e c2 53 c6 3e e2 3a 36 3d
       0.2030607 0.1460911 0.38735777 0.04448975

diffuse_net.1.weight f4 [3, 32]
000000 80 55 90 3e da f9 dc be 26 18 a1 bd 52 77 c2 3e
       0.2819023 -0.43159372 -0.07865934 0.3798166
000010 dd 74 3f 3e 2a 8c fe be fb 6a e4 be 31 1f 2f bf
       0.18696924 -0.49716312 -0.4461287 -0.6840697
000020 e3 0d 86 3e a0 44 94 bd 75 1a b3 3e 3d 68 b8 3e
       0.2618247 -0.07239652 0.34981123 0.36017027
000030 0e 5e 29 be d8 40 14 3f 98 60 0d bf 7d e7 bb bf
       -0.16539785 0.57911444 -0.55225515 -1.468002
000040 13 95 87 be d8 cc 4f bf 1d 1f ba be 14 3d a5 be
       -0.26480922 -0.8117194 -0.36351863 -0.3227316
000050 bc 29 e4 be 6a 54 96 3e 6d e0 24 3d f4 51 05 bf
       -0.4456309 0.29361278 0.04025309 -0.52078176
000060 ca 5e db 3d 00 17 c0 be 50 66 30 3e 4e ee ad bc
       0.10711439 -0.37517548 0.17226529 -0.021231797
000070 66 3c 38 be c0 d3 bd be 67 7f 64 be 90 5c 50 be
       -0.1799179 -0.37075615 -0.22314225 -0.2034781
000080 3c e1 b9 be 53 b9 a1 3e 39 26 19 bf a7 24 fb 3e
       -0.36304653 0.31586704 -0.5982395 0.490514
000090 e6 11 16 bf db 2d 6a 3e c5 f5 e5 be 4a 80 86 3c
       -0.5862106 0.22869055 -0.4491407 0.016418595
0000a0 ae 3a 96 3d 19 98 10 bf 69 03 c0 3d b9 62 b1 be
       0.07335411 -0.5648208 0.093756504 -0.34645632
0000b0 db d6 80 bc 20 00 ca 3e 25 42 e7 be ad a9 cb bf
       -0.015727451 0.3945322 -0.45167652 -1.5911156
0000c0 c9 f9 5d be 05 25 c9 be d4 df 04 be c9 be 52 be
       -0.21677317 -0.39286056 -0.12976009 -0.20580591
0000d0 33 c4 a7 be 08 6d 6a 3d 4a 23 51 bd 20 1b 06 bf
       -0.32766876 0.057232887 -0.051059045 -0.5238514
0000e0 14 e6 90 3e ae 04 a4 be 38 1d 14 bf be 85 6e be
       0.28300536 -0.3203482 -0.57857084 -0.23293206
0000f0 c9 8b 1e bf 65 3c ef bd f4 e5 41 be 89 c1 de 3d
       -0.61932045 -0.11681441 -0.18935376 0.10876758
000100 08 2f 3a bf f9 00 2d bd 10 89 b1 be f9 0a 97 3e
       -0.72728014 -0.042237256 -0.34674883 0.2950056
000110 f1 8a d7 bd 0c 75 17 bf 75 d4 00 bf 61 55 bb bd
       -0.10524548 -0.59162974 -0.50324184 -0.09147144
000120 59 24 37 3e 14 74 2d bd bd e6 2d 3e df 08 1e 3e
       0.1788496 -0.04234703 0.16982551 0.15433072
000130 e1 f7 d6 be 9d 0b f4 3d 1d 97 21 bf df ec 86 bf
       -0.41985992 0.119162776 -0.63121206 -1.0541037
000140 4c de c3 3e 24 05 dd 3c e1 ad 29 3d 32 b5 37 be
       0.38255537 0.02697999 0.04142559 -0.17940214
000150 2e 09 10 bf b7 3e 0c bf 28 1f d9 be 67 9f c6 be
       -0.5626401 -0.54783195 -0.42406583 -0.3879349
000160 99 ed 1f bd eb 8d a5 be 8d a0 18 bb 89 f3 a5 be
       -0.03904495 -0.32334837 -0.0023289055 -0.32412365
000170 bf cb a2 3e b4 1c c0 be 77 65 66 be 28 c6 f7 3e
       0.3179607 -0.375219 -0.22499643 0.4839337

diffuse_net.1.bias f4 [3]
000000 d2 ed 39 be 3f 10 55 bd 93 c5 90 bd
       -0.18157127 -0.052017447 -0.07068934

renv_net.0.weight f4 [64, 4]
000000 29 98 d3 3e b4 87 d9 3e 9a ae b7 be 85 2d e8 bd
       0.41327026 0.42486346 -0.35875398 -0.11336807
000010 66 51 d5 3e f8 f8 dd be 14 3b 39 be 57 31 09 be
       0.41663665 -0.4335401 -0.18088943 -0.13397728
000020 60 5a 53 3e 2f 17 b8 be cd 40 0d 3e 18 96 d1 bd
       0.20639944 -0.35955188 0.13794251 -0.10233706
000030 45 6c ea bd c5 f6 28 3b d3 bb a2 3e 23 77 b2 3e
       -0.11446432 0.0025781852 0.31783924 0.3485652
000040 c7 72 51 be b5 c8 b2 bd c0 3e 73 be 39 08 99 bd
       -0.2045394 -0.08729688 -0.23754406 -0.074722715
000050 70 0c b1 3e 84 a6 dc 3d 49 e3 47 3d b2 4e c2 bc
       0.34579802 0.10773948 0.04880074 -0.023719165
000060 fb ae 88 be d3 35 32 3c b3 27 f7 bd b5 f0 f7 3b
       -0.26696 0.0108770905 -0.12068119 0.0075665363
000070 9b 76 88 be 92 c8 0a bc a7 d1 8b 3e 23 76 81 be
       -0.2665299 -0.008470671 0.2730839 -0.25285444
000080 98 f0 e1 3e 98 80 5c be 5c 29 27 be 71 11 a9 3e
       0.4412887 -0.2153343 -0.16324371 0.3302112
000090 5c 77 c0 be 8d 39 88 3e 24 77 a9 3e a8 68 52 be
       -0.37591064 0.26606408 0.3309871 -0.20547736
0000a0 61 77 39 bd 83 30 49 3e 27 db 9d bd c4 00 5f 3e
       -0.045279864 0.19647412 -0.077078156 0.21777636
0000b0 8d 51 73 bd 09 c1 d7 3e 66 f6 03 bf 2e 02 2a be
       -0.059403945 0.42139462 -0.5154785 -0.16602394
0000c0 92 4a 0a be b2 6c 47 be fc b9 c4 be 1f 10 84 be
       -0.13505009 -0.19475058 -0.38423145 -0.2579355
0000d0 a6 58 ba 3d be 32 98 3e d9 f6 e8 be 3f 58 ca 3e
       0.090989396 0.29726213 -0.4550083 0.3952045
0000e0 fd b6 3d 3e d1 55 29 3e b6 db e2 be 9f 21 a4 bd
       0.18526836 0.16536643 -0.4430825 -0.08014225
0000f0 f8 b7 49 3e 84 a1 ae bd d6 b4 9f 3e e5 e2 54 be
       0.19699085 -0.085269004 0.31192654 -0.20789678
000100 e4 b7 f4 be 4e d6 fb 3e be 63 b0 3d cb 01 39 be
       -0.47796547 0.4918694 0.08612774 -0.1806709
000110 c2 c2 31 3e c3 3e 2c 3e 30 fa 64 3e 9b 4d 6b 3d
       0.1735945 0.16820817 0.22361064 0.057447057
000120 a8 6f 12 3e a1 91 c0 3d dc de e3 be 82 43 56 bd
       0.14300406 0.094027765 -0.44505966 -0.052310474
000130 6a c8 b4 be 70 6e 27 3f c1 c3 bf be 3e cb 23 3c
       -0.35309154 0.6540289 -0.37454036 0.009997187
000140 7b 9c 32 be ca 9a 16 3d 45 e7 de bd 76 c9 c3 be
       -0.17442505 0.036768712 -0.10883955 -0.3823964
000150 8f 22 86 3e 55 06 2e be 7b 35 b4 3e 6a 85 e8 bd
       0.2619824 -0.16994603 0.35197052 -0.11353572
000160 ec cd fe be b8 7a bf be 6e a5 3e be d0 5c 96 3d
       -0.4976648 -0.37398314 -0.18617794 0.07341921
000170 fe 55 da 3e 70 86 d6 bd c2 19 aa be b3 cd 00 be
       0.42643732 -0.10474861 -0.33222777 -0.12578468
000180 8c 5c 39 bd 4b c8 d5 3c 5f d8 c3 bc fd 09 84 bd
       -0.045254275 0.026096484 -0.023906885 -0.064472176
000190 ac 05 94 3d b6 14 e7 3e f3 fc a0 be 19 1a 33 3e
       0.07227644 0.4513299 -0.31442985 0.17490424
0001a0 91 fd e3 be 9a 97 9f 3d 88 07 55 3d ec bb 23 3e
       -0.44529393 0.077925876 0.052009135 0.15989655
0001b0 71 2a 59 3e ca fc c6 be 1d 49 97 bf 5d be 02 3e
       0.21207596 -0.38864738 -1.1819187 0.1276793
0001c0 b1 4e 30 3e 62 1b 39 bd bb 69 75 bc 43 0b 8e bc
       0.17217518 -0.04519213 -0.014978821 -0.017339354
0001d0 86 bd 13 bf b0 42 cc be de a4 3b be f5 bc 7c 3e
       -0.57711065 -0.3989463 -0.1832461 0.24681456
0001e0 4a 0a a4 be cb 57 d9 3c ab 83 93 3e eb 62 5e 3e
       -0.320391 0.02653112 0.28811392 0.21717422
0001f0 9f a5 6f be ed 68 81 3e f3 77 a1 bd 8a 9b 6d 3e
       -0.23403023 0.25275365 -0.078842066 0.23203865
000200 4d b8 28 be 1a 52 e7 bc ca 0f d3 bd 9c b6 ac 3e
       -0.16476555 -0.028237391 -0.10305746 0.3373307
000210 18 f2 08 3e 73 b2 68 be 96 cc 18 bf 30 f9 46 3e
       0.13373601 -0.22724323 -0.59687173 0.19430995
000220 36 7c 3e 3e 8f 61 94 3e d5 ee b2 3d 75 ef 53 bd
       0.1860207 0.2898068 0.0873696 -0.051742036
000230 e6 1b c1 ba 78 1e ac 3e d7 a2 7d 3e 35 9c a2 be
       -0.0014733046 0.33616996 0.2476915 -0.31759802
000240 b5 f6 70 3e f8 70 64 3d 4d da 31 be 41 2a 2a 3d
       0.23531611 0.055771798 -0.17368431 0.041544203
000250 f5 1e 5e 3c 04 fd 94 bd 4d 6b 93 bd cf 08 4c 3d
       0.013557185 -0.072748214 -0.071982004 0.049813088
000260 c2 88 93 be 73 47 df bd ff 9d 4f 3e a4 b3 65 3d
       -0.28815275 -0.109023 0.20275114 0.05607952
000270 d6 52 2d be 28 6b b0 be f5 70 cb 3e 95 19 8a 3e
       -0.1692613 -0.34456754 0.39734617 0.26972643
000280 35 e6 87 3e 1b 33 4f bc e4 d8 09 bf 32 9d 8f 3d
       0.26542822 -0.012646462 -0.53846574 0.070124045
000290 ec b4 b6 3e 8a d2 e4 3d 50 55 f3 be 14 82 7c bd
       0.35684907 0.1117297 -0.47526026 -0.06164749
0002a0 14 09 9d bd 7f 0f 01 3f 72 e7 01 bf f1 33 d3 3c
       -0.07667747 0.5041427 -0.5074378 0.025781604
0002b0 a3 9b 5c 3d 93 d6 94 3e b6 0e 41 be a6 a7 7f be
       0.053859364 0.29069957 -0.18853268 -0.24966297
0002c0 cc e9 37 be 86 37 18 3f 5e 21 fa be fc ed 66 3e
       -0.1796028 0.5945972 -0.48853582 0.22551721
0002d0 a7 3e 3b be 64 b4 6d bd 90 65 85 3e f7 96 ac be
       -0.18285619 -0.058033362 0.2605405 -0.33708927
0002e0 1c be c2 be 25 a4 ae be f5 93 e0 3e a3 bf 9f bd
       -0.38035667 -0.34109607 0.43862882 -0.07800224
0002f0 1c 4d 1d bf 2e f6 8b be c1 74 97 3e 4b dd f3 3d
       -0.61445785 -0.27336258 0.29581264 0.11907443
000300 46 8d 85 bc 05 9b 9f be 4e f6 92 bd c9 b3 c9 bc
       -0.016302716 -0.31172958 -0.07175885 -0.024621861
000310 a9 7f 08 bd 03 23 9c be 61 9e ea 3e c8 6f 97 be
       -0.03332487 -0.30495462 0.4582396 -0.2957747
000320 61 b2 d1 3e 24 60 6e be af 84 f0 bd aa 38 62 be
       0.40956405 -0.23278862 -0.117440574 -0.22091928
000330 47 4e e8 be 36 a2 72 bf cc 40 b4 be 64 3b b4 3d
       -0.4537222 -0.94778764 -0.35205686 0.0880039
000340 1f 4b d2 3e 3e 5b 34 3c f3 bf 02 be ae 01 22 be
       0.41072938 0.011008082 -0.12768535 -0.15820953
000350 b9 d3 8f 3e e3 af 34 be 49 b5 1d be e7 df 83 3e
       0.2809122 -0.1764522 -0.15401186 0.2575676
000360 9b a7 21 be 49 4f e5 be c7 a2 7c bf 2a 51 40 3e
       -0.15786593 -0.44787052 -0.9868588 0.18780962
000370 06 14 bd be 08 e9 03 3f f6 94 29 be d6 a6 7c 3e
       -0.3692934 0.5152745 -0.1656073 0.24673018
000380 67 d0 4a be ea 62 a1 3e b1 1f e1 bd 27 2b 92 bc
       -0.19806062 0.31520778 -0.10992373 -0.017842842
000390 f5 18 95 be 71 7f 8b 3d 9a 20 a7 be ed 8e c2 be
       -0.29120603 0.06811417 -0.3264206 -0.3799967
0003a0 6d 63 2a be de 34 88 be f4 50 ae 3e 56 5a ae 3e
       -0.1663949 -0.26602834 0.34046137 0.34053296
0003b0 3c 2d c6 be 6f 63 f8 3d 01 d1 ed 3d bf 83 12 bd
       -0.38706386 0.121283405 0.1161213 -0.035770174
0003c0 41 f1 dd be c9 3a 16 3f a6 01 28 be a1 0c 04 bd
       -0.43348125 0.5868345 -0.16406879 -0.032238606
0003d0 1a d8 9e be e3 99 7d 3c 34 09 88 bd 6b e6 d8 bd
       -0.31024247 0.015478584 -0.0664238 -0.10590824
0003e0 d4 e3 45 be c4 d2 ba 3e 26 5f 24 3e a5 b7 3c 3e
       -0.19325191 0.36488926 0.16051921 0.1842943
0003f0 69 f2 af bc 3e c5 b1 3c 44 c1 bb 3e b9 5d 87 be
       -0.021477895 0.021700498 0.36670887 -0.26438692

renv_net.0.bias f4 [64]
000000 ee 5c d2 bd 5a 29 a4 3d 14 ee 29 3d 90 0a 4f bd
       -0.10271631 0.080157 0.041486815 -0.050547183
000010 00 00 00 00 05 f3 a5 bc 60 92 4a bb 06 82 a1 3d
       0.0 -0.020257482 -0.003091 0.07886128
000020 e0 fe 02 3d 2b 75 f8 bd 60 a5 63 bd aa fe 6a 3d
       0.03198135 -0.12131723 -0.055577636 0.057371773
000030 00 00 00 00 6c 2a 24 3d 08 4c 39 3d 97 14 e8 bd
       0.0 0.04007952 0.045238525 -0.11332052
000040 f0 4b 7a 3d 16 89 e0 bd ba c5 bb 3c 82 05 4f 3d
       0.061107576 -0.10963647 0.022921432 0.050542362
000050 00 00 00 00 0a 1e 51 bc 52 93 ad 3c 26 a0 8d 3d
       0.0 -0.0127635095 0.021188412 0.069153115
000060 28 33 45 bc 6f 47 bd bd c3 ae f7 bb 71 f5 f3 3c
       -0.012036122 -0.092421405 -0.007558675 0.029780122
000070 f0 03 e6 bc 44 6b 0e bd 6e 49 b8 bd 08 ee c8 bc
       -0.02807805 -0.034770265 -0.089983806 -0.024527565
000080 b3 a6 4e bd e4 dc c4 3d a0 ba 78 bd 37 f1 08 be
       -0.050451946 0.09612444 -0.060724854 -0.13373266
000090 60 4e aa bd 6a 2f e2 bc 1f 01 db 3b 4b 56 03 bd
       -0.0831573 -0.0276105 0.0066834833 -0.032064717
0000a0 6e 1e 05 bb ca da 44 3d 3c 8f b9 b8 4a ea af bc
       -0.0020312327 0.048060216 -8.848167e-05 -0.021474022
0000b0 dc fa 8b bc 67 f9 27 bb d2 99 cd 3c 21 95 6e 3d
       -0.017087393 -0.0025630833 0.025097761 0.05824769
0000c0 00 00 00 00 0d 5b 9e 3c 8c 91 c7 3d 3e f6 b3 3c
       0.0 0.019330526 0.09744558 0.021968003
0000d0 34 75 a0 ba 60 9d 0e 3d 2d cf 11 3d eb 26 ee bb
       -0.001224196 0.034818053 0.03559797 -0.007267823
0000e0 9d cf 62 3c 27 0f 58 bb af 3c 79 3d c9 9c d9 3d
       0.013843444 -0.0032968016 0.060848888 0.106256075
0000f0 0d 69 59 3d 00 00 00 00 a3 af 16 be 6b 77 3e be
       0.0530787 0.0 -0.14715438 -0.18600242

renv_net.1.weight f4 [64, 64]
000000 3c 16 dc bd c1 ba 74 3e 9c c2 dc be ba ff 21 3e
       -0.10746428 0.23899366 -0.43117225 0.15820208
000010 e2 80 0d 3e 15 fb 3b bd 5e 6d 0e 3d 2a a9 5f 3e
       0.13818696 -0.045893747 0.03477227 0.21841875
000020 8f 74 d4 3b b9 45 44 be 0e c2 83 3e 54 19 f8 3b
       0.0064836214 -0.19167222 0.2573399 0.0075713787
000030 f5 f0 85 3e 1b 89 07 3c 70 f8 99 3c f2 aa 86 bd
       0.26160398 0.008272435 0.018795222 -0.06575574
000040 3b 98 92 3e cf 01 55 bd 07 db db be 68 28 a9 3e
       0.28631768 -0.052003678 -0.42940542 0.3303864
000050 85 5a 7d 3e d6 80 13 be d0 50 11 3e 5b 3b 29 bd
       0.24741562 -0.14404616 0.14190984 -0.04131637
000060 a2 f6 29 bd fe 6b bb bc 51 7f 64 bd 84 68 97 3e
       -0.041494973 -0.022878643 -0.05578548 0.29571927
000070 a1 a8 92 be 2c fa d3 bd e1 bc 33 be 42 2c 90 3e
       -0.2864428 -0.10350451 -0.1755252 0.28158766
000080 9f 2e 86 3e 04 67 be bd 4d 75 5c 3e e7 5c 62 be
       0.26207444 -0.092969924 0.21529122 -0.22105752
000090 c7 65 28 bf b7 7c 4b 3e 63 8b 22 3e b8 3b b1 3d
       -0.657803 0.19871794 0.15873484 0.086539686
0000a0 d5 e8 9c be fa fa 19 be 80 5c 48 be 14 1e a4 be
       -0.30646387 -0.15037146 -0.19566536 -0.32054198
0000b0 20 d8 b7 3e 30 aa d2 be 2f bd de 3d 44 f8 f1 3d
       0.35907078 -0.41145468 0.10875928 0.11814931
0000c0 cb 43 44 3e 3c 9b 25 3e 35 48 72 3e 01 05 31 be
       0.19166486 0.16172498 0.23660357 -0.17287065
0000d0 c4 55 8e be 27 2c 96 3d ed 5e 6a 3e 42 4d a6 3e
       -0.2779981 0.0733264 0.22887774 0.32480818
0000e0 8e 13 50 3e 04 53 cf 3b 2e a4 98 bd e2 44 8b be
       0.2031996 0.006327035 -0.0745319 -0.2720099
0000f0 7a 2c ae 3c cc 14 e8 3d 39 57 3a 3e 4f 81 20 be
       0.021261442 0.11332092 0.18197335 -0.15674327
000100 37 04 e3 bd 3f 3b 8c bd 91 0b 53 3e c2 9e c6 ba
       -0.11084788 -0.06847238 0.20609881 -0.0015153515
000110 2d fc c7 3d bf f0 5c be 17 51 c1 bd 5c 67 32 bd
       0.097648956 -0.21576212 -0.09439295 -0.043555602
000120 14 81 64 3d e7 c5 8f 3e 39 f4 b8 3c ea db c5 bd
       0.05578716 0.28080675 0.022577392 -0.09661086
000130 2b 5c 6b bd dd bf 9c be af bb 5d be 4c 0d ae bd
       -0.057460945 -0.3061513 -0.21653627 -0.0849863
000140 35 6a 0b 3e cb e3 97 be 7b f2 c6 bd 9c 71 81 3e
       0.13614734 -0.2966598 -0.09714218 0.2528199
000150 d1 7a 8a 3e 55 d8 cd bd 7d e6 68 3e bd d8 20 be
       0.27046826 -0.10051028 0.22744174 -0.15707679
000160 c1 6a 7f 3e 39 dc 29 be fe 9a 8b be d0 12 8c be
       0.24943067 -0.16587915 -0.27266687 -0.27358103
000170 ae 1f a7 bd 16 c0 3b be a1 df 34 3e 25 4a 94 be
       -0.08160339 -0.18334994 0.17663433 -0.28962818
000180 06 44 81 be 0b 93 8e be 4c 72 8b be dd 45 4a be
       -0.2524721 -0.2784656 -0.2723564 -0.19753213
000190 16 92 06 bc 23 87 2c bd 42 37 6f 3d c3 4f 4b 3e
       -0.008213541 -0.042121064 0.058402307 0.19854645
0001a0 b9 5a 94 be 3a aa 3f 3e d0 fb 71 3e bb 6e 39 3d
       -0.28975466 0.1871728 0.23631215 0.045271616
0001b0 63 c0 51 be 4f 14 7a 3e ea 94 7b be 43 e1 58 3e
       -0.20483546 0.2442181 -0.24568525 0.2117968
0001c0 d4 ad 95 3c 07 e5 6b be cb 16 2d 3e 6f 27 49 bd
       0.018271364 -0.23036586 0.16903226 -0.049109872
0001d0 ae 2b 83 3e db bd 8b be 92 f5 73 3d 38 ec 2d 3e
       0.25619262 -0.27293286 0.059560366 0.16984642
0001e0 53 aa 76 be cf 13 97 3e 03 d4 36 bc f1 2e 3f be
       -0.24088411 0.295073 -0.011158946 -0.1867025
0001f0 34 0f 8b 3d 0b 85 ed 3d 0a 1b 38 3e f2 f2 64 3d
       0.06790009 0.115976416 0.17979065 0.055895753
000200 20 04 bc bd f0 e2 04 3f f3 6b b2 3e f1 57 8d 3e
       -0.09180474 0.5190878 0.34847984 0.27606156
000210 7d 1d 2b 3e 3f 1a cc bd fa 70 49 bd 2e 53 4f 3d
       0.16710468 -0.099659435 -0.04918001 0.050616436
000220 80 f5 f0 bd 4f e7 f1 be b0 58 d4 3a 75 67 a9 bc
       -0.117655754 -0.47246787 0.0016200747 -0.020679215
000230 dd e1 7d 3e b9 21 74 be d5 9f 53 bd cb 18 60 3e
       0.24793191 -0.23840989 -0.0516661 0.21884458
000240 a1 16 1a be c0 0e 79 3d a3 0a 35 be 43 03 70 bf
       -0.15047695 0.060805082 -0.17679839 -0.93754977
000250 ec 16 3e 3e 2f 66 31 3e 0c b9 09 3e 20 9a 9b 3d
       0.18563432 0.17324136 0.13449496 0.075977564
000260 fe 49 8f be 0a 6e ba be 99 78 86 be 74 8d b3 3d
       -0.2798614 -0.36412078 -0.26263884 0.087672144
000270 0d 56 42 3e 77 cf 5a 3e 20 0a 49 be a5 46 83 3e
       0.18978138 0.21368204 -0.19632769 0.25639835
000280 57 8d 0a 3d a1 fa fe 3d e1 d7 13 be 95 e7 5a 3e
       0.0338262 0.124501474 -0.1443782 0.21377404
000290 dc 44 6a 3d 6e ad 8a 3d 4c 9b 9b bc 03 b8 7f 3e
       0.057194576 0.0677136 -0.01899495 0.24972539
0002a0 10 04 2e 3d d4 62 6a 3e 49 2f a3 be 92 ae b6 be
       0.042484343 0.22889262 -0.31872013 -0.35680062
0002b0 fd 64 92 bd 39 77 c0 3d ed 3f 82 3e af 5f 43 be
       -0.07148168 0.0939774 0.25439397 -0.19079469
0002c0 db 41 bd 3d f0 cb 5d bd 07 22 aa 3d 22 77 44 be
       0.092410766 -0.054149568 0.083072715 -0.1918607
0002d0 9a 52 84 bc b5 4c ee 3d 49 3a 90 3c f3 cc a5 be
       -0.016152669 0.116357245 0.017605918 -0.32382926
0002e0 19 cc 6b be 78 b4 af 3d 3f 49 b9 3e e4 d6 dd 3d
       -0.23027076 0.085793436 0.36188695 0.10832003
0002f0 8e e2 34 bf 32 7a 25 3e f2 12 5e be 09 f1 57 bd
       -0.70658195 0.16159895 -0.21686915 -0.052720103
000300 44 65 27 be 56 22 bd 3d 5f cc 03 3f 25 42 67 3e
       -0.16347224 0.09235065 0.5148372 0.22583826
000310 83 08 68 3e fd 6d 29 3e a9 fc 3e 3d a4 a4 3f 3e
       0.22659497 0.16545863 0.046627674 0.18715149
000320 79 28 64 3e 9d 08 21 bf 47 ea 79 be 8c bd 8e be
       0.22281064 -0.6290377 -0.24405776 -0.27878988
000330 c4 d6 88 be 8c 16 29 3e 7c 9b 83 be ee a1 71 3d
       -0.26726353 0.16512507 -0.25704563 0.05899232
000340 61 b8 7d be 12 1a 26 be 4a c7 42 3d 1d ba 47 bf
       -0.24777366 -0.16220883 0.047553338 -0.7801836
000350 ec 0c 4c be f2 45 60 3e 81 e0 85 3e b1 70 c6 3e
       -0.19926804 0.21901682 0.26147845 0.38757852
000360 36 63 fe 3d 9b a7 8c be 3e 5a 21 be d2 e1 a6 3c
       0.12421267 -0.27471623 -0.15757081 0.020371351
000370 b8 be 34 3e b2 92 8d 3e de 8f a4 bd 42 f3 06 bc
       0.17650878 0.27650982 -0.08035253 -0.008236708
000380 29 53 b3 be dd 93 0c 3e 17 cd 40 be 21 6a e0 3d
       -0.35024384 0.1372828 -0.18828236 0.109577425
000390 29 e5 e7 3d eb 6d db 3d fe 5a 2f bc 8a 46 80 3e
       0.11323006 0.107143246 -0.010702847 0.25053817
0003a0 51 0b 82 bd 72 10 f7 bd c4 e3 6a bf 3e eb 81 be
       -0.06349815 -0.120636836 -0.9175379 -0.25374788
0003b0 20 ee 1a bf 39 aa dc bd 74 50 cc be ba c4 89 3d
       -0.605196 -0.10774655 -0.3990513 0.06726976
0003c0 4c 70 8f 3e 31 c3 61 bd e1 85 55 3e 71 ac 6e 3e
       0.28015363 -0.05511779 0.20851852 0.23307969
0003d0 9d b8 ad 3d 7d f9 94 3c 8f eb 1d 3e 49 e4 07 be
       0.08482478 0.018185372 0.1542189 -0.13270678
0003e0 0c e3 20 bf af 4e 0f be 2a 26 40 3e 13 80 77 be
       -0.62846446 -0.13994859 0.18764558 -0.2416995
0003f0 69 0a f4 be 27 ec 94 be fc f2 5a be 60 7e 8f bd
       -0.47664192 -0.2908642 -0.21381754 -0.07006526

renv_net.1.bias f4 [64]
000000 7e ce 9e bd e2 6e d1 bc 55 d5 19 3d 0a 04 df 3c
       -0.07754229 -0.025565568 0.037556965 0.027223606
000010 53 7a 3e be 64 15 78 bd 19 08 59 bb 4f ee 3a 3d
       -0.1860135 -0.060567275 -0.00331164 0.045637425
000020 7c 0a 85 bc 87 c9 33 bd 70 e5 55 ba b8 8c ca 3c
       -0.01624035 -0.043893363 -0.0008159494 0.024725303
000030 e5 ec c3 bc 57 13 96 bb a5 7b be bc 7c 96 9b 3d
       -0.023916671 -0.004579942 -0.023252318 0.07597062
000040 b9 f0 3b bc 90 38 59 3d 4a 9b 58 bd 60 27 23 bd
       -0.011470967 0.053032458 -0.05288247 -0.039832473
000050 71 d9 3d bb 2f b9 7a 3d b2 d4 eb bc f9 69 fc bc
       -0.0028968717 0.06121176 -0.028787944 -0.03081225
000060 00 00 00 00 d7 ec 97 bd 60 c5 c8 3b 74 39 6f bd
       0.0 -0.074182205 0.0061270446 -0.0584044
000070 58 8f bc 3b b7 3a 96 3c 79 4f fb bc 33 f9 02 be
       0.0057543926 0.018338544 -0.030677544 -0.12790374
000080 09 56 c3 bc 8f 4a 1c bd af 3d 1a bd 66 40 ff 3c
       -0.023844736 -0.038157042 -0.037656482 0.031158637
000090 53 40 86 3c 43 ab 4f 3d de 57 e7 3c 5d cc a1 3b
       0.016388094 0.050700437 0.02824014 0.004937692
0000a0 32 68 dc bc 8e 57 a5 3d a1 4a f2 3d 6a eb e2 bd
       -0.026905153 0.0807334 0.118306406 -0.11080058
0000b0 5c 52 36 bd e0 59 38 3d 5f 69 84 bd fa 64 c1 3d
       -0.044512138 0.045007586 -0.064654104 0.09443088
0000c0 1a d4 e6 bc 60 b9 9f 3c 26 ac bf bd 0d 07 f3 3c
       -0.02817731 0.019497573 -0.093590066 0.029666448
0000d0 03 75 3d 3c fe 1c 94 3d 57 4b 82 bd f1 15 27 bd
       0.011563542 0.07232092 -0.06362026 -0.04079241
0000e0 c5 81 57 bc 76 af e6 bc df 89 a8 3c 82 e6 64 bc
       -0.013153498 -0.028159838 0.020573555 -0.013970973
0000f0 db b0 fc 3c 65 d4 a7 3d aa 75 00 bc 77 57 be bc
       0.03084605 0.08194808 -0.007840553 -0.023235066

renv_net.2.weight f4 [64, 64]
000000 35 96 2e be 49 5d cd bd 07 b2 11 3d 1f c4 fb 3d
       -0.17049487 -0.10027558 0.03557017 0.122932665
000010 67 1b 3b bd 78 b2 0e 3d c5 10 24 be 2c db 40 be
       -0.04568043 0.03483817 -0.16022022 -0.18833607
000020 45 ce 56 be 88 62 d1 bd ad 95 7d be e5 bf a5 3d
       -0.20977123 -0.102238715 -0.24764128 0.080932416
000030 52 3e dc bd 47 d1 52 3e e1 95 7e bd f8 cf 3c be
       -0.10754074 0.20587645 -0.062154654 -0.18438709
000040 43 1c ba bb 9c 00 84 be a2 d8 00 3e 58 0c 45 be
       -0.0056796386 -0.25781715 0.12582639 -0.1924299
000050 28 aa 5e bd cc 98 39 3e ca fd 2f 3e e5 d1 8f bc
       -0.054361492 0.18124694 0.17186657 -0.01755614
000060 fd bb 99 3e bc 1a d3 bd de 5a 64 be 3f 2a 39 3e
       0.30026236 -0.103078336 -0.22300288 0.18082522
000070 c7 e2 9b 3c 5a 72 4f be 01 04 bc 3e dc f3 6a bc
       0.019029034 -0.20258465 0.36721805 -0.014340367
000080 c7 4c 8a 3e b0 7c 28 3e bd 6c 2e be 42 6c c5 3d
       0.270117 0.16453815 -0.17033668 0.09639789
000090 9d d5 5f be 21 79 bd 3d 5a 0a a7 bb 5d 12 5c be
       -0.21858831 0.09251619 -0.0050976695 -0.2149138
0000a0 c8 f0 05 3e a4 71 b1 be e9 79 91 3e 0a 25 0a 3e
       0.13080132 -0.34657013 0.28413323 0.13490692
0000b0 e5 52 80 be 44 ce 6f 3c a0 fb 3c be 1d 91 96 be
       -0.25063244 0.01463658 -0.18455362 -0.29407588
0000c0 0a 22 ac bd 3e 5c 1d be e3 4e 59 be b7 85 48 bd
       -0.0840493 -0.15367219 -0.21221499 -0.048955645
0000d0 15 b9 62 be aa 5f 2a 3e 0d 93 13 3d 5a 43 8d be
       -0.22140916 0.16638055 0.03602891 -0.27590448
0000e0 6f 51 d4 3d e1 03 78 3e a0 c1 11 3e d8 68 a6 3e
       0.10367095 0.2422023 0.14234018 0.32501864
0000f0 37 bc 8b be 07 3b 02 3e a8 da ad 3e 76 af b3 bd
       -0.27292034 0.1271783 0.33955884 -0.08773701
000100 9b ba 83 3c 05 22 34 be 85 6f 9a be e0 8e 43 be
       0.016080191 -0.17591102 -0.30163208 -0.19097471
000110 7a 48 47 3e 12 d0 0b be f5 7e 80 3e 0c 0e 8a 3e
       0.19461241 -0.13653591 0.2509686 0.26963842
000120 56 c1 0e be 1d d9 4c bc 8b 4f 5f 3e 6f 06 4d 3e
       -0.1394094 -0.012502936 0.21807687 0.20021985
000130 9d d0 9a 3d 1d f8 2c be d5 15 51 3e b7 37 d1 3d
       0.07559321 -0.16891523 0.20418485 0.10215705
000140 e1 6e de 3d ed 78 12 3c 15 2b 6b 3e bc 43 60 be
       0.10860992 0.008939964 0.22965653 -0.21900839
000150 18 e4 8e be 6d d2 34 3d c0 f7 40 be 67 5f 98 3e
       -0.27908397 0.04414599 -0.18844509 0.29760286
000160 cb 61 22 bd da 87 a0 be 10 d8 c1 3c 4e 1f b8 bc
       -0.039644044 -0.31353647 0.023662597 -0.022475865
000170 5b 1d 92 bd 39 6b 3e bb 0f e7 79 be 0b cb a5 be
       -0.07134505 -0.002905561 -0.24404548 -0.32381472
000180 38 5d 9b be e1 14 26 3c 68 6e 11 be d4 11 30 bd
       -0.30344558 0.010136814 -0.14202273 -0.042985752
000190 35 58 81 be 43 26 01 3e a6 39 5e be 06 93 b6 bd
       -0.2526261 0.12612252 -0.21701679 -0.08914761
0001a0 07 29 c1 bd a4 70 86 be 56 06 5e bd e2 ae 7c bc
       -0.094316535 -0.26257813 -0.05420526 -0.015422555
0001b0 8d 6f 25 bb 5d 94 7e be 18 b5 df bb 02 6e 37 3d
       -0.0025243491 -0.24861284 -0.006827008 0.044782646
0001c0 66 e0 9a 3e da c1 58 3e 2f 94 bc bd 97 99 67 be
       0.30249327 0.21167699 -0.09207951 -0.22617184
0001d0 5b 87 c8 3d e2 e0 f8 bc a6 e6 97 be 92 86 13 be
       0.09791442 -0.03038067 -0.29668158 -0.14406803
0001e0 e7 25 cd 3c 40 ad 0f 3e 6e a9 27 3e 1b 6d 3b 3e
       0.025042487 0.14030933 0.16373226 0.18303339
0001f0 22 f9 05 3e 0f 25 bd 3a 61 4a 1d be 09 4b 58 3e
       0.13083318 0.00144306 -0.15360405 0.21122374
000200 19 7d d6 be 79 9d 94 be f6 da 29 3b a4 b1 ae be
       -0.41892317 -0.29026392 0.0025917864 -0.34119904
000210 47 f6 c2 3c 7a 34 3a 3e 4a b4 10 3e 16 25 a8 bc
       0.023799075 0.1818408 0.14131275 -0.020525496
000220 4e 27 7a 3d f8 db 15 3f 82 1b 89 be aa 11 01 3e
       0.06107264 0.5853877 -0.267788 0.12604395
000230 77 dc 11 3e d6 c9 3a 3e 04 b6 ab bd b9 5b 2e 3e
       0.14244257 0.18241057 -0.08384326 0.17027177
000240 fd bc dd 3e 5b f1 08 3e 74 9a c3 be 33 dd e2 3b
       0.4330825 0.1337332 -0.38203776 0.0069233417
000250 3d 48 c4 bd 17 09 72 be 1e 32 25 3e c4 18 c7 be
       -0.09584091 -0.2363628 0.161324 -0.38886082
000260 95 7d 22 be 8e e1 94 be 41 5b 88 bd 95 9d 64 bc
       -0.15868218 -0.29078335 -0.0665803 -0.013953586
000270 31 82 67 be a5 05 8f 3e ab 81 18 3f cf d9 ab 3d
       -0.22608258 0.27933994 0.5957286 0.08391153
000280 6b 78 a4 3d ef 27 bc 3e 82 c6 85 be 83 51 32 be
       0.080307804 0.36749217 -0.26128012 -0.17413907
000290 2f bd 22 bd 36 3b a5 be 94 0c 0e 3e 4f 22 96 be
       -0.0397312 -0.32271737 0.13871986 -0.2932305
0002a0 20 ca 96 3e d0 09 87 be 22 56 6d be 58 2b 74 be
       0.29451084 -0.26374674 -0.23177388 -0.2384466
0002b0 81 c2 85 be 23 76 89 be c0 7d a0 3e ac 1c ef bd
       -0.26124957 -0.26847944 0.3134594 -0.116753906
0002c0 1a d4 15 be 0f 73 be 3d b9 00 d4 3d d8 86 e4 bd
       -0.14631692 0.092992894 0.103517 -0.11158532
0002d0 39 0a 9f 3e b4 96 d8 be 14 2f bd 3e 82 ae 8d be
       0.31062487 -0.42302477 0.3694998 -0.276722
0002e0 2d 18 f5 3c a0 59 52 3d 99 e9 ed be da 2f 7e 3c
       0.029918754 0.051355004 -0.46467283 0.015514338
0002f0 2c 09 0d be 29 5c c5 be 17 63 b6 bd a7 d9 c4 bc
       -0.1377303 -0.38546875 -0.08905619 -0.024029566
000300 8f e6 76 3e 2d cf 20 3e 59 99 9b 3e e6 25 e0 3e
       0.24111389 0.15704031 0.30390432 0.43778914
000310 5d 23 ca be 9a 26 03 be a3 85 68 be 0f 4c cc 3c
       -0.39480105 -0.12807694 -0.22707228 0.024938611
000320 0c f9 36 3e 69 bf a6 be 56 17 96 3d 20 59 0e 3d
       0.17868441 -0.3256791 0.0732867 0.034752965
000330 02 36 e0 3c b0 73 57 be 0d 85 18 3e 26 25 60 3c
       0.027369503 -0.21040225 0.14894505 0.013680732
000340 2f a1 0b 3e ee 1c fb be 5c 62 1c bf 20 6b 14 3e
       0.13635705 -0.4904551 -0.61087584 0.1449399
000350 a5 83 18 3e b8 81 9b 3e 42 d3 98 3e e6 f9 4c bd
       0.14893968 0.30372405 0.29848677 -0.05004301
000360 c3 ca 56 3b 55 12 a9 3b 61 3b 6f 3d 75 e2 df bd
       0.0032774664 0.005159656 0.058406238 -0.10931865
000370 42 d3 34 3e 48 20 af 3e a6 32 c9 3e 47 d9 34 3e
       0.17658713 0.34204316 0.39296454 0.1766101
000380 3d 0a d0 bd c4 4c 86 be e8 2b 74 be 50 b4 73 3e
       -0.10158203 -0.26230443 -0.23844874 0.23799253
000390 3b fc d1 3e 23 26 d0 3d 48 59 05 3f 85 67 f7 bd
       0.4101275 0.10163524 0.5208936 -0.12080292
0003a0 dd 7f 11 be c3 13 6c bd ab 93 a4 be f0 cb 37 3e
       -0.14208932 -0.057636034 -0.32143912 0.1794889
0003b0 a5 ff b1 3d 9a 42 45 3e 2d e8 06 bf 95 8b 90 3d
       0.086913384 0.19263688 -0.5269802 0.07057873
0003c0 c2 5b aa 3d b3 eb ca bd 5d ba 55 3d c5 0d 63 be
       0.08318283 -0.09908237 0.052179683 -0.22173221
0003d0 5d 18 b7 3d f4 8d 87 bd 83 c4 3b be be 60 90 3d
       0.08940194 -0.06618872 -0.18336682 0.07049702
0003e0 5c 49 93 be 65 84 0b be 04 2d 35 3e 94 44 3d be
       -0.28766906 -0.13624723 0.17692953 -0.18483192
0003f0 f0 fe a1 bd 87 86 54 be 35 7b 23 be 49 51 19 be
       -0.079099536 -0.20754443 -0.15964969 -0.14972414

renv_net.2.bias f4 [64]
000000 18 e3 89 3c 2e 7f b8 bc a3 33 22 bd f2 d1 bb 3a
       0.01683192 -0.022521582 -0.039600026 0.0014329536
000010 f2 1a ed ba bb b5 2c 3d 68 70 ae bd 05 01 31 bd
       -0.0018089695 0.0421655 -0.085175335 -0.043213863
000020 ff 11 29 bc 1b 3a b2 3c 45 1e 64 bd e4 01 19 bd
       -0.010319232 0.021756222 -0.05569293 -0.03735532
000030 65 94 74 bd 79 13 4f 3c c3 ba 62 bc 81 fa a0 3d
       -0.059711833 0.01263892 -0.013838473 0.0786028
000040 15 60 c3 3b f5 7f 90 3c d0 ce e9 bc fc 03 0f be
       0.0059623816 0.01763914 -0.028540999 -0.13966364
000050 a7 b7 44 be ea 98 e1 3c f0 b4 e6 bd 44 f5 c7 bb
       -0.19210683 0.027538735 -0.1126498 -0.006102236
000060 04 76 bd 3c bc 8c 40 bc 41 ef cf 3c 01 c1 cf bb
       0.023127563 -0.011752304 0.02538264 -0.0063401465
000070 fa 88 1c 3d 49 3f 84 3c ee a5 a4 bc 88 78 4a bd
       0.03821657 0.016143458 -0.020098653 -0.049431354
000080 97 c7 53 bd 67 39 0b be cb 86 1d 3d bb 37 86 3c
       -0.051704016 -0.13596116 0.038458627 0.016383996
000090 7b 6a fb bd 62 22 4a 3c 4c 53 3c bc aa 45 ff bb
       -0.12276169 0.012337299 -0.011494469 -0.007790287
0000a0 0c 4f f5 3c fc 24 28 be 32 bc 06 bd 60 92 d8 3c
       0.029944919 -0.16420358 -0.03289432 0.026436985
0000b0 f4 fb ef bc 3f b0 d3 bd 17 83 53 bd c4 3c da bc
       -0.029294945 -0.10336351 -0.05163869 -0.026640303
0000c0 40 f3 82 bd 0c 75 90 bd 8b 5d 9b bc 95 3f 54 bd
       -0.063940525 -0.07053575 -0.018965503 -0.05181845
0000d0 95 48 95 bd 78 74 44 bd 61 51 72 3c ea 08 8c bc
       -0.072892345 -0.047962636 0.01478991 -0.017094094
0000e0 3e d6 09 bc 4b ae 07 3d ee 75 a4 bd e4 9f 04 bd
       -0.008412896 0.033125203 -0.08030306 -0.032379046
0000f0 db 65 c6 bd 57 8a ea bc 52 b2 86 bd 46 b0 bd 3c
       -0.09687396 -0.028630419 -0.06576981 0.023155343

renv_net.3.weight f4 [12, 64]
000000 99 71 34 be a0 71 37 3e 54 ed 4f 3e 16 dc 84 3e
       -0.17621459 0.17914438 0.20305377 0.25949162
000010 43 97 54 be 84 1c 25 be 36 8c 69 3e db 15 81 bd
       -0.20760827 -0.16124159 0.22807392 -0.06302997
000020 55 a9 46 3e f3 51 d6 3d fd 2d 3e 3e 76 4a e1 3c
       0.19400533 0.10464849 0.1857223 0.027501326
000030 2d e3 2d be 53 03 58 be 58 11 5c bd 1f 46 59 3e
       -0.16981192 -0.21095018 -0.053727478 0.21218155
000040 49 35 0c 3e 42 37 87 3d e8 24 24 bc 59 ad f5 bd
       0.13692202 0.066023365 -0.010018565 -0.11995954
000050 5b b9 8b be 0d 6a fc 3c 02 e7 16 3d eb b5 a5 bc
       -0.27289852 0.030812288 0.0368414 -0.020228347
000060 0d 7d e7 bd d7 fc dd 3d f7 11 4f 3e 94 19 97 3e
       -0.113031484 0.10839241 0.20221697 0.29511702
000070 6e b1 21 3d 80 9e 8f be 8c 89 74 be 2e 53 dc 3d
       0.03947585 -0.28050613 -0.23880595 0.10758053
000080 c9 05 a2 be 61 12 3a be 40 b6 d7 3c 58 ad 9a be
       -0.3164504 -0.18171073 0.02633202 -0.30210376
000090 c9 d6 d8 3e ec 2f 16 be 82 81 37 3d eb e5 eb ba
       0.42351368 -0.14666718 0.044801243 -0.0017997598
0000a0 7f 8e 92 3e 31 12 be be 16 3c ba bb 47 b3 43 be
       0.2862434 -0.37123254 -0.0056834323 -0.19111358
0000b0 3d 80 d4 be 03 3c b5 3e bc 25 8c bd 15 63 a6 be
       -0.41504088 0.35397348 -0.06843135 -0.3249747
0000c0 f6 d3 0e be 30 42 4c be 59 78 e0 bd 13 66 34 3e
       -0.13948044 -0.19947124 -0.109604545 0.17617063
0000d0 85 0d bb 3d 3b e2 9d 3c 26 75 bf 3c 9b f5 8f 3d
       0.09133438 0.019272914 0.02337129 0.070292674
0000e0 bd 8d 0a 3e 22 a4 4b 3e 8c 15 62 be bc f7 92 be
       0.13530631 0.1988683 -0.22078532 -0.2870463
0000f0 8f 79 ee 3d 92 80 5e be e0 c8 48 bd ce 4e 46 be
       0.11644279 -0.21728733 -0.049019694 -0.19365999
000100 cb 46 cc be 6f ab 80 be eb 40 ff 3d 46 0a 7f 3c
       -0.3989776 -0.25130793 0.12463554 0.015566414
000110 52 16 e1 be 30 9a 25 3e 5f c7 40 3e c1 bd ee bd
       -0.43962342 0.16172099 0.18826054 -0.116572864
000120 ad 8c 04 3e 24 86 e7 bd eb 8d 5f bd 63 be 97 3e
       0.12944289 -0.11304882 -0.054578703 0.2963744
000130 87 16 5f 3e c5 71 09 3e 48 39 36 be 2c 30 c6 be
       0.21785937 0.13422306 -0.17795289 -0.38708627
000140 fa 1a 10 3c 6c 28 96 3e cf 57 42 be 6f 2c 0d 3f
       0.008795494 0.29327714 -0.18978809 0.55145925
000150 19 44 36 3f 9d 8d e2 bd 7e 80 e4 3e d6 af 87 be
       0.7119766 -0.11062167 0.44629282 -0.2650134
000160 df 86 20 be 4a 57 54 bd 7a f0 32 3e 6c 8e e8 bc
       -0.15676449 -0.051841058 0.17474547 -0.028388225
000170 02 c7 b0 be c9 45 ee 3e 9f 88 53 3e 86 20 00 3e
       -0.3452683 0.46537617 0.20657586 0.12512407
000180 8a c5 d1 3d 45 db d0 3e 19 03 97 be 48 56 6f be
       0.10242756 0.4079229 -0.2949455 -0.23372757
000190 d3 cc a5 3e c1 eb c9 be 2e 59 81 3e 7d 22 0b 3e
       0.3238283 -0.39437678 0.2526335 0.13587375
0001a0 f6 ca db 3c a3 e9 49 3c 66 4f 75 3e cf 06 5b be
       0.026830178 0.01232377 0.2395607 -0.21389316
0001b0 df 82 dd 3d e8 a2 97 3d e4 df 89 be 99 ef a3 bd
       0.10815977 0.07404119 -0.26928627 -0.08004684
0001c0 07 ce 72 bd 1a 82 48 3e b9 da 8c be 2c 48 34 be
       -0.059278514 0.1958088 -0.27510622 -0.17605656
0001d0 c5 27 56 be 10 c6 09 3e 31 f1 5e be 2a a3 ba 3d
       -0.20913608 0.13454461 -0.21771695 0.09113152
0001e0 79 1e 8d 3d c4 74 2c 3e ef 8b 68 3e d4 50 82 3e
       0.06890578 0.16841418 0.2270963 0.25452292
0001f0 3f 9a 8b be 3b 17 3d 3e ca a8 1e be 20 2c 64 bb
       -0.27266118 0.18465893 -0.15494075 -0.003481634
000200 ca 3a 18 be db f5 68 be 75 44 0f bf ab 2f d1 be
       -0.14866176 -0.22750036 -0.5596383 -0.4085668
000210 2c 2d b9 3d ea af ac 3e 17 dd 93 be a8 a9 ce 3e
       0.09041819 0.33727962 -0.28879616 0.40363812
000220 75 c6 e7 3d 64 6e 6c 3e c7 1e c7 3d 0b 9b 09 3e
       0.113171495 0.23088986 0.09722667 0.1343805
000230 59 a7 6a be 22 7a 7d 3e 64 6a ab 3d 20 f1 82 be
       -0.229154 0.24753621 0.08369902 -0.2557459
000240 b1 a2 99 bc 3c 90 27 3e 04 51 1d be 3c 35 aa 3e
       -0.018754335 0.16363615 -0.15362936 0.3324374
000250 23 d2 db 3e 18 e7 96 bc 6b 5f 09 bd b4 fd 7b be
       0.4293376 -0.018420741 -0.033538263 -0.24608499
000260 ee 0f 1c 3e 64 23 86 3e c4 1f 94 3d 93 0a 9b be
       0.15240452 0.26198876 0.07232621 -0.30281505
000270 f5 b1 81 3e 44 e0 a7 3e a6 51 93 bd a0 b1 c6 be
       0.25331083 0.3278829 -0.071933076 -0.38807392
000280 39 6d 6c be e5 ce 98 3e af 67 f4 3d 3c f0 77 be
       -0.2308854 0.29845348 0.119338386 -0.24212736
000290 73 e1 48 be a2 d1 29 bd 86 dd 89 bd 58 fe b3 be
       -0.19617252 -0.041459687 -0.06731705 -0.35154986
0002a0 55 64 89 3e 32 ad ff 3e e0 79 57 3e 11 29 a5 3e
       0.2683436 0.49936825 0.21042585 0.32257894
0002b0 b7 cc ba 3e 7f 62 60 3d 0a d8 35 3e 90 c9 e1 bd
       0.3648431 0.054781433 0.17758194 -0.11024773
0002c0 09 cc 8a 3d 65 5d 64 be ef 10 e9 bd b1 56 22 be
       0.06777198 -0.22301252 -0.11380183 -0.15853383
0002d0 52 a6 0a 3d 79 d8 23 be 2b 79 ce be c9 e8 e5 bd
       0.03385002 -0.16000547 -0.4032682 -0.11226041
0002e0 cd c7 e9 bd 9a c5 da 3d b2 a8 2a 3e 2f bc 7b be
       -0.11415062 0.10682221 0.16665915 -0.24583505
0002f0 a1 e7 bf 3d bf 05 ea bd 6c 20 d0 3d 6e 3b 1b 3c
       0.093703516 -0.11426877 0.10162434 0.009474618
000300 da 84 84 3e d1 9a 47 be c2 e7 05 3e 24 fd 3b bb
       0.25882608 -0.19492652 0.1307669 -0.002868482
000310 39 82 81 bd fe 8d 19 bf c2 ef c7 be 8e e8 8b 3e
       -0.06323666 -0.5998229 -0.39050108 0.27325863
000320 22 f1 96 3b de b5 9a 3d 6c 2d 52 bd 84 86 a8 be
       0.004606382 0.0755422 -0.05131285 -0.32915127
000330 bf bf c0 3d 81 89 a2 be da c0 11 3e ad a6 de 3d
       0.09411573 -0.31745532 0.14233723 0.10871635
000340 6d e9 76 3c 7f 6f 69 be a4 74 c8 3d 38 89 b3 3c
       0.0150703015 -0.22796439 0.097878724 0.021916017
000350 0b 13 ae bd bd 3f bd 3e 34 8c d3 bd 44 9a d7 3c
       -0.08499726 0.3696269 -0.10329476 0.026318677
000360 73 00 36 be bf 62 87 3a 33 2a 52 bd 47 4c f5 bd
       -0.17773609 0.0010329111 -0.051309776 -0.119774394
000370 4e 23 fa 3d 9a 5f c1 ba 08 52 e5 bd 47 4d 72 3e
       0.12213765 -0.0014753223 -0.11197287 0.23662291
000380 87 5d 32 be 35 26 11 be 5e a4 c6 be ba 6c 8c 3e
       -0.1741849 -0.14174731 -0.38797277 0.27426702
000390 4f 0a 9b 3e 2b de 86 3e 74 66 47 bd 8e d4 63 3e
       0.30281302 0.26341376 -0.04868169 0.22249052
0003a0 1b 48 63 3e 93 2f 7f be f1 85 f0 3d f3 c7 3a be
       0.22195475 -0.24920492 0.11744297 -0.18240337
0003b0 c0 6d 44 3e b9 e7 08 3d 76 e3 91 bd 96 af 02 be
       0.19182491 0.033424113 -0.07123463 -0.12762293
0003c0 53 87 5c 3e 2b 5d a7 3c 66 a2 70 3e af 2a 19 3e
       0.21535997 0.020430168 0.2349945 0.14957689
0003d0 63 3d 33 be 06 f1 9b bc 26 d2 42 be 01 7e b2 3c
       -0.17503886 -0.019035827 -0.19025478 0.021788599
0003e0 d2 09 9d 3e 31 38 02 bc dd c0 54 3c a5 6f 26 3d
       0.30671555 -0.007947967 0.012985435 0.040633816
0003f0 5c 13 01 3d 56 32 4b bd 96 18 1a 3c 94 aa 82 be
       0.031512603 -0.04960855 0.009405276 -0.25520766

renv_net.3.bias f4 [12]
000000 dc 0c 05 3d 44 6b a2 bd f0 ed b2 bc 91 2c 19 3d
       0.032482967 -0.079306155 -0.021841973 0.037396017
000010 42 f3 cf bc 0b f9 2d bd 5c a4 c8 bc fe a8 82 bc
       -0.025384549 -0.042473834 -0.024492435 -0.015949722
000020 91 57 a2 bc 56 6c c7 39 cc 54 ec bb 87 86 dd bb
       -0.019817146 0.00038036954 -0.007212257 -0.0067604217
