demo/diffuse_net.pth (torch, 4895 bytes, 4 tensors)

0.weight f4 [32, 24]
0	0xbf3f3efe	-0.74705493
1	0xbec031ce	-0.37537998
2	0xbf046d18	-0.51728964
3	0x3e2bb7b7	0.167693
4	0x3e709b2d	0.23496695
5	0x3f0b3d9d	0.5439089
6	0xbebc5fe8	-0.3679192
7	0x3f065fb4	0.5248978
8	0x3eb3ca7a	0.35115415
9	0xbe93589b	-0.28778538
10	0x3f1dc159	0.6162315
11	0x3e6291b5	0.22125895
12	0x3ea112c9	0.31459644
13	0xbeb91864	-0.3615142
14	0x3ddf783d	0.109116055
15	0xbe8b6e6a	-0.27232677
16	0x3c8e1c83	0.01734758
17	0xbea0664b	-0.31328043
18	0x3ea0455b	0.31302914
19	0x3e65edf1	0.22454049
20	0xbf1f026c	-0.6211307
21	0x3c04a4f5	0.008095969
22	0x3e2160a9	0.15759529
23	0xbe0fc7a8	-0.14041007
24	0x3ed237da	0.41058236
25	0x3ec8d03e	0.39221376
26	0xbe5c9613	-0.21541624
27	0xbd73c4ab	-0.05951373
28	0x3e6a056c	0.22853631
29	0xbf372a81	-0.7154923
30	0x3f351352	0.70732605
31	0xbea4c971	-0.32184938
32	0xbe4d0cee	-0.20024464
33	0x3f8b93dc	1.0904498
34	0xbe9efd6a	-0.31052715
35	0x3cb0942f	0.021555034
36	0x3e1a8c8a	0.15092674
37	0xbe45a572	-0.19301394
38	0xbdeb8e0b	-0.11501702
39	0xbe182cbd	-0.14860816
40	0xbe1bd0ff	-0.15216444
41	0x3d7c39ce	0.061578564
42	0xbda028d2	-0.07820286
43	0x3e32b85e	0.17453143
44	0xbd92f08a	-0.071747854
45	0xbe5256a2	-0.2054086
46	0xbd94bf80	-0.07263088
47	0xbe092a99	-0.13395156
48	0x3e33fa8b	0.17576043
49	0x3ed05bbc	0.40694988
50	0xbd853ca6	-0.065057084
51	0xbe04cfd7	-0.1296991
52	0x3d404c6f	0.046947893
53	0xbe3141c5	-0.17310245
54	0x3e526771	0.20547272
55	0xbe027fb5	-0.12744029
56	0xbeb5ff43	-0.35546312
57	0x3de753db	0.11295291
58	0x3d9a1aa6	0.07524614
59	0xbee74856	-0.45172375
60	0xbd5fdfe1	-0.054656867
61	0x3e58870a	0.21145263
62	0x3d2c1fb8	0.042022437
63	0xbf33308a	-0.6999594
64	0x3f8716b2	1.0553801
65	0x3e203812	0.15646389
66	0x3f1d5dcf	0.61471266
67	0x3e01c074	0.12671071
68	0xbe13cb1f	-0.14432953
69	0x3ec8cf4e	0.3922066
70	0xbed9a814	-0.42511046
71	0x3ed7674d	0.42071
72	0xbec1afb8	-0.37829375
73	0x3ef03dd5	0.46922174
74	0xbda673ef	-0.08127581
75	0xbeeedbe6	-0.46652144
76	0xbebc99fb	-0.36836228
77	0x3f083f00	0.5322113
78	0xbed9e15d	-0.4255475
79	0x3edae85d	0.42755404
80	0xbdaf5900	-0.08561897
81	0x3f2bb4d7	0.67072815
82	0xbeed06fd	-0.46294394
83	0xbf1b63d3	-0.60699195
84	0x3e0c7d66	0.1371971
85	0xbe08ce2e	-0.13359901
86	0x3d8df973	0.06932344
87	0x3e35424a	0.17701069
88	0xbe8ef85e	-0.27923864
89	0x3e32d16d	0.17462702
90	0x3e8c3665	0.2738525
91	0x3ed02a53	0.4065729
92	0x3ddededf	0.10882353
93	0xbebc7ce1	-0.36814025
94	0xbec848b0	-0.39117956
95	0xbedec983	-0.43513116
96	0xbdb26909	-0.0871144
97	0x3d1de517	0.038548555
98	0x3dfdc9d3	0.123920105
99	0xbe9610e0	-0.2930975
100	0x3f3145ed	0.69247323
101	0x3ebb30d8	0.36560702
102	0xbf2d7e44	-0.6777079
103	0x3e6a3991	0.22873522
104	0x3df44242	0.119267
105	0xbf378737	-0.71690696
106	0x3f51bb0d	0.8192604
107	0x3eb980c0	0.3623104
108	0xbe4c16b5	-0.19930537
109	0x3c6900d1	0.014221386
110	0xbf089875	-0.5335763
111	0x3e79dfc5	0.24401768
112	0xbe60f33a	-0.21967784
113	0xbdb21a58	-0.08696431
114	0x3f2bae35	0.67062694
115	0xbe153824	-0.14572197
116	0xbe881723	-0.26580152
117	0x3e31e750	0.17373395
118	0x3e393722	0.18087438
119	0x3e5656af	0.20931505
120	0xbf4960f3	-0.7866356
121	0xbf237c94	-0.63861966
122	0x3d4b3dbd	0.049619425
123	0xbef4fd93	-0.47849712
124	0x3f5259ec	0.8216846
125	0xbc1edd5f	-0.009696334
126	0xbdc48a0b	-0.09596642
127	0x3f2b91be	0.6701926
128	0x3e8d9610	0.2765355
129	0x3f069361	0.5256863
130	0x3f24899e	0.6427249
131	0x3ed6df91	0.41967443
132	0xbe9e74e5	-0.30948558
133	0x3c2b91dd	0.010471788
134	0xbee89a00	-0.45429993
135	0x3eed57fd	0.46356192
136	0x3e8ebb3f	0.27877232
137	0xbeb75db1	-0.35813668
138	0x3ee79db9	0.4523752
139	0xbe9bb297	-0.3040969
140	0xbf09c8f4	-0.53822255
141	0xbd88af0f	-0.06674015
142	0x3eeddb4f	0.46456382
143	0x3deeb5bb	0.11655756
144	0xbf65baf1	-0.89738375
145	0xbf2576a2	-0.64634144
146	0x3f7e3a1d	0.99307424
147	0xbdbc1d51	-0.09185279
148	0x3e394e1f	0.18096207
149	0x3e8a5baa	0.2702306
150	0x3f06a02a	0.5258814
151	0x3cd29c5b	0.025709322
152	0x3eae6491	0.340611
153	0xbf8bda73	-1.092604
154	0x3f15739d	0.58379537
155	0x3f33b765	0.7020171
156	0x3d761efb	0.06008814
157	0x3f38e87b	0.7222974
158	0x3f0a3cf6	0.5399927
159	0xbd621082	-0.055191524
160	0x3dae323b	0.085056745
161	0xbecb7590	-0.3973813
162	0xbe5aadf5	-0.21355422
163	0xbd474bd1	-0.04865629
164	0x3e621d62	0.22081521
165	0xbdbe95ad	-0.09305892
166	0x3eb3b800	0.35101318
167	0xbd06426e	-0.032778196
168	0x3dbd51e1	0.09244133
169	0xbd08c0ea	-0.033387102
170	0x3f3fe260	0.74954796
171	0xbf093bdb	-0.5360696
172	0x3f8fc499	1.1231872
173	0xbdbe57f0	-0.092941165
174	0x3e8f48eb	0.2798532
175	0x3e91c961	0.28473952
176	0x3eb9cd30	0.36289358
177	0x3f0ba4dd	0.54548436
178	0x3de1300f	0.109954946
179	0x3f876015	1.0576197
180	0xbe8d482c	-0.27594125
181	0xbe74c721	-0.23904087
182	0xbf11f1c4	-0.5700953
183	0xbe17ec54	-0.14836246
184	0xbdd2c80d	-0.10292063
185	0xbe352dd8	-0.17693269
186	0x3efe0378	0.4961202
187	0xbddf40cd	-0.10901032
188	0xbf0a907e	-0.5412673
189	0x3e183e57	0.14867531
190	0x3ed84cbe	0.4224605
191	0xbe1f5637	-0.15560232
192	0x3f1f1c4d	0.6215256
193	0x3ec6461b	0.3872536
194	0xbf0435fa	-0.5164486
195	0xbe035b24	-0.12827736
196	0xbf11d576	-0.5696634
197	0x3f075d53	0.52876776
198	0xbd622747	-0.05521324
199	0x3f04c836	0.51868
200	0x3dbe4527	0.092905335
201	0x3e06faf8	0.13181674
202	0xbe42cd94	-0.19023734
203	0x3ce56e5b	0.028006723
204	0xbe7ac40d	-0.2448885
205	0x3b555a46	0.0032555028
206	0xbdeb5af1	-0.11491955
207	0x3c573257	0.013134561
208	0xbd6cb59b	-0.05779038
209	0xbda75410	-0.081703305
210	0xbd926422	-0.07148005
211	0x3e8375cd	0.25675812
212	0x3ee4e34f	0.44704673
213	0xbef01f06	-0.4689867
214	0x3e99cc52	0.30038697
215	0xbe905602	-0.2819062
216	0xbec6eb39	-0.38851336
217	0x3d44e3c9	0.048068795
218	0x3e806891	0.25079778
219	0xbec792b5	-0.38979116
220	0x3f5adc6e	0.854926
221	0x3d93d03f	0.07217454
222	0xbf36988b	-0.7132651
223	0x3e36284b	0.17788808
224	0x3dbc2052	0.09185852
225	0xbf45f628	-0.7732873
226	0x3f1b3371	0.6062537
227	0x3f6b7c04	0.9198611
228	0xbdb509b9	-0.08839745
229	0xbebe96ed	-0.37224522
230	0xbea7207c	-0.3264197
231	0x3e5903b0	0.21192813
232	0x3e863417	0.26211616
233	0x3d9aee5a	0.07564993
234	0x3e03bedb	0.12865774
235	0xbbd44495	-0.006477902
236	0xbe9ce17b	-0.30640778
237	0xbadd8d00	-0.0016902983
238	0x3f1099fd	0.5648497
239	0x3e8b6c88	0.2723124
240	0x3ec41a93	0.38301525
241	0x3c5eede3	0.013606521
242	0xbe8783b2	-0.26467663
243	0xbd841c15	-0.06450669
244	0xbf4a8812	-0.79113877
245	0x3e238dd6	0.15972075
246	0xbe8030cf	-0.25037238
247	0x3e4f970b	0.20272462
248	0xbe4ecbf0	-0.20194983
249	0x3e6a6160	0.22888708
250	0x3dbba39f	0.091620676
251	0xbed9d019	-0.42541578
252	0x3ef1c017	0.47216865
253	0x3ec03c27	0.37545893
254	0xbdceefc7	-0.10104328
255	0xbd5e66e6	-0.05429735

0.bias f4 [32]
0	0x3eb794bd	0.35855666
1	0xbb9a3ce2	-0.004706965
2	0x3d3d5eac	0.046232864
3	0x3d848ea2	0.064725175
4	0x3e9f0743	0.31060228
5	0x3e94983c	0.29022396
6	0x3e5122c7	0.20423423
7	0x3e970a3b	0.29499993
8	0x3d40dccf	0.04708558
9	0x3ec32345	0.38112846
10	0xbc62043e	-0.013794957
11	0xbd89ef55	-0.06735102
12	0x3e981a4c	0.29707563
13	0xbd78f261	-0.060778026
14	0x3e8ec61f	0.2788553
15	0x3dfdd520	0.12394166
16	0x3d919cd4	0.07109991
17	0x3e84538d	0.25844994
18	0x3e6d7a60	0.23191214
19	0x3e98caaa	0.2984212
20	0x3db872ec	0.090062946
21	0xbc5b4358	-0.013382755
22	0x3ce8fa18	0.028439566
23	0x3dbceaa2	0.0922444
24	0xbd803f48	-0.0626207
25	0x3eb0d004	0.34533703
26	0xbcdb0484	-0.026735552
27	0x3e5d1f7a	0.21594039
28	0x3e4fef25	0.2030607
29	0x3e1598e8	0.1460911
30	0x3ec653c2	0.38735777
31	0x3d363ae2	0.04448975

2.weight f4 [3, 32]
0	0x3e905580	0.2819023
1	0xbedcf9da	-0.43159372
2	0xbda11826	-0.07865934
3	0x3ec27752	0.3798166
4	0x3e3f74dd	0.18696924
5	0xbefe8c2a	-0.49716312
6	0xbee46afb	-0.4461287
7	0xbf2f1f31	-0.6840697
8	0x3e860de3	0.2618247
9	0xbd9444a0	-0.07239652
10	0x3eb31a75	0.34981123
11	0x3eb8683d	0.36017027
12	0xbe295e0e	-0.16539785
13	0x3f1440d8	0.57911444
14	0xbf0d6098	-0.55225515
15	0xbfbbe77d	-1.468002
16	0xbe879513	-0.26480922
17	0xbf4fccd8	-0.8117194
18	0xbeba1f1d	-0.36351863
19	0xbea53d14	-0.3227316
20	0xbee429bc	-0.4456309
21	0x3e96546a	0.29361278
22	0x3d24e06d	0.04025309
23	0xbf0551f4	-0.52078176
24	0x3ddb5eca	0.10711439
25	0xbec01700	-0.37517548
26	0x3e306650	0.17226529
27	0xbcadee4e	-0.021231797
28	0xbe383c66	-0.1799179
29	0xbebdd3c0	-0.37075615
30	0xbe647f67	-0.22314225
31	0xbe505c90	-0.2034781
32	0xbeb9e13c	-0.36304653
33	0x3ea1b953	0.31586704
34	0xbf192639	-0.5982395
35	0x3efb24a7	0.490514
36	0xbf1611e6	-0.5862106
37	0x3e6a2ddb	0.22869055
38	0xbee5f5c5	-0.4491407
39	0x3c86804a	0.016418595
40	0x3d963aae	0.07335411
41	0xbf109819	-0.5648208
42	0x3dc00369	0.093756504
43	0xbeb162b9	-0.34645632
44	0xbc80d6db	-0.015727451
45	0x3eca0020	0.3945322
46	0xbee74225	-0.45167652
47	0xbfcba9ad	-1.5911156
48	0xbe5df9c9	-0.21677317
49	0xbec92505	-0.39286056
50	0xbe04dfd4	-0.12976009
51	0xbe52bec9	-0.20580591
52	0xbea7c433	-0.32766876
53	0x3d6a6d08	0.057232887
54	0xbd51234a	-0.051059045
55	0xbf061b20	-0.5238514
56	0x3e90e614	0.28300536
57	0xbea404ae	-0.3203482
58	0xbf141d38	-0.57857084
59	0xbe6e85be	-0.23293206
60	0xbf1e8bc9	-0.61932045
61	0xbdef3c65	-0.11681441
62	0xbe41e5f4	-0.18935376
63	0x3ddec189	0.10876758
64	0xbf3a2f08	-0.72728014
65	0xbd2d00f9	-0.042237256
66	0xbeb18910	-0.34674883
67	0x3e970af9	0.2950056
68	0xbdd78af1	-0.10524548
69	0xbf17750c	-0.59162974
70	0xbf00d475	-0.50324184
71	0xbdbb5561	-0.09147144
72	0x3e372459	0.1788496
73	0xbd2d7414	-0.04234703
74	0x3e2de6bd	0.16982551
75	0x3e1e08df	0.15433072
76	0xbed6f7e1	-0.41985992
77	0x3df40b9d	0.119162776
78	0xbf21971d	-0.63121206
79	0xbf86ecdf	-1.0541037
80	0x3ec3de4c	0.38255537
81	0x3cdd0524	0.02697999
82	0x3d29ade1	0.04142559
83	0xbe37b532	-0.17940214
84	0xbf10092e	-0.5626401
85	0xbf0c3eb7	-0.54783195
86	0xbed91f28	-0.42406583
87	0xbec69f67	-0.3879349
88	0xbd1fed99	-0.03904495
89	0xbea58deb	-0.32334837
90	0xbb18a08d	-0.0023289055
91	0xbea5f389	-0.32412365
92	0x3ea2cbbf	0.3179607
93	0xbec01cb4	-0.375219
94	0xbe666577	-0.22499643
95	0x3ef7c628	0.4839337

2.bias f4 [3]
0	0xbe39edd2	-0.18157127
1	0xbd55103f	-0.052017447
2	0xbd90c593	-0.07068934
