demo/sdf_net.pth (torch, 31767 bytes, 6 tensors)

0.weight f4 [64, 37]
000000 41 7b 31 be d3 e1 9e be d2 c9 96 be 52 83 60 be
       -0.17332174 -0.31031665 -0.29450852 -0.21925095
000010 f5 54 c3 be 8d fc 46 be 28 29 7a 3d 19 ed 67 3e
       -0.38150755 -0.19432278 0.061074406 0.2264904
000020 61 e7 18 be 74 a2 28 bc 5a 8e 5f 3d 74 d8 b0 bc
       -0.14932014 -0.010292638 0.054579116 -0.021587588
000030 88 69 d3 bc bc 78 7e bc 86 2b 8e 3c 22 c5 36 3c
       -0.025807157 -0.015531715 0.017354738 0.011155399
000040 da 1b a2 bb a1 a5 b8 bb 90 df 56 bb 46 f7 c2 b9
       -0.004947168 -0.005634979 -0.0032787062 -0.00037186797
000050 90 69 5a ba 0f e6 b2 39 ce c8 89 ba 61 29 4c ba
       -0.000833177 0.00034122213 -0.0010512115 -0.00077881484
000060 29 98 8a b9 51 6d e4 39 65 9d b9 ba e5 5e dc 39
       -0.0002643478 0.00043568996 -0.0014161287 0.00042032372
000070 cc 38 b1 39 38 ef e0 b9 39 70 83 b8 e4 fe b4 39
       0.00033802388 -0.0004290284 -6.26747e-05 0.00034522184
000080 98 c8 d9 bd f8 ad 87 be a5 18 85 3e be 76 18 be
       -0.10633963 -0.26499915 0.25995365 -0.14889047
000090 03 f4 97 3e 15 ce 6d 3d a6 8c fb 3c 8b 9d 9d bd
       0.29678354 0.058057863 0.030706715 -0.076960646
0000a0 4d f8 34 be f3 fe 33 be 41 3b 69 be a3 28 8d 3e
       -0.17672844 -0.17577724 -0.2277651 0.27570066
0000b0 c4 e6 29 3c bf f8 23 be 1a 76 b9 3c d7 fb 4c 3d
       0.01036996 -0.16012858 0.022639323 0.05004486
0000c0 d8 d7 66 bd 83 59 d8 3c df 4c e5 bc cd 87 3d bd
       -0.05635819 0.02640987 -0.027990757 -0.046272088
0000d0 60 a4 65 3c b2 db 98 3c d7 df 12 bc 08 76 45 bc
       0.014016241 0.018659446 -0.0089645 -0.012052067
0000e0 6d bf 47 bc db de c3 ba ab f7 23 3b 94 e6 41 b9
       -0.012191636 -0.0014943735 0.0025019448 -0.00018491811
0000f0 a8 8a dd 3a 1e 7e d4 b9 e9 d1 6c 39 1d f1 b5 ba
       0.0016902285 -0.00040529756 0.00022584911 -0.0013881061
000100 88 3e 66 ba 8d 45 20 bb 80 e9 ed 39 b8 f2 8b 39
       -0.00087831216 -0.0024455518 0.00045378134 0.00026692986
000110 63 36 4f 3a 69 27 83 3e 4c ad 86 3e 2d a2 a5 3d
       0.00079045276 0.25616005 0.2630409 0.08087573
000120 05 13 83 3d 5c 36 8e 3d 8f 22 79 be db 24 ef bd
       0.06400112 0.06943962 -0.2432959 -0.116769515
000130 f3 1b 53 be c0 97 5c be dc ac a0 be d4 bf c5 be
       -0.2061613 -0.21542263 -0.3138188 -0.38622916
000140 94 2d 4b 3e 47 38 44 3e da 06 2e be 22 8e 95 bd
       0.19841605 0.19162093 -0.16994801 -0.073025
000150 f7 67 74 3d 81 74 b6 bd 91 f3 d2 3c 97 0f 3b bd
       0.05966946 -0.0890894 0.025750907 -0.045669165
000160 5d d0 a4 bb 11 68 6d 3c 35 70 19 3b 7d 42 11 bc
       -0.0050297217 0.014490143 0.0023412828 -0.00886595
000170 0b 8e 05 bb 7b b4 5d 3b 0e 46 ea ba f7 6e da 3a
       -0.0020378854 0.0033829499 -0.0017873661 0.001666515
000180 44 b6 25 3a 49 c1 f3 b9 c7 92 8b ba 40 b3 37 b9
       0.000632141 -0.0004649258 -0.0010648601 -0.00017519016
000190 e6 95 a5 3a 00 89 35 3a c8 e6 51 ba 63 10 c2 39
       0.0012633174 0.00069250166 -0.00080071064 0.00037014773
0001a0 ae 06 0d 39 19 96 a4 b9 a6 10 95 be 00 ab 2c 3e
       0.00013449296 -0.0003139235 -0.29114264 0.16862106
0001b0 97 86 6a 3e 7a 8f 9a be f4 00 26 be dd 55 12 3e
       0.22902904 -0.3018759 -0.16211301 0.14290567
0001c0 45 ac 9e 3d 97 43 21 3e 06 2f d8 3e e8 43 97 3e
       0.077477016 0.1574844 0.42223376 0.29543996
0001d0 17 32 7a 3d 71 d8 be bd c9 32 b1 bd 19 d2 37 3e
       0.061082926 -0.09318627 -0.086522646 0.1795124
0001e0 92 15 25 be 04 6a 19 bd b7 cb 23 bd a3 ae da 3c
       -0.1612151 -0.03745462 -0.0399892 0.026694601
0001f0 10 82 74 bb 24 c8 93 bb a1 4c 59 bb 43 07 bd 3b
       -0.0037308969 -0.0045099426 -0.0033157247 0.005768688
000200 09 65 f5 3a b0 3e a4 b6 10 56 11 ba b9 1f 7a 3a
       0.0018722127 -4.8948787e-06 -0.00055441353 0.000954147
000210 ed c8 8a 3a 26 bc 93 ba 4b 8b df b9 58 88 84 ba
       0.0010588445 -0.0011271283 -0.00042637656 -0.0010111434
000220 4c 79 72 ba be c4 1b 3a 79 83 c5 3a 24 f5 3b ba
       -0.0009249642 0.00059420976 0.0015069089 -0.00071700127
000230 85 c9 d0 ba 64 04 2a ba c3 be c7 b9 69 b5 90 be
       -0.0015929198 -0.00064856396 -0.00038098366 -0.28263405
000240 95 3e eb be 8c c4 29 3e 76 7c ae 3e f3 27 8a 3d
       -0.45946184 0.16578883 0.3407933 0.06745901
000250 3f 87 ff 3d 89 33 cc bd d4 6d 24 be 73 75 77 3e
       0.12476968 -0.09970767 -0.16057521 0.24165897
000260 91 19 20 3a de 60 15 3e da 4e 33 bb e7 12 ba bd
       0.00061073253 0.14587733 -0.0027360232 -0.090856366
000270 9e 95 a5 3c 63 6f 50 3d 43 3a 90 bc 0e fa c5 3c
       0.020212945 0.050887477 -0.017605906 0.024167087
000280 7d 4e fe 3c 53 85 a0 bb 49 c2 68 3b b4 6e aa bb
       0.031043286 -0.004898706 0.0035516194 -0.005201185
000290 6e 01 3d 3b 67 70 c5 3a 27 d5 21 bb 54 6c 25 bb
       0.0028839963 0.0015063406 -0.00246937 -0.002524157
0002a0 84 1c b7 b9 ee 7e 1b 3a e2 ae 37 39 e1 d6 06 39
       -0.00034925726 0.0005931695 0.00017517389 0.00012859284
0002b0 d1 27 cb b9 c1 4b 6f 3a b1 7d d1 b9 33 ba 2e 39
       -0.00038748843 0.00091284147 -0.00039957234 0.00016663298
0002c0 55 8a fb b9 cd 1e a2 39 83 3b cc 38 21 5d 86 ba
       -0.00047977516 0.00030921996 9.738563e-05 -0.0010251143
0002d0 0c 18 e2 3e 80 f4 24 be b6 77 8c 3e fe dc a0 bd
       0.4415897 -0.16108894 0.27435082 -0.07854651
0002e0 08 9d 3f 3e 57 fc 4f 3e 48 cf 0f be af c4 99 3e
       0.18712246 0.20311104 -0.14043915 0.3003287
0002f0 45 e4 cb bb bf 57 a2 3e ac a5 e9 3e 22 d4 cd be
       -0.00622228 0.3170757 0.4563421 -0.40200907
000300 7a 25 f7 bd f7 0c 5e 3e 52 24 82 3d 48 d8 9c bd
       -0.12067695 0.21684633 0.06354584 -0.0765844
000310 7b 4c 17 3e 8a c4 47 3d a7 5a ab 3c 80 19 63 3c
       0.14775269 0.04877142 0.02091725 0.01386106
000320 fc 38 c3 bc 64 18 87 39 be b6 85 3c 8a d1 b6 3c
       -0.023830883 0.0002576738 0.01632249 0.022316713
000330 24 9f c3 3c 7c db 84 ba 1c a6 a6 bb 06 35 80 3b
       0.023879595 -0.0010136212 -0.0050857197 0.003912571
000340 da 07 d0 3a fd 94 32 ba d3 cf 69 ba 77 70 9e ba
       0.001587148 -0.0006812362 -0.0008919213 -0.001208796
000350 62 ab 10 ba d0 21 5f bb 67 99 0e bb b3 b1 89 ba
       -0.0005518702 -0.0034047253 -0.0021758915 -0.0010505229
000360 46 d2 eb 38 f1 f5 8d 3e dd be 37 be 9e 86 c7 be
       0.0001124484 0.277267 -0.17943902 -0.38969892
000370 53 91 8a bd ee 08 30 3d 00 c2 9b 3e 56 b6 fa 3e
       -0.06766 0.042977266 0.30421448 0.48967236
000380 f1 3f 16 3f 9c a8 91 3e 2e 4d 0d 3f a4 f9 f3 3e
       0.58691317 0.2844895 0.5519589 0.47651398
000390 d3 0d 12 be 43 7c cc be 71 12 7e 3e 20 d7 8f 3d
       -0.14263086 -0.39938554 0.24811722 0.07023454
0003a0 c4 02 e6 bd 75 9e 79 3c 4c b2 6c bc 1c 91 21 3d
       -0.11230996 0.015235533 -0.014446806 0.039445028
0003b0 e7 95 ac 3c 99 de 60 bc 15 a2 42 bc f7 20 cf 3b
       0.021067573 -0.013724946 -0.011879464 0.0063210684
0003c0 45 e9 a3 3b ea eb 9a 3a 72 ad a3 39 d2 77 0e bb
       0.005002173 0.0011819575 0.0003121901 -0.00217389
0003d0 33 fc 24 3a 59 2e a4 ba bc 2c 9b 3a cc a8 c0 b8
       0.0006293684 -0.001252602 0.0011838893 -9.186714e-05
0003e0 7d 18 4d ba 7a 83 27 3a 08 9c 98 3a a4 08 21 ba
       -0.00078237784 0.0006390136 0.0011643181 -0.000614295
0003f0 2d 99 8a ba 09 ae 68 3a 1f bb 0f be f8 b2 92 bd
       -0.0010574214 0.0008876031 -0.14036225 -0.07163042

0.bias f4 [64]
000000 c6 ef fa 3c 9c 37 c4 be b3 17 ee 3d 58 fc 8a 3d
       0.030631911 -0.38323677 0.11625614 0.06786412
000010 46 a1 13 be 43 ac 36 3d 84 16 68 3e 8f 39 0c bb
       -0.1441699 0.044597875 0.22664839 -0.0021396612
000020 02 df 6a be 3d e6 61 be b2 c6 55 be ff 69 21 3b
       -0.22936633 -0.22060485 -0.20876577 0.002462983
000030 6c 8a cf 3b 3e ab 49 3d 97 b6 10 3e 88 4a f6 3d
       0.00633364 0.049235575 0.14132152 0.120259345
000040 20 03 62 bd ac 5a f6 bd c6 03 3e 3e 47 31 82 3e
       -0.05517876 -0.12029013 0.18556127 0.2542822
000050 e2 d5 04 be 47 92 41 be e0 06 cd bd c6 ef 93 bd
       -0.12972215 -0.18903457 -0.10011077 -0.072234675
000060 12 b7 97 3d b7 01 8b be 10 e7 7d bd 0c fd 43 3d
       0.07407965 -0.27149746 -0.061987936 0.047848746
000070 0d 14 ab 3d 21 13 fa 3d c8 e1 e9 bd a9 32 07 be
       0.08353434 0.1221068 -0.114200175 -0.13202919
000080 e5 36 99 bd 7d b9 14 3c 0c f2 88 bd 13 f0 29 be
       -0.074811734 0.009077427 -0.06686792 -0.16595487
000090 e7 8d 79 bd 2b b9 d3 3d 9f 01 84 bd 24 06 b1 3d
       -0.060926344 0.10338052 -0.06445622 0.08643749
0000a0 bc dd 12 be 22 db 10 be 79 4f f9 bd 40 96 fe bd
       -0.14342397 -0.14146093 -0.12173361 -0.12431002
0000b0 70 79 93 3d 2e cf 87 bd 5c 94 fd bc 1b 98 34 be
       0.07200897 -0.06631313 -0.030954532 -0.17636149
0000c0 61 aa f1 3d 32 2a d6 3d 49 f7 ec 3c 47 ce 96 3b
       0.11800075 0.10457267 0.028926509 0.004602227
0000d0 2f cb 86 be d0 b5 99 be 02 27 04 3e ec fc 1a be
       -0.26326892 -0.30021524 0.12905505 -0.15135545
0000e0 4e 51 50 3e 47 1e 4d 3e 89 9c 14 be 25 fe c4 bd
       0.20343515 0.20031081 -0.14512838 -0.09618787
0000f0 a8 cd 3f 3e bb 3e 64 be a6 79 96 bd 20 4b 73 3c
       0.18730795 -0.22289555 -0.07347421 0.014849454

2.weight f4 [64, 64]
000000 7a 31 d0 bd 72 85 5d be 5a 06 b3 bd fc bc b2 be
       -0.10165687 -0.21632937 -0.08741446 -0.3490981
000010 06 b9 1b be 51 52 0a 3e 9c 3a 59 bc af 2d 8a bd
       -0.152073 0.13507964 -0.0132586025 -0.06746995
000020 e1 8c ad bd 6a a3 97 bd dd 05 06 be ce cd 17 bd
       -0.08474136 -0.07404216 -0.13088174 -0.037061505
000030 19 18 0f 3c 9d 2c fe bd 4b 2f ad 3d ae a5 f8 3d
       0.008733773 -0.12410853 0.08456286 0.12140976
000040 d3 69 1c bd 0c a1 6c be 5e a8 39 bd 88 24 65 3e
       -0.03818686 -0.2310831 -0.045326583 0.22377217
000050 fe 5f 29 3e 7b e9 cd 3d 06 2c 19 3e 60 84 fa bd
       0.16540524 0.100542985 0.149582 -0.1223228
000060 1c 38 6e be fc ed 2e 3b f8 83 1b bd 6c e7 40 be
       -0.23263592 0.0026692143 -0.037967652 -0.1883828
000070 73 51 9c bd e8 e0 a2 3d 12 c6 82 3d 0b 29 a6 bd
       -0.07632723 0.07953054 0.06385435 -0.08113297
000080 db 45 0a 3d 81 e9 9a 3d 07 2f 6f bd d9 43 6d be
       0.033758026 0.075640686 -0.05839446 -0.23170413
000090 9f 59 12 3e 71 2a c6 3d fc 79 ed bd 26 1d ed bd
       0.14292 0.09676064 -0.11595532 -0.11577825
0000a0 fa 3b b7 ba 49 07 f0 3d a3 ef 27 3e a0 a0 48 3e
       -0.0013979666 0.117201395 0.16400008 0.19592524
0000b0 db c3 96 bd 08 ef e6 ba 38 15 bc 3d 7e 8e ad be
       -0.07361575 -0.0017618844 0.09183735 -0.33897775
0000c0 6c 72 6c be 29 aa 0e bc a9 b7 9b bb 59 80 04 3e
       -0.23090523 -0.0087075615 -0.0047521186 0.12939586
0000d0 e6 96 eb bd 95 c3 dc 3d ed a1 e0 bd 58 c9 e4 3d
       -0.11503391 0.10779492 -0.10968385 0.11171216
0000e0 de 11 20 3d 35 b1 10 bd 4a 21 10 3b ec dc b9 3d
       0.03907954 -0.035325248 0.0021992498 0.09075341
0000f0 77 ab 22 be e2 01 56 be 23 22 b8 3d 62 c6 0b 3c
       -0.15885721 -0.20899156 0.08990886 0.008531185
000100 af 70 d8 3d 69 24 8c bd 46 ff 32 be d5 89 22 be
       0.10568368 -0.06842882 -0.17480192 -0.15872891
000110 bd 82 1f bd ad 30 15 be d8 08 f3 bd ef a4 1c 3d
       -0.03894304 -0.1456935 -0.11866921 0.03824323
000120 5d a8 c3 bd d0 b5 f7 3d 06 79 80 3e b0 0a 6e be
       -0.09553597 0.12095225 0.25092334 -0.23246264
000130 2a 1d f2 bd 3b d1 26 3e 91 ed 09 bd 9b 82 57 3e
       -0.11821969 0.16290753 -0.033673827 0.21045916
000140 39 f4 98 bd 0c 16 01 be fd 29 f4 bd 94 7d 59 be
       -0.07468457 -0.12606066 -0.11922071 -0.2123931
000150 2f 10 9d 3d 91 85 2c be e3 96 36 be a7 3c 97 3e
       0.076691024 -0.16847827 -0.17830996 0.29538462
000160 4e fe 8d be 4f b5 6b be b1 08 06 3e db ae 21 3e
       -0.27733082 -0.23018382 0.13089253 0.15789358
000170 f5 ad b4 3d 1d e2 07 be 4b e4 c0 bc 56 b1 4b bd
       0.08822242 -0.13269849 -0.023546359 -0.049729668
000180 cc 24 c8 3d d1 ee bd bd 79 cd 98 be ec c3 a1 3e
       0.097726434 -0.09274066 -0.29844263 0.3159479
000190 30 0b 59 be 26 9d 43 3e 16 e9 3a 3e bc 1f 1f 3e
       -0.21195674 0.19102916 0.18252978 0.1553945
0001a0 02 a3 62 3e 1e c2 fb bd 80 12 36 bd b2 fd 95 be
       0.22132495 -0.12292884 -0.044451237 -0.29295117
0001b0 7f 16 3f be 08 70 32 3e b3 34 08 be b1 84 8c be
       -0.18660925 0.17425549 -0.13301353 -0.27444986
0001c0 26 ef f2 3c 66 86 a1 3c 91 42 66 be b3 55 22 be
       0.02965505 0.019717406 -0.2248633 -0.15853004
0001d0 1a bc 04 be 9f d9 98 be b2 d7 82 3d 5b d8 0c 3e
       -0.1296238 -0.29853532 0.06388797 0.13754408
0001e0 2f bc 21 3e 87 a6 ff 3d c7 f6 97 be ce 02 86 be
       0.15794443 0.124829344 -0.29680464 -0.26174015
0001f0 f8 c5 1a 3e 2a c8 c8 bd f6 d9 76 bd 4c d9 55 be
       0.15114582 -0.09803803 -0.060266457 -0.20883673
000200 87 3d a2 3d ef a8 29 be 09 03 01 be 8f 34 b9 3e
       0.07921892 -0.1656835 -0.12598814 0.36172912
000210 af d0 0a 3d f4 22 9b bd 08 cf 26 be f2 97 5d be
       0.033890422 -0.07575026 -0.16289914 -0.21639994
000220 ef 3e 53 be ef 39 0c be fb 31 8d bb 77 b6 cf be
       -0.20629476 -0.13693975 -0.0043089367 -0.40568897
000230 da ff 29 be 21 f4 34 bf 35 54 04 3e 63 f4 8b be
       -0.16601506 -0.7068501 0.12922747 -0.2733489
000240 9d 44 a0 be ea 49 ac bd 27 3b 7b be 97 a1 28 bd
       -0.31302348 -0.084125355 -0.24534284 -0.04116973
000250 d8 0a e0 bd a1 bb b6 be b5 31 ab bd a4 03 80 3e
       -0.10939568 -0.35690024 -0.0835909 0.25002778
000260 29 22 16 be c6 cf 3a be 39 31 09 3e 57 cd 9c bc
       -0.14661469 -0.18243322 0.13397683 -0.019140882
000270 d3 4b 5c bc db c1 9a 3e b8 cf b4 3e 33 d8 67 3e
       -0.013445812 0.30226025 0.35314727 0.22641067
000280 2e 48 11 be eb ee 00 bd 7e b8 91 be 22 b0 1f bd
       -0.1418769 -0.03147785 -0.2846107 -0.038986333
000290 6e 9b 43 3e 92 6c c6 b8 7c cd de 3d de 8a c6 bd
       0.1910226 -9.4615985e-05 0.10879037 -0.096944556
0002a0 2a fb c5 3e c0 f3 89 3e c7 6a 04 3e 7c 35 a6 bd
       0.38668185 0.2694378 0.12931357 -0.0811567
0002b0 09 50 ba 3e c6 29 62 be 82 f2 3e 3e 1a af b8 3c
       0.36389187 -0.22086248 0.18647197 0.022544432
0002c0 1a 29 59 be 1b 15 2d 3e 9f c0 11 3e ae 1c 81 3e
       -0.21207085 0.16902582 0.14233635 0.25217193
0002d0 c5 7c 5c be 11 f3 9c 3e ff 02 6f be e0 94 0c 3d
       -0.21531971 0.30654195 -0.23340987 0.034321666
0002e0 19 b8 6c bd 70 3d c3 be ed 14 7e 3e 0a 75 71 3e
       -0.057792757 -0.3813281 0.2481267 0.23579803
0002f0 ce 94 99 bd 18 53 81 3e cb e3 49 be 96 9f 00 be
       -0.07499085 0.25258708 -0.19715802 -0.12560877
000300 bb ac 85 3d 30 11 0e 3c 49 06 c0 3d 20 18 b1 be
       0.06527086 0.00867109 0.09376199 -0.34588718
000310 86 9b ec bd ce 20 2d be fa 0f cf bd e6 5d f9 bd
       -0.11553101 -0.16907045 -0.10110469 -0.12176113
000320 57 c5 7f be 3c 0e 51 bd d1 d4 52 3e ad 76 1f be
       -0.24977623 -0.051038966 0.20588996 -0.15572615
000330 8d b4 7b 3e df d4 98 3d 42 1b 46 3e 6d cb 72 be
       0.24580593 0.07462477 0.19346336 -0.23710413
000340 25 19 42 bd 96 53 f0 3d 89 90 37 bb 61 29 22 be
       -0.04738726 0.11734693 -0.0028009734 -0.15836097
000350 c1 66 7e 3e f7 23 9b 3d c2 eb 1d be 00 56 9b be
       0.24843885 0.07575219 -0.15421966 -0.3033905
000360 75 fe bc bd cc 15 67 be cb 87 14 3d 9c 21 83 3e
       -0.09228221 -0.22566909 0.036262315 0.2561158
000370 86 34 2e bd cc 53 32 bc 9f eb c5 3d 81 b4 01 be
       -0.04253056 -0.010884237 0.09664082 -0.12666513
000380 5a 3a 2a bb 97 5c 13 3e 17 11 bf 3c 4b 6b 0d be
       -0.0025974722 0.14390789 0.023323579 -0.1381046
000390 dc 88 30 3d 5b c8 62 bd 14 66 49 3d e0 31 05 be
       0.04309927 -0.055366855 0.049169615 -0.13007307
0003a0 0a 55 e2 3d f3 d4 0d 3d c8 69 39 be 30 3b 19 bd
       0.11051376 0.034626912 -0.18106759 -0.03740996
0003b0 08 35 a1 bd 80 b9 7e 3e e7 ba 61 be a3 f6 80 be
       -0.07871443 0.2487545 -0.22043954 -0.2518817
0003c0 8f 51 31 3e d4 4d 3d 3e 27 6e 67 3e e8 7e 3e be
       0.17316268 0.1848672 0.22600614 -0.18603098
0003d0 53 e0 71 bd f5 b1 07 be b1 82 4c 3e 31 37 d5 bc
       -0.059051823 -0.13251479 0.1997173 -0.026027294
0003e0 8a 55 cf bd 75 ee 18 3e 25 e1 13 be ea ae 3c be
       -0.10123737 0.14934714 -0.14441355 -0.184261
0003f0 74 31 12 3e d7 cb 4e be 2f 70 fe 3d 11 02 1b bd
       0.14276677 -0.20194946 0.12423741 -0.037843768

2.bias f4 [64]
000000 68 b8 8c 3e 7a 84 00 be 4f 74 4a 3d 83 19 bb bd
       0.2748444 -0.12550536 0.049427327 -0.09135725
000010 3f bc ec bc ab 8c a7 bd e4 e9 7c bd ec 0d f9 bd
       -0.028898356 -0.08181127 -0.061746493 -0.121608585
000020 63 c3 f5 3d 1c 8a 27 3b fd 60 96 bd ae 5e 3a 3c
       0.12000158 0.0025564497 -0.07342718 0.011375112
000030 64 04 6e 3c 55 72 30 bd 69 9a c2 bc ec 5d 81 bd
       0.014527414 -0.043077786 -0.02375527 -0.06316742
000040 e0 f4 e6 3c 1a ad eb bd 7c 5f b8 3c 4e 01 8c bc
       0.028192937 -0.11507626 0.022506468 -0.017090466
000050 41 43 40 bd 1b 0d ab 3c 60 a6 53 be 89 78 cc bd
       -0.04693914 0.020880273 -0.20668936 -0.09983928
000060 04 1c c2 bd 6c 22 28 be 5f 72 cb bd b1 2f d7 3c
       -0.09478 -0.16419381 -0.09933924 0.026267858
000070 48 10 d5 bd 15 2e a8 3d 21 f3 63 be e2 7e 33 bd
       -0.10403496 0.082119144 -0.22260715 -0.043822177
000080 bf 83 43 bd 32 e7 2c bd b4 97 ae bd d7 c1 be bd
       -0.047733065 -0.042212673 -0.08525029 -0.09314316
000090 a0 b0 88 bd 8c 1b 42 3c 4e 18 a5 bd 7d 87 81 be
       -0.066743135 0.011847388 -0.080612764 -0.25298682
0000a0 ce 99 6f bd 25 e6 09 bd d9 2c 8a bb 94 32 4e bd
       -0.05849629 -0.03366675 -0.004216772 -0.050341204
0000b0 6f db 61 be 16 a6 82 bd cf 28 e4 3d c7 e0 8d bd
       -0.22056364 -0.06379335 0.11140596 -0.069276385
0000c0 c1 42 5b be 33 3f 04 be 9d 01 6b bd 09 84 54 be
       -0.21412183 -0.12914734 -0.057374585 -0.20753492
0000d0 2d f6 49 3b e5 77 25 3e 41 70 15 3d 39 f7 e2 3d
       0.0030816898 0.16159017 0.036484007 0.1108231
0000e0 2c 54 22 bd b1 e2 b5 bd 71 0e 22 bd f1 b9 0b be
       -0.039631054 -0.088811286 -0.039564554 -0.1364515
0000f0 14 0f 6a bb 14 f4 a7 bd 29 3a d8 3d 7c fe bf 3c
       -0.0035714554 -0.08200851 0.10557968 0.023436777

4.weight f4 [14, 64]
000000 e3 14 a3 3c de 0e 48 ba 09 68 8e 3b 2f ac 9f bb
       0.01990742 -0.000763161 0.004345898 -0.004872821
000010 3f b2 87 3a ef 94 01 3b fb 60 bf ba 21 6c 03 bb
       0.0010352804 0.001977261 -0.0014601046 -0.0020053464
000020 21 23 77 3c 8b c6 e2 bb 52 49 7e bb 80 69 af bb
       0.015084059 -0.006920641 -0.0038801027 -0.0053531528
000030 15 32 4e ba 51 23 8a ba d0 e1 e2 3b c0 70 15 3e
       -0.0007865739 -0.001053909 0.0069238916 0.14593792
000040 b7 3e 7b 3c c1 72 d5 ba e1 0f 12 bb cb 29 06 bb
       0.015334777 -0.001628481 -0.0022287297 -0.0020471688
000050 a0 5d 8c bb 0e e9 a8 37 19 c5 2e 39 c1 0e d7 bd
       -0.004283622 2.0135685e-05 0.00016667358 -0.10500861
000060 8a de 0d bb 3c a4 4e 3a 51 e9 2f bc 2a 73 5c 3c
       -0.0021647536 0.0007882749 -0.010736779 0.013455192
000070 c5 c2 b1 ba 06 65 f5 b9 a5 2a fd 39 1c 5f c1 3b
       -0.0013562074 -0.0004680531 0.00048287693 0.0059012305
000080 0e 26 9d bd 9f e2 fa bd ab ea 11 be 06 5b 19 3c
       -0.07673274 -0.12250256 -0.14249675 0.009360081
000090 f9 ff 2e bb 32 77 17 ba fe f5 80 bb 60 05 92 ba
       -0.0026702865 -0.00057779544 -0.0039355746 -0.0011140518
0000a0 5b b5 4b ba d8 e0 44 be b0 0c 33 ba 27 1a 31 3b
       -0.00077708595 -0.19226396 -0.00068301987 0.0027023645
0000b0 a5 98 e7 ba bb c6 22 3b 4f 79 83 3b 44 45 8d 3a
       -0.0017669393 0.002483769 0.004012264 0.0010778089
0000c0 2d 4c 85 b9 63 7d 6b bc 66 b1 fb ba 5a 1d 9f 3b
       -0.00025424492 -0.014373156 -0.0019202649 0.004855794
0000d0 bd 70 75 ba 6d c5 3d 3c 8f a4 c6 b9 cc 5e cd 38
       -0.00093628076 0.0115827145 -0.0003788811 9.792819e-05
0000e0 6e 6e 82 ba d9 10 8c 3a 7e 88 13 3c a8 b3 a2 38
       -0.0009951124 0.0010686173 0.00900471 7.7582255e-05
0000f0 f4 cd 4a 3b c9 43 02 3a df ba e9 3b bd f0 47 bb
       0.0030945512 0.0004969207 0.0071328725 -0.0030508481
000100 90 15 75 3e c7 7a 0e 3d 50 e3 8c be bb c1 a4 3e
       0.23934007 0.03478506 -0.27517176 0.32179055
000110 ac 71 27 be 24 64 f5 3c ae c8 ef bc 4c 48 8a be
       -0.16351956 0.029954977 -0.029270496 -0.27008283
000120 59 3a 34 bd 1c 3a 48 3e df e5 90 bd 23 2f 32 be
       -0.044000957 0.19553417 -0.070750944 -0.17400794
000130 e3 0b 98 3e ec d4 15 3c 2a 46 8a bd 70 a7 38 bd
       0.2969657 0.009145003 -0.06751664 -0.045081556
000140 f7 b6 04 3f c3 7f fb 3c 08 17 36 3d f3 e9 de 3e
       0.5184168 0.03070057 0.044455558 0.43537864
000150 ac 5e 30 bb e6 90 93 3e ec d7 9f bd fa f9 a9 3d
       -0.0026911898 0.28821486 -0.07804856 0.08299632
000160 ac 5a 42 3d af 05 4e be 26 0a 3b 3e f3 68 ac bc
       0.047449753 -0.20119356 0.1826559 -0.021046137
000170 de 13 99 be bb 1e 57 3e 0c c6 aa be da e6 aa be
       -0.2989797 0.21007816 -0.33354223 -0.3337925
000180 39 da 2d be 67 15 60 be f6 53 16 be 8d 5e fc 3d
       -0.16977777 -0.21883164 -0.14680466 0.12322722
000190 8c 1a 13 3e 9a 4b 2f be 40 6e 2a bd dc b5 cd 3e
       0.14365596 -0.17118683 -0.04160905 0.4017781
0001a0 9f 24 89 bc d0 10 1d 3e 20 b1 5b be d4 67 83 3e
       -0.016741095 0.15338445 -0.21454287 0.25665152
0001b0 5f fb 23 3e 48 01 7e be bc 8b ce 3e 68 25 4a 3e
       0.16013859 -0.24805176 0.40340984 0.19740832
0001c0 65 5f 9e 3c f5 e9 f0 3d 5f cd a5 be d1 1c e3 3d
       0.019332597 0.11763374 -0.32383248 0.11089481
0001d0 9c 0f 89 3d 6c b6 94 be 06 8b 15 3e 20 b5 13 be
       0.066924304 -0.29045427 0.14603814 -0.14424562
0001e0 a7 a5 d6 3d 86 db a8 3c a7 00 14 bf 84 f9 bc 3e
       0.104808144 0.02061249 -0.57813495 0.36909115
0001f0 f4 d7 9a bd db f2 76 3e c8 e7 d1 3e 45 db d4 3d
       -0.07560721 0.2411608 0.40997148 0.10393385
000200 0d c4 e3 bc 0b a2 80 3e b5 85 f5 bd 56 63 e2 3d
       -0.027803445 0.2512363 -0.11988393 0.11054103
000210 1a e3 dc be 14 59 77 be cf 91 92 3d e9 d5 88 3e
       -0.43142015 -0.24155074 0.07156717 0.267257
000220 bd 24 9b 3d 47 af 9a be a6 24 04 be 0c 00 24 bd
       0.07575367 -0.3021185 -0.12904605 -0.040039107
000230 75 dd c0 bd b7 d8 5c 3e da 54 82 3e 87 1e 60 bc
       -0.094172396 0.21567045 0.25455362 -0.013679153
000240 ff b8 4e 3e 75 ba d1 3c 6a 59 83 b8 e7 70 53 3e
       0.20187758 0.025601605 -6.2632214e-05 0.20648538
000250 20 0f 41 be 56 98 cf bd 6e 2e f3 3e de 8c a7 be
       -0.18853426 -0.10136478 0.4749636 -0.3272466
000260 6a 8c a6 be 6f 06 21 be 69 7d 14 be fd e5 0b be
       -0.32529002 -0.1572511 -0.14500965 -0.13661952
000270 f9 b7 4f bd 1e c4 f4 3e 45 11 85 be 93 a0 7a bd
       -0.05071256 0.47805876 -0.25989738 -0.06118829
000280 94 64 04 3e d9 de 27 3d ec 6d 1e 3e 25 c5 13 3e
       0.12928993 0.04098401 0.1547162 0.14430673
000290 b4 bb 45 3e f5 08 d9 3e ee c0 65 3d 6c ac d2 3e
       0.19309884 0.42389646 0.056092195 0.41147172
0002a0 8a 5e 54 bd f6 a9 00 3e e8 10 59 be d6 58 51 3d
       -0.051847972 0.12564835 -0.21197855 0.05111011
0002b0 e9 59 0d 3f 38 5e 3e be 13 45 10 bd 40 5d a3 be
       0.55215317 -0.18590629 -0.035222124 -0.31907082
0002c0 e3 a7 38 be f1 9a ea bb 8e 81 2c 3e 40 4b 32 be
       -0.18032794 -0.0071595837 0.16846296 -0.17411518
0002d0 c0 37 a3 be 4c d7 4f bd 86 88 c3 3e 65 01 7f be
       -0.3187847 -0.050742432 0.38190097 -0.24902876
0002e0 ea 2e b3 be ac 64 d8 bc d2 94 d5 be 8e df a7 3f
       -0.3499673 -0.026415192 -0.41715103 1.3115098
0002f0 7e 9e 1f 3e ad 89 78 3e d1 fa 50 3e 52 fa 3d 3e
       0.15587804 0.24271269 0.20408179 0.18552521
000300 dc 52 66 3e 41 8f 63 3e 5e c8 77 bc 67 e6 9b bd
       0.22492546 0.22222616 -0.015123455 -0.07612305
000310 bc 78 5f 3e a1 52 28 bd 09 8d 4a 3d ab cc 98 bd
       0.218234 -0.041094426 0.049450908 -0.07460912
000320 6a c4 22 bf ba 01 94 3e 09 0d 81 3e 39 22 9e be
       -0.63580954 0.28907567 0.25205258 -0.30885485
000330 1d eb 8d be 4d 24 af 3b 79 53 6b 3d 0f ec 90 bd
       -0.2771844 0.0053449036 0.057452653 -0.070762746
000340 a6 2c 31 3e a7 f0 9d 3e e2 e7 46 3e e6 90 cb bc
       0.17302188 0.30847666 0.19424394 -0.024849366
000350 93 40 69 3e 7f f1 5f be d0 ba 45 3e ee bf e5 bc
       0.2277854 -0.21869467 0.19309545 -0.02804562
000360 ee 36 b6 bc 34 f9 58 3e 93 cc 2b be dc fa c3 3e
       -0.02224299 0.21188813 -0.16777258 0.38277328
000370 41 0d b8 3d 56 dc 83 be b8 eb 75 bb bd b0 83 bd
       0.08986903 -0.2575404 -0.0037524533 -0.064301945
000380 a6 87 85 bd e2 75 11 be 91 41 88 be 6f 16 33 bd
       -0.065200135 -0.14205125 -0.26612523 -0.043722566
000390 f1 0b 47 3d 8d 68 2b bd d1 b7 c2 bd c9 62 3b bd
       0.048595373 -0.041847754 -0.095077164 -0.045748506
0003a0 c3 5d d0 3c 10 80 1c be 4f fb 1f be 07 1d 07 be
       0.025435334 -0.15283227 -0.1562321 -0.13194667
0003b0 ef 11 e7 bd 73 25 b6 3d 10 3b 43 3e 77 25 07 bd
       -0.112827174 0.088938616 0.190655 -0.032994714
0003c0 0c b6 f3 3b 76 94 0f bd 91 8e c0 3c 19 bd 0a 3e
       0.007437473 -0.035053693 0.023505481 0.13548698
0003d0 59 30 50 3e 56 de 41 be 81 3f bf bd 27 cd d7 3e
       0.20330943 -0.1893247 -0.09338284 0.42148706
0003e0 3a b7 bc 3e 3c 68 59 be 47 e4 af 3d 7a 23 1d bf
       0.3685854 -0.21231169 0.08588462 -0.6138226
0003f0 66 93 82 be 65 07 dc bd fb 8f db bd 19 dc 25 3e
       -0.2550308 -0.10743598 -0.107208215 0.16197242

4.bias f4 [14]
000000 11 02 71 bc 73 d1 64 3d b0 c1 06 bd 3a 29 c1 bd
       -0.014709965 0.05586381 -0.03289956 -0.094316915
000010 62 a6 86 be e7 33 4c 3e c0 1f 4b be f9 b4 99 be
       -0.26298815 0.19941674 -0.1983633 -0.30020884
000020 ef 1b fd 3e a7 04 f0 3d fc 88 a1 39 45 48 0a 3e
       0.49435374 0.11719637 0.00030810374 0.13504131
000030 a4 67 8c 3e 2a d6 41 bf
       0.27422822 -0.75717413
