demo/specular_net.pth (torch, 26519 bytes, 6 tensors)

0.weight f4 [64, 28]
00000000: a4c0 e33e c6e8 8fbc 26d7 31be e35f 7cbe
00000010: 74ff 843e 6598 0b3f 7328 80bc 804d ae3e
00000020: cc22 be3e 94fd c33e bd29 9e3d b2ce 503e
00000030: b68a 133c 119a 02bd e3be 09bc 6066 85bd
00000040: 7e89 f53c 181f b33b f64f 7a3e 7342 d4bc
00000050: bf0c 863d 0ba9 05bd 73f5 123e 1f0b 95bd
00000060: dece bdba 41f5 5ebd 92a3 fa3a 889a a8bf
00000070: d7da b2be a2cd adbd 1dfb acbe fafa ebbe
00000080: 1daa 353d 4eca d03a ca57 61be b693 d2bd
00000090: 0497 eb3e 6355 8cbe d3c7 bbbe 8022 e03c
000000a0: 937c 613d a759 7ebd 6f03 f73c 9b34 0bbd
000000b0: ed2a 043d 2d37 143f ff8f 873d a389 0a3e
000000c0: bc3e 8b3e 374a 7fbd 3f7e d03e f21e 5d3e
000000d0: ccf8 a1bd 5379 9a3e d86e 4dbe f5e4 983d
000000e0: 84a5 7f3c ab59 5abe 3c32 9b3e aa12 763e
000000f0: acb7 a93e 0575 113e b4e5 893e 37ac bb3e
00000100: 9c29 54be e10e 8dbe 5ba4 403f 8ae1 033f
00000110: 12c3 013d 5403 90bd 5ad9 5bbd ab0a b43e
00000120: ab37 b13d 48da 02bf 127d 333e 47fc 9cbe
00000130: 1ee8 29be a077 6b3e 77db 2abf bd42 b5be
00000140: c493 a03d a243 053e e42c c83e 0859 13bb
00000150: 8d0e c23e d932 103f 6a48 d8bd 782c db3d
00000160: 4e24 26be 288e 3dbe 8d0e 153e 547c c0be
00000170: 7aaf 943e e6d0 1a3e 41cf c3be f599 c5be
00000180: 7549 c43d b4a0 a83e 145d 1b3e c97d 053e
00000190: 418f 44bc ca7c 36be f2b9 e63d ced4 d7bd
000001a0: 0815 383c 5bfe 033e 8a66 6bbe ed57 66be
000001b0: d1c0 833d 9d3b f43e 52f7 20bf 83a7 903e
000001c0: 8d45 af3e 00ef 14bd 61e6 163e 0cb9 993e
000001d0: 139f a1be 3ccb 513e 107a f13d a90a 8e3d
000001e0: 5aa2 863d 90ae 4fbc 75f0 703c 7282 fdbe
000001f0: cddc b0be d1a7 bd3e a99b 04bf cda0 2b3e
00000200: 71bb 533e 6831 aa3d 8333 2dbf b08b 8e3c
00000210: 69e8 2fbf 1b33 eebe 187d 23bf d807 c93e
00000220: eb0a ebbe 1f5c 493e 2ff8 023e 9943 aebb
00000230: 684f 98be 9f69 9bbd 05d0 953e 72a6 c43d
00000240: 606c c8bc dd4e 9f3e d9e3 013e 1682 3c3d
00000250: 86c4 063c bb1c 07bf cb7c a63e 9c03 743e
00000260: 9704 96ba 0d88 93be aec0 113e 18fb 8c3d
00000270: 8c07 64be db9f c6be b98c 023f 8b98 363f
00000280: ff43 a03e c5af 6e3f 43ba 0d3f 6ac3 5bbe
00000290: 1c84 4b3e 2a3a 58be e6e3 42be 0e6f 843e
000002a0: 3a2e e8bd 40c9 bd3e 7da9 f5be 5ed4 2e3d
000002b0: 1916 183f 7249 7ebd f3a4 2ebe dbb0 7dbe
000002c0: 034a eb3e d1d3 113e a08a 81bd d133 edbe
000002d0: f5ff 873b 89fb 66bd 45e7 aaba 660b 95be
000002e0: 84ad 97be aaf8 ed3d 8691 bd3e 06ab 4ebe
000002f0: beda 3abe 18d0 2b3e e202 093f 2c17 0ebf
00000300: f1d6 1d3f 3633 bcbe fc71 10be f6a1 58bc
00000310: 688d c1be 8688 0cbe bd83 50be 785d 51be
00000320: 6815 293e 4b66 76bc 0924 a53e 3c85 07be
00000330: 015c c43d 0a3c 06bf f712 c6be f62b 113e
00000340: cc5d bcbc d94d 3abd 4cca 5e3d 2673 96be
00000350: 52c8 e13e 5fbd 2e3f 2799 103f e494 823d
00000360: 66bd 843d 2690 34bd c2cf 6c3e feed 843e
00000370: d96e 90be bb12 923e e772 3dbe e1cf 4cbe
00000380: dcd8 efbe f231 9ebe 651b 0f3f caf5 bebd
00000390: 7c20 a6be 7552 e33e 2d6e a9bd efba a7be
000003a0: 5a9f edbe 9cbe 95be 8882 d93e 99b1 0d3e
000003b0: 4bd1 90bd d788 063e b959 00be 7aca f9bb
000003c0: 8dc7 35be e5de 913e 3c03 04be 4749 81be
000003d0: 5a3c ae3e 24d7 093f 11a7 d23e 99a4 263e
000003e0: 61fc 943e 85c6 ec3d 6660 5ebd 037e 8e3c
000003f0: ecd3 c43e 37e4 1a3f 3dce 3fbf 45ec 8bbe
0.4448291 -0.01756705 -0.17367229 -0.24645953 0.25976145 0.5452941 -0.015644288 0.34043503
0.37135923 0.38279402 0.07722805 0.20391348 0.009005239 -0.03188521 -0.008407327 -0.06513667
0.029972788 0.005466353 0.24444565 -0.025910592 0.065454 -0.032631915 0.14351444 -0.07277512
-0.0014481207 -0.05443311 0.0019122234 -1.3172159 -0.34932587 -0.08486487 -0.33785334 -0.46089917
0.044351686 0.0015929432 -0.22006145 -0.1028208 0.46013653 -0.27408895 -0.3667589 0.0273602
0.055050444 -0.062097218 0.030153004 -0.033985715 0.0322675 0.5789669 0.06619262 0.13529067
0.271963 -0.062326636 0.40721318 0.21593836 -0.07908782 0.30170688 -0.20061815 0.07465545
0.015603427 -0.21323268 0.30311763 0.24030557 0.33147943 0.14204796 0.26933062 0.36654827
-0.20718998 -0.27550414 0.75250787 0.5151602 0.031680174 -0.07031885 -0.05367408 0.3516439
0.08653196 -0.5111432 0.1752818 -0.30661222 -0.16592452 0.22994852 -0.66741127 -0.3540248
0.07840684 0.13014081 0.3909675 -0.0022483487 0.37901726 0.5632759 -0.10560687 0.10701841
-0.16224787 -0.1851126 0.14556332 -0.37594855 0.29040128 0.15118751 -0.3824406 -0.38594022
0.09584323 0.32935107 0.15172225 0.13036264 -0.011997045 -0.17821041 0.11265935 -0.10538636
0.011235483 0.12889998 -0.22988334 -0.22494479 0.06433261 0.4770173 -0.6287738 0.282528
0.3423275 -0.03636074 0.1473632 0.30023992 -0.31566676 0.20487684 0.1179086 0.06935627
0.06573935 -0.012675896 0.014705767 -0.49513584 -0.34543458 0.37042096 -0.5180002 0.1676056
0.20676972 0.08310205 -0.67656726 0.017400593 -0.68714005 -0.46523365 -0.6386275 0.39263797
-0.45906767 0.19664048 0.12789987 -0.005318117 -0.29748082 -0.07588505 0.2926027 0.096020594
-0.02446574 0.31114855 0.12684573 0.046022497 0.008225566 -0.52778214 0.32517084 0.23829502
-0.001144546 -0.28814736 0.14233658 0.0688383 -0.22268504 -0.38793835 0.50995976 0.7132651
0.31301877 0.93236953 0.5536234 -0.21461263 0.19874614 -0.21115938 -0.19032249 0.25865978
-0.11336942 0.37067604 -0.47980872 0.042682998 0.5940872 -0.06208176 -0.1705511 -0.24774496
0.45954904 0.14240958 -0.06325269 -0.46328595 0.0041503855 -0.056392226 -0.0013038894 -0.2911026
-0.2962457 0.116196945 0.37025088 -0.20182428 -0.18247506 0.167786 0.53520024 -0.5550411
0.616561 -0.3675782 -0.14105982 -0.013222208 -0.37803197 -0.13723955 -0.20362754 -0.20445812
0.16512072 -0.015039037 0.32254055 -0.13234419 0.09587861 -0.5243536 -0.38686344 0.14176926
-0.022993945 -0.045484398 0.054392144 -0.29384726 0.44098145 0.6825771 0.5648369 0.06376055
0.064814374 -0.044082783 0.23126128 0.25962824 -0.2820957 0.28529915 -0.18500863 -0.20001175
-0.46845138 -0.3089748 0.55901176 -0.09324224 -0.3244666 0.44398847 -0.082729675 -0.32759807
-0.46410638 -0.29246986 0.424824 0.1383728 -0.070711695 0.13138138 -0.12534226 -0.007623014
-0.17751904 0.28490368 -0.12891859 -0.2525122 0.3403042 0.53843904 0.41143087 0.16273727
0.290988 0.11561302 -0.05429115 0.017394071 0.38442934 0.6050448 -0.7492407 -0.27328697

0.bias f4 [64]
00000000: 3de1 4e3e 8fea d73c 5e5c f23c 32c2 adbc
00000010: 01c1 22be 1335 573d cba6 b73d aad8 533c
00000020: 04c8 d0bd b7cd 9b3c d93b 87bd 3f2b 78bc
00000030: 2062 8cbd 68be debb 6f3d 63bd 355d 073e
00000040: a483 e33d 2338 983d 9bb8 2a3e 1c89 febd
00000050: 29d8 df3c 0680 dcbd b58b 15bd 0e1e 893c
00000060: 9f51 33be 514c 50bd 8cd5 a33d 2983 16be
00000070: 97ff 35be c10b cc3d 1891 c8bc 133c 973b
00000080: 965c fc3d 267e ad3b 2126 dcba 22f1 3cbd
00000090: 9a58 89bc 541c 9b3d d60d 87bc ab1e 18be
000000a0: 5b59 d2bd 7200 d8bd 18cb 833c ce06 a83c
000000b0: 4e93 03be 690e ec3d b121 003e e695 c53d
000000c0: 2373 0bbd c0de fcbd 54dc cbbb 31f5 0f3e
000000d0: 1095 98bd 9246 0b3d 1b92 e23d e304 28bd
000000e0: 60de 8abd bd24 9f3c 7ff3 873d 813e 3bbd
000000f0: b0b1 60bc 3540 17bd 8ceb 763d 1e74 9b3d
0.20203109 0.026356963 0.02958506 -0.021210764 -0.15893938 0.05254085 0.0896736 0.012930075
-0.101944 0.01901899 -0.06603212 -0.015147029 -0.06854653 -0.0067976005 -0.05547851 0.1321915
0.11109093 0.07432582 0.16671984 -0.12428495 0.027324753 -0.10766606 -0.036510188 0.016737964
-0.17511605 -0.05085403 0.07999715 -0.14698471 -0.17773281 0.099631794 -0.024483249 0.0046153157
0.12322347 0.005294579 -0.0016796031 -0.0461284 -0.016765881 0.075737625 -0.01648609 -0.14855449
-0.102709495 -0.1054696 0.016088054 0.020511057 -0.12849161 0.11526186 0.12512852 0.096477315
-0.03404535 -0.12347174 -0.0062213335 0.14058377 -0.074503064 0.034002848 0.11063024 -0.041020285
-0.06780696 0.019426698 0.0663824 -0.045713905 -0.013714239 -0.036926467 0.06028323 0.07590507

2.weight f4 [64, 64]
00000000: 115d aa3d 511f 8f3e 218d 8bbe 5618 b8be
00000010: 4d9b 76be 6d64 dd3c 922c 243d ea4b 5a3e
00000020: 5760 8c3e ea59 babe 9d23 7cbe 8b7d 94bd
00000030: 2aa3 5fbe 3535 fabd c3c5 633e 8855 61bd
00000040: 216d a03d f48d 783e 98d0 0abd d3e7 2bbe
00000050: fc5e 94be ff87 13be 31d8 a53e 3a1d 0dbf
00000060: 22d6 d1bc f783 c4bd 7cec 7b3e 4208 933c
00000070: a559 de3d ba92 9239 cfaa 5c3e 4dd1 82bd
00000080: d8cd 76bd 8200 14be cea1 393e 8541 403d
00000090: 4033 bcbe 04f6 c4be 193e ecbd ca30 31bf
000000a0: e45a 2dbf baed f93d b01e a13e 2128 743e
000000b0: d367 86bc 595a 4fbe 11f9 b33e ab21 0a3f
000000c0: b8cc 183e b2a5 88bf 4f2b 243d e44b 253e
000000d0: 6797 8bbd c3d4 ee3d bb2c 6cbd dc67 713e
000000e0: 86d8 b43d dc90 e13d 41bd cfbd 1d10 c23e
000000f0: 1711 883d ce8a 54bf 05af a43e 4f99 bfbd
00000100: 2599 0d3f 8c1f 1bbd f0a0 393d 263b c4be
00000110: 1b1e d9bd c035 10be 7499 6bbc 022e a8be
00000120: 6adf 24be 0324 9cbe da66 a83d 56f5 883e
00000130: 60ef fb3e 4e72 ac3e 68e0 b2bd af07 1cbe
00000140: d0a8 c9be 7ba7 c0be 1395 be3e 2f6e 173e
00000150: 0adf 0cbd ba94 f8be 2098 8b3d 172d e43d
00000160: d9a0 053f dc87 3fbe 865d 98be 852b a9be
00000170: 088b 17be db84 2fbf efc0 9bbd b424 81be
00000180: 93eb 9d3e a528 743e 30f8 aabd d35f eb3e
00000190: b3bd 14bf 142f cf3e b34f 0c3e 45c6 8cbe
000001a0: f63d 913e f6f4 c2be e10e 763b 9d37 d73e
000001b0: b1bb 7e3e b497 7d3e 4f63 e43e c3b3 6f3d
000001c0: 1fc7 cbbc 9093 403f 8a43 453e 8466 213e
000001d0: 260e f03d 25b2 953e d810 de3d e574 05be
000001e0: 3966 713e 1fb9 b9be 0b93 ab3d c176 ad3d
000001f0: 05c9 843e aa0c 203e fc68 8abe af8d 8dbe
00000200: cbe8 9c3e cc82 a43e 204a 08be dd22 4d3e
00000210: 4db4 89be 0628 b6be f342 bebd 183d 963e
00000220: 8df7 26be 49ee ffbe 76a3 f83b 99bc 2a3e
00000230: dcec 7abe 57f7 6f3e 1576 313e edb0 4dbe
00000240: a248 e5bd 291a 52be ceb7 773e 8e5f 0d3f
00000250: f2a3 07bf 0ea3 383d e7ce 243e c1fb 473d
00000260: 3df8 2dbe 003c 86be 9474 c13e 4a60 1dbe
00000270: e66d 49bd e5f9 efbe 443f ed3d 6bc8 71be
00000280: f864 3a3e b52d d8be aa0c ed3c 8702 c93d
00000290: abb2 be3d 9671 d8bd 3863 c53c 8981 32be
000002a0: 2e33 44bf a290 57be efb7 70be 3a07 093e
000002b0: e50e 25bf 5739 e33e d563 a43d 7c6c 973e
000002c0: 6f10 c7bc 9a89 abbf 1877 2e3e c759 0e3f
000002d0: 9e8b 743e de9b 963e c0f8 4d3e 80d6 b33c
000002e0: dea5 d23d 92fe 3d3d c489 863d a7c8 463d
000002f0: 6024 da3e f069 2abe d63e d7bc 7e92 3a3e
00000300: 8ac8 6cbe ecc7 efbd 9cbe 3dbe 518a 373b
00000310: 5450 04be fbfb 8dbe 016c 873e c4d6 00bf
00000320: c3c6 f13d 4693 a5be bd2c ec3e 99fe 1b3f
00000330: b9a9 903e eaf5 d83e 07a7 13be b154 2739
00000340: dbac a83e 6ae8 6c3d aeb7 043d e28e d03e
00000350: 3c95 11bd 8451 f2be 7a37 15be 9668 13be
00000360: f15e 3e3e e9b3 9bbe 000a 25be 7cf5 36be
00000370: 18f4 75be e647 98bd 02cb fd3c ce27 933e
00000380: 4609 64be 10af 68bc a66f 73be 3670 943e
00000390: 09d1 f13b 05ae babe a32b d93e 436d cbbd
000003a0: fa09 c83e 5684 2bbe ee0d 4d3d 0544 8d3e
000003b0: 9182 913e 6a57 8f3e b46f 13be 7c74 a13d
000003c0: 665b d23e a987 bf3e 948b 403d ab2b 863e
000003d0: ce40 f53e ab17 303e 17b0 473e 29c6 67bd
000003e0: da37 993e 1ab7 a0be a8ee f53c 4e15 b63d
000003f0: 35ff 083e 26a0 88be 04c6 053f f1c5 143f
0.08318532 0.2795358 -0.2725611 -0.35956067 -0.2408268 0.027025426 0.040081568 0.21318021
0.2741725 -0.36396724 -0.2462296 -0.07250508 -0.21839586 -0.1221718 0.22243409 -0.05501321
0.07833315 0.24272901 -0.033890337 -0.16787653 -0.28978717 -0.14407347 0.32391503 -0.5512272
-0.025614802 -0.09595483 0.2460193 0.017948274 0.10856942 0.0002795661 0.21549533 -0.06387577
-0.0602549 -0.14453319 0.1812813 0.046937484 -0.3675785 -0.38468945 -0.11535282 -0.6921507
-0.67716813 0.12203546 0.31468725 0.23843433 -0.01640693 -0.20249309 0.3515096 0.53957623
0.14921844 -1.0675566 0.040080365 0.16142231 -0.06815987 0.11661675 -0.057659846 0.23574775
0.08830361 0.11013958 -0.10143519 0.37902918 0.06643885 -0.830243 0.3216478 -0.09355413
0.55311805 -0.037871882 0.045319498 -0.38326377 -0.10601445 -0.14083004 -0.014379848 -0.328476
-0.1610085 -0.30496225 0.082227424 0.26749676 0.49206066 0.33680958 -0.08734208 -0.15237306
-0.39386606 -0.37627777 0.3722311 0.14788125 -0.034392394 -0.4855097 0.06816125 0.11141413
0.5219856 -0.1870417 -0.29758853 -0.33041015 -0.1479913 -0.68562096 -0.076051585 -0.25223315
0.3084379 0.2384363 -0.08348119 0.45971546 -0.5810196 0.40465605 0.13702278 -0.27495018
0.28367585 -0.38077515 0.003754549 0.42034617 0.24876286 0.24764901 0.44607016 0.058521044
-0.024875222 0.7522516 0.19264045 0.15761763 0.117214486 0.29237476 0.108430564 -0.13032873
0.23574151 -0.3627405 0.083776556 0.08469916 0.25934616 0.15629831 -0.27033222 -0.27647159
0.30646357 0.3213104 -0.13309526 0.2003283 -0.2689537 -0.3557741 -0.09290113 0.29343486
-0.1630537 -0.49986485 0.0075878454 0.16673507 -0.24504417 0.23434196 0.17330201 -0.20087023
-0.11195494 -0.20517792 0.2419121 0.5522393 -0.52984536 0.045077376 0.16094552 0.048824076
-0.16989227 -0.2621765 0.37784255 -0.15368763 -0.049177073 -0.46870342 0.115843326 -0.2361161
0.18202579 -0.42222372 0.028936703 0.09814935 0.09311422 -0.1056854 0.024095163 -0.17432226
-0.76640594 -0.21051267 -0.23507665 0.13381663 -0.6447585 0.44379684 0.08026854 0.29574955
-0.024299828 -1.3401368 0.17037618 0.5560574 0.23881385 0.29415792 0.20114422 0.021952868
0.10285543 0.046385355 0.065692455 0.0485312 0.42605877 -0.16641974 -0.02627508 0.18219945
-0.23123375 -0.11708054 -0.18529743 0.0028006027 -0.12921268 -0.27731308 0.26449588 -0.50327706
0.11805489 -0.32338923 0.46127883 0.6093536 0.28254488 0.42375118 -0.14419185 0.00015957911
0.32944378 0.057838835 0.032401733 0.4073401 -0.03554271 -0.47327816 -0.14571944 -0.14395365
0.18590905 -0.30410698 -0.16117096 -0.17867082 -0.24018896 -0.074355885 0.03098059 0.28741306
-0.22269163 -0.014201894 -0.23773059 0.2899186 0.0073796553 -0.3646089 0.42416105 -0.099329494
0.39070112 -0.16749701 0.050062113 0.27590957 0.28419927 0.2799638 -0.1439808 0.07883546
0.41085356 0.37408188 0.047008112 0.2620519 0.47901005 0.17196529 0.19500767 -0.056585465
0.29925424 -0.31389695 0.030021027 0.08890782 0.13378604 -0.26684684 0.5225527 0.58114535

2.bias f4 [64]
00000000: 2843 113e 53a2 33bd 850f 833c 55fe 3e3d
00000010: 4dab e13d aee8 f0bd 0397 21be 57bf 50be
00000020: 442c 39bd 574d 493e c8a3 86be 30a4 cebd
00000030: 508d b73d 4a5a 9cbb 80e0 763d 7215 f5bb
00000040: c3aa bcbd 14dd 5cbe 26bc 0abe 2aec 06be
00000050: cf8a 063d 01b2 2abe fe81 bcbd f37c 5fbe
00000060: 98dd 97be b876 34bd 44b5 f3bd 7ad6 5e3d
00000070: 8ecb b9be e1ea 4cbe 1516 17be 6b59 923c
00000080: 2269 84bb 947f c33d 6fb9 b33c a0af 11bd
00000090: 9653 b2bd d984 8d3d 85b1 c13d 69b9 963d
000000a0: 248b c1bd 5ea6 233c 318a 1e3d 5976 bdbd
000000b0: da43 cd3c 2ab9 12be 005d 64bd e315 adbd
000000c0: 7cdc 93bd f186 76be 58bc 9d3d 11a9 acbc
000000d0: f531 e3bd ed27 8abd e94d 6c3c 274c 71bc
000000e0: 4fdb a63c 14d7 39be 6eb5 0cbe 8cb2 853c
000000f0: 7486 91be a416 9ebe d172 4cbe cfc7 dc3c
0.14185774 -0.043855976 0.015998611 0.04662927 0.11019001 -0.1176313 -0.15780263 -0.2038549
-0.04520823 0.19658409 -0.2629683 -0.1008991 0.089625 -0.0047715055 0.060272694 -0.007479363
-0.09212258 -0.2156871 -0.13548335 -0.13176027 0.032847222 -0.16669466 -0.092044815 -0.21825008
-0.2966125 -0.04405853 -0.11899808 0.05440376 -0.36288112 -0.20011474 -0.14754517 0.017864903
-0.004040853 0.09545818 0.021939008 -0.03556788 -0.08707349 0.06910104 0.09457687 0.07359583
-0.09450367 0.0099883955 0.03870601 -0.09251089 0.025056768 -0.14328447 -0.055752754 -0.0845144
-0.072197884 -0.24074914 0.07701939 -0.02107671 -0.11093513 -0.067458965 0.014422872 -0.014727629
0.020368246 -0.18148452 -0.13741085 0.01632049 -0.28422892 -0.30876648 -0.19965674 0.026950745

4.weight f4 [3, 64]
00000000: 30af 8c3e 1132 47be 51a8 a53e 16ae bbbe
00000010: 1916 0fbe 6911 97be 612d 4fbf 336a d03e
00000020: 5fa9 dabe ec7d e8be 2bfc b33d 7271 16be
00000030: 7fa4 93bc 3ea9 cb3d cb5c ad3e 6ecc 10be
00000040: 8e23 9bbe f8a2 38be 52f9 04be 5895 21bf
00000050: 961f 833e a841 bfbe 5531 5ebd 3578 253e
00000060: 86a5 99be 7502 14bf 960b ecbd 78f5 22bd
00000070: 4986 873e 6701 b1bc 4e98 d63e 4982 803d
00000080: 5cf0 09be eb50 55be d66b 3ebe 9260 e73d
00000090: 2e44 1dbe 9157 353e 4687 a7bd 6e0b 49be
000000a0: c4f5 34bf a681 a6be e41a e33d 5cce bc3e
000000b0: 1f37 7e3e 2788 943e 572a 223e 7485 253e
000000c0: 8062 243e 2215 3dbd 43fb bb3e 011e fdbe
000000d0: f6cb 1f3e c560 05bf 6cf4 393d 2239 3abe
000000e0: 3076 7dbe 9c66 e33e c6db c7bc 51e1 7fbc
000000f0: a6a7 093f 28a5 0c3f cb99 873f 7bc7 5b3e
00000100: de24 a63e 346c 2fbe 8a28 fe3d 58b7 88bc
00000110: 69d4 733e 51e6 86be 7cd1 2dbf 26e2 bc3e
00000120: 8c32 2fbe 9a5f 62be d8d9 b73e 277b 0bbe
00000130: 9cd5 3abe bc66 803d 144e c03e 67ff fb3a
00000140: 562d 04bb 5f7c aabe 1282 59be 60a6 57be
00000150: 2760 dd3b cab9 87be 2a52 93be 95a5 73bd
00000160: d60c 85bc 143b cdbe 016b e23d f182 d9bd
00000170: f204 3d3e 658c f33d dffb d03e 2762 a13e
00000180: 4230 d3bd 76f6 2b3e 063c 64be e3d9 edbe
00000190: 7df2 e13d 03cf 313e 94c2 0bbe 013f 0dbe
000001a0: 6d1e 4dbf d066 5fbd 081b 413e fe72 b83e
000001b0: cd2a 303e a69a e1be 3fa0 8d3d c993 c0bd
000001c0: 6dcf 8b3e c77e b6bd 4ded f23d 6c5a 0abd
000001d0: 1cda 2cbc 9e6a 6e3c 9a8b 5fbe cd40 16be
000001e0: 7af1 cfbd df44 e23e 8a0c 16be e5cb 96be
000001f0: 0c63 093f dae5 f73e ba30 853f 28dc 8b3e
00000200: e029 723e 86e5 5ebe 9002 043e 0b89 3f3d
00000210: 15dd 1dbd 10ae 50be 362a dbbe a4e5 b13e
00000220: d267 0fbe 0d4d 95bb 04cb bcbe 5430 6ebe
00000230: 79f9 c8be 5c77 b1be f02a ba3e 0e49 8c3e
00000240: 0b31 103d b4f9 25bf 83ab bdbe c76c d33c
00000250: 24fb 4e3e 48da c13b 1572 c1bd f863 ddbe
00000260: 4c89 623e 7419 f1be 091b a73e 67c4 23be
00000270: 199e 503f 4319 313e d876 be3e 6d61 213e
00000280: 96b2 ce3d 7bc7 79be caeb 51be 025b 163e
00000290: ef2c 71be 0cf3 383e 755c 67be d69b dcbd
000002a0: 2d86 4bbf 6b8a 0f3d bd13 503e 0cb5 b43e
000002b0: 2abf bc3d 3109 dbbc da91 a8be 7db0 d9bd
000002c0: 572f b73e d00d 2fbf a216 af3c 5e14 be3e
000002d0: 76c8 4bbe e655 263e 06e7 3d3d dc48 b8bd
000002e0: 5569 c8bd a9a9 9b3e fe61 883e 8a29 02bc
000002f0: 3e7a 0d3f ce14 d63e 023f 263f c795 493e
0.27477407 -0.19452693 0.32354978 -0.36656255 -0.13973273 -0.2950547 -0.8092862 0.40706024
-0.42707345 -0.4540857 0.087883316 -0.14691713 -0.018022774 0.0994439 0.33859858 -0.14140484
-0.30300564 -0.18030918 -0.12985733 -0.63118505 0.25610036 -0.3735478 -0.054246265 0.16159137
-0.30009097 -0.5781625 -0.11525647 -0.03978488 0.2646964 -0.021607114 0.41913074 0.0627485
-0.13470596 -0.20831649 -0.18595824 0.11297716 -0.1535804 0.17709185 -0.08180098 -0.19633266
-0.7068751 -0.3252079 0.11089113 0.3687619 0.24825715 0.29010126 0.15836464 0.1616419
0.160532 -0.046162732 0.36715135 -0.49436954 0.15605149 -0.52100784 0.045399114 -0.18185857
-0.24752116 0.44414222 -0.024396788 -0.015617684 0.53771436 0.5493951 1.0593809 0.21462815
0.32450002 -0.1713112 0.12410076 -0.016688988 0.23811497 -0.26347592 -0.6789777 0.36891288
-0.17109126 -0.22106782 0.3590839 -0.13621198 -0.18245548 0.06269595 0.3755957 0.0019225896
-0.0020168624 -0.33298013 -0.21241024 -0.21059561 0.006755847 -0.26508933 -0.28773624 -0.059484083
-0.016241472 -0.40084136 0.110555656 -0.10620678 0.18458918 0.118920125 0.40817162 0.31520197
-0.10311939 0.16793236 -0.22288522 -0.46455297 0.11032579 0.17364125 -0.13648444 -0.13793565
-0.8012455 -0.05454141 0.18857968 0.36025232 0.17203827 -0.440633 0.0691533 -0.09403188
0.2730669 -0.089108996 0.11861668 -0.03377764 -0.010550048 0.014551787 -0.21830598 -0.14673157
-0.1015348 0.4419317 -0.14653221 -0.29452434 0.5366676 0.4841755 1.0405495 0.27316403
0.23648787 -0.21767244 0.12891603 0.046761554 -0.03854092 -0.203789 -0.42805642 0.34745514
-0.14004448 -0.0045563043 -0.3687364 -0.23260623 -0.39252833 -0.34661376 0.36360884 0.27399486
0.03520302 -0.6483414 -0.37044916 0.025808705 0.2021299 0.0059159137 -0.094455875 -0.43240333
0.22122687 -0.47089732 0.32637814 -0.1599289 0.8149124 0.17294793 0.37200046 0.15759821
0.10092656 -0.24392502 -0.20500103 0.14683154 -0.23552297 0.18061465 -0.22593863 -0.10771911
-0.7950161 0.035044115 0.2032003 0.35294378 0.09216149 -0.026737781 -0.32923776 -0.106293656
0.35778305 -0.6838045 0.021373097 0.37124914 -0.19900689 0.16243705 0.0463629 -0.08998272
-0.097857155 0.30402878 0.26637262 -0.007944474 0.5526465 0.41812748 0.6493989 0.19686042

4.bias f4 [3]
00000000: 1f65 9abf 90bb 9fbf 2437 8ebf
-1.206211 -1.2479115 -1.1110578
